nnvision/data/model_weights/v1_data_driven/sota_cnn_ensemble_model_8.pth.tar (torch, 309331 bytes, 30 tensors)

core.features.layer0.conv.weight f4 [32, 1, 24, 24]
000000 42 49 e3 be 6b bf 06 bf e3 a3 f8 be 31 16 d9 be
       -0.4439183 -0.5263583 -0.48562536 -0.42399743
000010 31 70 b4 be 7d 41 89 be 2c 57 3e be b8 19 ea bd
       -0.35241845 -0.26807776 -0.18587941 -0.11430687
000020 cc 42 56 bd d9 9b 64 bc c6 7a a0 3c 6f d6 e5 3c
       -0.052309796 -0.013953173 0.019589793 0.028056351
000030 6e 67 da 3c 61 57 05 ba 2c e8 02 bd b3 78 98 bd
       0.026660647 -0.0005086568 -0.031959698 -0.074448965
000040 0c f0 f2 bd a7 61 25 be 9c 46 45 be 6a dc 50 be
       -0.118621916 -0.16150533 -0.19265217 -0.20396581
000050 a4 e0 44 be b0 21 26 be e1 6d f1 bd 22 a4 88 bd
       -0.19226319 -0.16223788 -0.11788536 -0.06671931
000060 7f f9 f2 be 77 16 0e bf 0b 0e 02 bf ab 2b e2 be
       -0.47455975 -0.5550303 -0.5080268 -0.4417394
000070 c8 4c bd be fd 18 91 be 6c 73 48 be 30 28 f4 bd
       -0.36972642 -0.28339377 -0.1957528 -0.11921728
000080 f6 35 5e bd e7 41 4e bc 6f 6e 96 3c f6 4d d1 3c
       -0.05425068 -0.0125889545 0.018363206 0.02554987
000090 46 6a a3 3c 8a 64 4f bc 32 26 4e bd b4 f3 d9 bd
       0.019948136 -0.012658248 -0.050329395 -0.10642186
0000a0 f5 dc 25 be 40 be 62 be 1b ce 86 be 85 ee 8c be
       -0.1619757 -0.22142887 -0.2632912 -0.27525726
0000b0 be bc 7e be b2 66 47 be d0 67 f3 bd c4 63 3e bd
       -0.24876687 -0.19472769 -0.11885035 -0.046481863
0000c0 b5 c0 c8 be f3 c9 e5 be 93 7c ce be d9 43 b2 be
       -0.39209524 -0.44880638 -0.40329418 -0.3481739
0000d0 d4 8d 95 be 7c 10 61 be ad c0 15 be 06 fb 9f bd
       -0.2920977 -0.21978945 -0.14624281 -0.07811551
0000e0 9f 44 b4 bc ca 03 82 3c 9d 2b 1f 3d 00 14 18 3d
       -0.022005377 0.015870947 0.038859952 0.03712845
0000f0 4d f9 b4 3c ad 87 9f bc c3 bf 79 bd eb 1a f1 bd
       0.022091532 -0.019473875 -0.060973894 -0.11772712
000100 ae f6 2c be cf 28 6a be b0 0f 8b be 75 98 91 be
       -0.16890976 -0.2286713 -0.27160406 -0.28436628
000110 fd 8e 81 be 78 a7 42 be 4f 50 c4 bd 2f 8a 36 bc
       -0.25304404 -0.19009197 -0.0958563 -0.011141344
000120 3a 2d a3 be a8 77 b5 be ad 30 a0 be 94 76 85 be
       -0.31870443 -0.35442853 -0.31287137 -0.2606703
000130 21 69 5d be 37 b2 20 be 83 da cc bd aa 37 42 bd
       -0.21622135 -0.15692984 -0.10002615 -0.047416367
000140 db ae 17 b8 ce 27 13 3d 40 c9 73 3d 03 23 7b 3d
       -3.6164052e-05 0.035926633 0.0595181 0.061312687
000150 7e 7f 2e 3d a8 e6 62 ba 11 72 3e bd 25 f3 c8 bd
       0.042602055 -0.0008655586 -0.0464955 -0.09812001
000160 f1 84 0a be 36 b1 3d be 1b 2e 60 be 60 90 6f be
       -0.13527276 -0.18524632 -0.21892588 -0.23394918
000170 f9 1c 56 be c6 21 1d be 37 b8 7a bd 4a 51 ac 3c
       -0.2090949 -0.15344915 -0.061210837 0.021034855
000180 c8 a9 89 be bf 45 96 be 68 a8 82 be 7c 38 53 be
       -0.26887345 -0.29350087 -0.2551911 -0.20627016
000190 89 9f 2a be 13 ec ef bd 00 0c 9c bd e5 8e 1d bd
       -0.1666242 -0.117149495 -0.07619476 -0.038466353
0001a0 7f a3 91 ba e3 0f 15 3d 72 81 86 3d 4c 6b 9f 3d
       -0.0011111348 0.036392104 0.065676585 0.07784137
0001b0 99 c9 8c 3d 91 fd e7 3c b9 e0 94 bc a6 5b 8e bd
       0.06874389 0.028319152 -0.018173562 -0.06951074
0001c0 d9 72 ca bd c5 be 0c be 7b 61 21 be 9a be 29 be
       -0.09885187 -0.13744648 -0.15759842 -0.16576615
0001d0 14 ac 13 be 0b 36 c4 bd b6 23 50 bc b6 6d 69 3d
       -0.14421111 -0.095806204 -0.012703827 0.056989394
0001e0 4e 2c 67 be e6 e6 73 be 58 e4 51 be 9c fa 21 be
       -0.22575495 -0.2381855 -0.20497262 -0.15818256
0001f0 5e a3 f5 bd 03 ae 95 bd f6 f3 38 bd 9e f9 bc bc
       -0.119940504 -0.07308581 -0.045154534 -0.023068246
000200 e5 9b d4 b9 28 05 e6 3c 09 07 68 3d d4 0c a3 3d
       -0.00040551941 0.02807863 0.056647334 0.07961431
000210 f8 0f b5 3d 8f 56 82 3d 68 8d b5 3c 31 4a f5 bc
       0.088409364 0.06364166 0.022162154 -0.029942604
000220 f1 bb 77 bd f4 51 c2 bd 16 83 d2 bd 07 19 d0 bd
       -0.06048197 -0.094882876 -0.10278909 -0.101610236
000230 1c 1e 9b bd c3 85 0e bd 12 26 07 3d 46 e4 ab 3d
       -0.07574102 -0.034795534 0.03299529 0.08393149
000240 cd de 35 be 85 3d 33 be 45 68 11 be 21 75 d3 bd
       -0.17760773 -0.17503937 -0.14199932 -0.10325075
000250 61 bf 88 bd ae 60 aa bc 91 93 37 3b 4a 91 82 3c
       -0.06677128 -0.020798054 0.002801154 0.01593842
000260 a2 b4 aa 3c a9 06 06 3d eb 7c 42 3d 49 55 91 3d
       0.020838086 0.032721195 0.047482412 0.07096345
000270 1d e0 c2 3d fb 7f bb 3d 53 fb 87 3d f7 fa a4 3c
       0.095154025 0.0915527 0.06639733 0.0201392
000280 46 c8 6d bc 50 65 66 bd 82 0f 8c bd 53 d9 8a bd
       -0.014513081 -0.056248963 -0.068388954 -0.067797326
000290 40 13 26 bd 17 aa 35 bb 70 98 5c 3d 81 3a bb 3d
       -0.040545702 -0.002771979 0.053856313 0.09142018
0002a0 b1 ad fe bd 93 81 bd bd 71 fa 5d bd 51 78 a3 bc
       -0.12435473 -0.0925323 -0.054193918 -0.019954832
0002b0 ff a6 1e 3c 47 f0 62 3d 2a e2 a1 3d 86 44 b7 3d
       0.00968337 0.055404928 0.079044655 0.08948617
0002c0 26 76 a9 3d 88 a5 9d 3d 6c 2f 90 3d 8d 0e a2 3d
       0.08274488 0.07697588 0.07040295 0.079129316
0002d0 8f cb ce 3d 31 63 de 3d 64 0e ce 3d 97 0c 8b 3d
       0.100974195 0.10858763 0.100613385 0.06789511
0002e0 71 e4 17 3d 51 42 23 bc 1f 8c 03 bd 02 30 1e bd
       0.037083093 -0.0099645415 -0.03211605 -0.038620003
0002f0 1e 59 78 bc 8f 8b 8a 3c fa 53 88 3d 4b 46 c0 3d
       -0.015157966 0.01691225 0.06656642 0.09388407
000300 b3 6d a7 bd 10 ae aa bc 9c f5 ec 3c c6 61 4e 3d
       -0.0817522 -0.020834953 0.02892571 0.050386213
000310 66 b9 89 3d b4 d5 d2 3d cb 34 01 3e 57 7e 0d 3e
       0.06724815 0.10294667 0.12617795 0.13817726
000320 a6 96 03 3e b5 c3 e8 3d bc d0 ad 3d 37 af 88 3d
       0.12850437 0.11365453 0.084870785 0.066740446
000330 b0 4c 85 3d 4f 8e 8b 3d 31 48 96 3d c0 1a 89 3d
       0.065087676 0.068142526 0.07337988 0.06694555
000340 f3 37 68 3d 4c ff a1 3c 7a 6f 05 bc 1d 44 e8 bc
       0.056693982 0.019775055 -0.008144254 -0.028352791
000350 85 ee 99 bc 3b 4a c2 3a 07 d7 2f 3d 3c f4 8e 3d
       -0.018790493 0.0014823148 0.042929675 0.06980178
000360 b9 8e 59 bd 25 b6 d8 3c 83 14 a5 3d a7 e7 bc 3d
       -0.053114627 0.02645404 0.08060553 0.09223872
000370 fd 5f b8 3d 0b 1f e1 3d ca 0c ff 3d 8f 0f 0d 3e
       0.09002683 0.10992249 0.12453611 0.13775466
000380 73 64 0a 3e 9d d6 fa 3d 7c ad b4 3d aa 91 51 3d
       0.13514881 0.122479655 0.08822152 0.051164307
000390 4e 4f d6 3c dc 79 84 3c 44 47 ed 3c ea c1 41 3d
       0.026160862 0.016171388 0.028964646 0.04730407
0003a0 6f 5c 82 3d ca 97 46 3d 20 66 e2 3c 33 1e 44 39
       0.063652866 0.0484846 0.027636588 0.00018703267
0003b0 f6 a3 cb bb ce 5e da b9 fb 5f eb 3c ab d6 56 3d
       -0.006214614 -0.00041650835 0.02873229 0.052450817
0003c0 2a 35 26 bd 83 69 26 3d f9 44 c9 3d 00 a5 db 3d
       -0.040578045 0.040627968 0.098276086 0.107248306
0003d0 5b e1 c3 3d f6 b5 c1 3d 51 d0 c5 3d a5 7c df 3d
       0.095644675 0.094585344 0.09658874 0.10912446
0003e0 41 b5 f3 3d d9 39 f5 3d 25 ba bd 3d 7e d8 56 3d
       0.11899806 0.11973924 0.0926402 0.052452557
0003f0 55 a3 0c 3c bd aa 9f bc 18 4e 46 bc 07 55 9b 3c
       0.008583863 -0.019490594 -0.01210358 0.018961443

core.features.layer0.norm.weight f4 [32]
000000 30 9c 2b 3f 18 d3 ad 3f 04 11 87 3f f4 17 a8 3f
       0.670352 1.3580046 1.0552068 1.313231
000010 8d 10 5a 3f 11 f7 4d 3f 60 d3 3c 3f 02 a3 02 40
       0.85181504 0.8045512 0.7376003 2.0411992
000020 ae 9b 1a 3f 54 ea 38 3f 61 27 11 3f 09 37 35 3f
       0.603938 0.72232556 0.5670071 0.707871
000030 6e 1a bb 3f 52 b3 b9 3f 5d 48 6c 3f 93 1b 40 3f
       1.4617441 1.4507849 0.9229792 0.75042075
000040 a0 a3 f9 3e 62 49 11 3f a0 3a 12 3f 30 b5 26 3f
       0.48757648 0.567526 0.57120705 0.6512022
000050 0a 3b ac 3e f3 22 1a 3f df df c0 3e 5d a6 1c 3f
       0.33638793 0.6020958 0.376708 0.6119135
000060 8c be 69 3f cd 6b 3a 3f 76 36 29 40 52 e8 43 3f
       0.91306376 0.7282074 2.643949 0.7652637
000070 c3 f3 cd 3e d4 56 51 3f b0 0f 70 3f d7 98 53 3f
       0.40225038 0.81773114 0.9377394 0.8265509

core.features.layer0.norm.bias f4 [32]
000000 76 09 3a be 7e 63 e4 bd 15 f8 e3 3e c3 1e 70 be
       -0.18167672 -0.11151789 0.4452521 -0.23449235
000010 d4 2c 7b bb 7b 62 96 bf 64 f6 cd 3d 6e 72 0e bd
       -0.003832628 -1.1748804 0.10056761 -0.034777097
000020 24 bb 34 be 88 38 08 3e eb 8e 68 3d f1 df 86 3d
       -0.17649513 0.13302815 0.056776922 0.06585682
000030 06 94 0a be 48 f5 67 be c8 25 4e bf c0 f0 b0 3e
       -0.13533029 -0.22652161 -0.805264 0.34558678
000040 79 85 09 3d 77 a3 ba bd 4c 58 85 be c5 89 13 3f
       0.033574555 -0.0911321 -0.26043928 0.57632095
000050 f8 2e 0a be 12 85 17 bc 6f f5 52 be 45 12 80 be
       -0.1349448 -0.009248035 -0.20601438 -0.2501394
000060 5b 6d 8d bf 64 12 53 bb 5a 1b 87 bf c9 fc 51 3e
       -1.1048998 -0.0032207007 -1.0555222 0.20506586
000070 46 2c 26 be 9d 9a 2d bf 38 b0 98 3e 72 c2 f9 bd
       -0.16227826 -0.67814046 0.29821944 -0.121952906

core.features.layer0.norm.running_mean f4 [32]
000000 1f 03 0b bf 4b 0e b0 be bf ae d4 be bb 5f cd be
       -0.5430164 -0.34385905 -0.4153957 -0.401121
000010 c2 7b 68 bf 78 dc cd 3e da 22 cf be e0 26 41 3d
       -0.9081384 0.40207267 -0.40456277 0.047156215
000020 ac 83 11 3f ed 6c ff be af 12 01 bf e3 2b da be
       0.5684154 -0.4988779 -0.50419134 -0.42611608
000030 c9 d9 50 3f ba 47 b0 3e c7 2f a2 3e 6a 27 9b be
       0.81582314 0.34429723 0.31677076 -0.30303508
000040 5c 27 cd be df c4 d0 be bc cf 86 be 22 f9 97 3d
       -0.4006909 -0.407752 -0.26330364 0.07420565
000050 83 c6 bf be 84 d7 72 be 5b 07 b3 be 43 61 b8 be
       -0.3745614 -0.23715025 -0.3496655 -0.36011705
000060 0d d8 ff 3e 21 7a 00 bf 3d 07 68 3c bc ed a3 be
       0.4996952 -0.50186354 0.014161882 -0.32017314
000070 32 5c 01 bf ed 34 c6 3e df 6d b3 bd c1 c5 60 bd
       -0.50531304 0.38712254 -0.087611906 -0.054876093

core.features.layer0.norm.running_var f4 [32]
000000 86 bc df 42 55 1b d6 42 84 b0 03 43 82 d2 7e 43
       111.86821 107.05338 131.68951 254.8223
000010 52 8a 89 43 55 3c bb 42 19 fb 0e 43 e7 24 3b 41
       275.08063 93.617836 142.98085 11.696509
000020 bf fb 03 43 50 81 b3 42 fa 95 b3 42 37 2c 85 42
       131.98338 89.75256 89.79292 66.58636
000030 a6 d9 5d 43 36 fe a0 42 c9 c0 7c 42 c8 90 4c 43
       221.85019 80.496506 63.188267 204.56555
000040 50 d9 18 42 63 d0 50 43 3a be ba 42 83 44 24 41
       38.21222 208.81401 93.37154 10.2667265
000050 f2 ea c6 42 21 62 54 43 8f e7 31 42 53 9d 29 43
       99.45888 212.38332 44.47613 169.61455
000060 a2 02 f6 42 99 12 07 43 38 27 6b 41 f6 36 9a 42
       123.00514 135.07265 14.697075 77.107346
000070 77 4a 08 43 d3 b1 c3 42 2f 01 8b 43 63 96 ae 42
       136.29088 97.84731 278.00925 87.293724

core.features.layer1.ds_conv.in_depth_conv.weight f4 [32, 32, 1, 1]
000000 a4 e7 6b 3d e2 76 cf 3e fd a2 ff bd f6 56 9c 3e
       0.057593957 0.40520388 -0.124822594 0.30535096
000010 50 ee a8 bd c2 ba af bd 6d 51 44 bc 7d 2e 9f be
       -0.082485795 -0.08580543 -0.011982304 -0.31090155
000020 a0 3f 2a bd 69 37 82 be ea 55 58 bc 8b a9 69 bd
       -0.041564584 -0.254329 -0.013204077 -0.057046454
000030 3f 0b 2e 3e 16 70 3a be 7f a7 35 3e 32 1e 83 3e
       0.16996478 -0.1820682 0.17739676 0.25608975
000040 1f 1d a5 3d f7 38 ef bd 7b 61 35 3e 45 91 a3 b9
       0.08062195 -0.11680787 0.17712967 -0.00031198017
000050 60 4d db 3c 7b 5a f1 3d 5e 5b a0 3d 42 a9 3b bd
       0.026770294 0.11784836 0.07829927 -0.045815714
000060 67 8e ab be 63 65 63 3d 84 66 03 3f 5a 34 b6 3c
       -0.33507082 0.05551661 0.513283 0.02224176
000070 09 8d 34 bd 83 ed 9f bd 4b 09 46 3e d7 53 9d bd
       -0.044079814 -0.07808974 0.19339482 -0.07682007
000080 90 c1 5f 3e 46 c6 7d 3d 23 9f 7b be af 9b 58 3e
       0.21851182 0.061956666 -0.24572425 0.21153139
000090 73 f9 9f 3d 69 97 88 bd c4 bf 1c be b1 93 95 bd
       0.078112505 -0.06669504 -0.15307528 -0.073035605
0000a0 d8 9a fd bd d8 32 43 3d a0 57 bc bd b6 91 8e be
       -0.1238305 0.04765591 -0.09196401 -0.27845544
0000b0 09 dd 99 3d f7 81 00 3f e0 53 d0 3d 27 24 b8 3e
       0.07512862 0.5019831 0.10172248 0.35965082
0000c0 db 7c 83 3e c0 a8 e4 3d a5 a1 8b bb 2d 90 7f 3d
       0.25681195 0.11164999 -0.004261213 0.062393356
0000d0 6e 32 5d 3e 7e 35 16 3d ca 1a ba 3d f3 4b b5 bd
       0.21601269 0.036672108 0.09087141 -0.08852377
0000e0 7e 3f 3d be eb e4 5b 3e d8 d2 90 3e 69 c2 eb bd
       -0.18481252 0.21474044 0.2828586 -0.1151169
0000f0 e8 70 c6 3d 44 24 c8 be 18 43 93 3e 77 37 5d 3e
       0.09689504 -0.39090168 0.28762126 0.2160319
000100 bc 28 8b 3e ca e1 45 3d 64 0d 80 be 7c 68 06 3e
       0.27179515 0.048311032 -0.25010216 0.13125795
000110 2b 92 55 be da de d6 be 39 9f e7 3d a5 1c 33 be
       -0.2085654 -0.41966897 0.11309666 -0.17491396
000120 aa 71 8d be 4d 91 84 3c 45 de 6b be 3f 69 19 be
       -0.2762578 0.016182566 -0.23034008 -0.14981554
000130 14 3e 2c 3d d6 65 6a be 85 c2 27 be a1 9c 9f 3e
       0.04205139 -0.2289041 -0.16382797 0.31174186
000140 c1 db 26 3e 95 7d f4 bd 3e 90 43 be 12 a3 35 3d
       0.16294767 -0.11938015 -0.19097993 0.04434497
000150 82 fc 6f 3e ed 80 8f be 1f 83 ee 3d 9e ee 0a bb
       0.23436168 -0.2802805 0.11646103 -0.0021199356
000160 97 64 0e bf e6 50 95 bd 00 34 33 be e7 70 a4 be
       -0.5562224 -0.07290821 -0.17500305 -0.32117388
000170 2d 31 c3 bd 9d 23 16 bf 51 a5 6f 3d 13 89 0a 3b
       -0.09530864 -0.5864809 0.058507267 0.0021138832
000180 85 95 9d bc b3 0f 96 be 7b 04 b8 3e ce 7b 0b be
       -0.019236336 -0.29308853 0.35940918 -0.13621446
000190 71 37 da 3d c7 e4 67 3e b9 1e 8f 3d 24 02 9a 3e
       0.10655106 0.22645865 0.06988282 0.30079758
0001a0 71 5f 92 3e 69 5b 8f bb 79 2f 1b 3e 96 6b 8c 3e
       0.2858844 -0.0043749106 0.15154828 0.27425832
0001b0 76 6d 26 3f a9 27 9d 3d 9f 1b 59 3e 8b 31 1a 3e
       0.65010774 0.0767358 0.21201943 0.15057962
0001c0 19 23 64 bd 18 cd 95 bd cf 29 13 bd 9d ca 06 3d
       -0.055697534 -0.07314509 -0.035928544 0.03290807
0001d0 15 86 3b 3e f0 3d e3 bd 86 b2 8d 3e 0e b1 81 bd
       0.18312867 -0.11095798 0.27675265 -0.063325986
0001e0 0f b7 a9 3d 80 ee 3b 3e bc 77 92 3e e9 df 30 3e
       0.08286869 0.183527 0.28606975 0.17272915
0001f0 9c 9c 17 be 08 35 8d 3d ec f1 71 bd 72 50 44 3e
       -0.14805835 0.068948805 -0.059068605 0.19171312
000200 af 9d cb bd 18 c9 95 3d 78 9f 5c 3d 5c 59 b4 3d
       -0.09942185 0.07313746 0.05386302 0.088061064
000210 05 1e 5d bc 6b c5 c7 bd f5 c9 f7 bb 9e 76 6e bc
       -0.013495927 -0.09754451 -0.007561917 -0.014554648
000220 79 68 10 3e b0 59 7b be ed 2e f1 3c 4c 7f 6f 3e
       0.14102353 -0.24545932 0.029441321 0.23388404
000230 b1 9e 7f be 20 ee 0a 3e 6b ec 22 bb 16 aa 4b 3d
       -0.2496288 0.135674 -0.0024860154 0.049722753
000240 0d 62 ce bd 8e 23 3d 3e 00 e9 09 3d ed 7d 6b b7
       -0.100772955 0.18470594 0.03366947 -1.4036411e-05
000250 8d 99 81 be 46 33 62 be 36 3e 3a be 49 06 39 3e
       -0.25312462 -0.22089872 -0.18187794 0.18068804
000260 f1 18 55 3e 00 14 ab 3d 97 a1 17 bf 25 76 41 3d
       0.20810296 0.08353424 -0.5923094 0.047231812
000270 05 1e 18 bd 3a 7e 65 3d 7b 78 c1 3d 14 4c e8 3d
       -0.037138004 0.056028582 0.09446808 0.11342636
000280 dc a2 58 3d d0 2f ae be b6 b7 08 be 07 ce ce 3e
       0.05288969 -0.34020853 -0.1335133 0.4039156
000290 68 c0 a7 3c a0 9f dc 3e b7 49 22 3f fe e9 11 3e
       0.020477489 0.43090534 0.6339373 0.14249417
0002a0 f7 30 75 be c3 73 79 bd 80 10 4c be 49 1c 43 be
       -0.2394446 -0.060901415 -0.19928169 -0.19053759
0002b0 8c 75 18 3f 4c 0c e8 be 9f 4b 5c be b9 8a 37 be
       0.5955436 -0.45321882 -0.21513222 -0.17924012
0002c0 7c 2f 98 3e 22 98 ad bc 6b 05 37 3e 56 d6 16 3e
       0.29723728 -0.021190707 0.1787316 0.147302
0002d0 e0 5c d3 3d e3 3b c5 be 39 89 c9 bd 3e 5d 45 bc
       0.10320449 -0.38522252 -0.09840626 -0.012046156
0002e0 86 55 f8 be c9 3e 42 bd 46 05 40 bd 34 ad 88 3e
       -0.4850275 -0.047423158 -0.04688003 0.26694643
0002f0 5b 95 a3 bc 25 81 37 3e 41 a8 63 ba 3e 07 8c be
       -0.01996868 0.17920358 -0.00086844346 -0.27349275
000300 dc 50 2a bd 33 a4 d5 3d a7 51 ab 3d 96 16 20 3e
       -0.04158102 0.10431709 0.08365183 0.15633616
000310 50 96 0e 3e 1e ee b2 3e d7 f8 0f 3c fd 79 b1 bd
       0.13924527 0.34947294 0.008787355 -0.086658455
000320 4c c7 1d 3c 23 8a 22 3e 5e 91 19 be e5 fc 15 3e
       0.009630036 0.15873007 -0.1499686 0.14647253
000330 9b a6 d9 3e 71 44 15 bf 61 8b 1a 3e c5 9e 01 be
       0.42509922 -0.5830756 0.15092231 -0.12658222
000340 37 d8 6c be 7f 79 30 3d bf d7 40 be 87 35 b9 bc
       -0.23129354 0.043084618 -0.188323 -0.022608532
000350 3f 0b 9c bd fa 1b d1 bd f9 19 c3 bd 1b 47 55 bc
       -0.076193325 -0.10210414 -0.09526438 -0.013017441
000360 2a f8 5c 3e 71 4b ed 3d af 17 8c bd b0 60 87 bc
       0.21579042 0.11586655 -0.06840455 -0.016525596
000370 61 97 8d 3d 4c 9f b2 3c a9 a8 cb bd 88 58 62 3e
       0.06913639 0.021804474 -0.09944279 0.22104084
000380 61 2b 24 3b d9 60 0d 3e cc cb 58 3e 4a fe 0b 3e
       0.002505027 0.13806476 0.21171492 0.13671222
000390 1e c7 53 3e 8c 81 59 bd 9d 2d 85 3d 99 ad 67 3f
       0.20681426 -0.05310206 0.06502841 0.90499264
0003a0 47 41 70 be 8d 60 61 bd b7 04 82 3d 41 e6 16 3e
       -0.23462401 -0.05502372 0.063485555 0.14736272
0003b0 53 ac 02 be c0 20 c8 3d 6b b5 a4 3d 2f de 0d be
       -0.12761049 0.097718716 0.08042415 -0.13854288
0003c0 4a 3c d8 3c 94 e3 3b bd 78 44 2b 3d e9 88 b5 3d
       0.026395936 -0.045871332 0.041813344 0.08864004
0003d0 00 25 43 3c 84 be 0c 3e 7d b6 5b be d7 48 44 be
       0.011910677 0.13744551 -0.21456333 -0.19168411
0003e0 e4 3e 72 3d 83 a9 5c 3c ee 11 9a 3d 09 d8 9c 3e
       0.05914201 0.013468149 0.07522951 0.30633572
0003f0 01 f5 56 3e 1d d5 f8 bb 8d 11 ed 3c 90 6a 24 be
       0.20991899 -0.0075937645 0.028939033 -0.16056275

core.features.layer1.ds_conv.spatial_conv.weight f4 [32, 1, 9, 9]
000000 59 46 f8 bd 9e 2b 9d bd 09 aa 3a 3e 8b 81 a8 3e
       -0.12122793 -0.07674335 0.18228926 0.32911333
000010 96 67 6c 3e 86 30 e8 3d 21 3b 3f 3e bc 97 0b 3e
       0.2308639 0.1133738 0.186749 0.13632101
000020 d4 42 e7 3d ab 0b 9f bc 47 f7 30 bd 3f 55 cb 3d
       0.11292043 -0.019414743 -0.043204572 0.09928369
000030 a8 9e 81 3e af 98 21 3e 8b 0b cd bd 72 ff 1d bd
       0.25316358 0.157809 -0.10011967 -0.03857369
000040 40 03 56 bd 89 cb e4 3c 4b 82 c7 3d b9 2a 60 bd
       -0.052249193 0.027929084 0.09741648 -0.054728243
000050 5b 2f df 3c 2f 7b 5d 3e 57 e6 d3 3d fd a8 17 be
       0.02724426 0.21629022 0.10346668 -0.14810558
000060 ae 34 da bd d6 66 10 be 3d fd 92 3c b6 b6 9e 3c
       -0.10654579 -0.14101729 0.017943019 0.019374233
000070 bb 5d f1 bd 12 f1 d9 bc fa c0 4b 3e 4c 2c 36 3e
       -0.11785456 -0.02660421 0.19897833 0.17790335
000080 a2 4b fa 3c 45 a2 90 bd 78 87 a6 bd 16 3d 97 bd
       0.030553643 -0.070622005 -0.08131307 -0.07384698
000090 c2 97 88 bd 98 5d ef bd fc 2b ba 3c 8b 02 ab 3e
       -0.066695705 -0.116877735 0.022726052 0.33400378
0000a0 78 4a a1 3e 9e 68 11 3e 17 88 a3 bc 59 4c bf bd
       0.31502128 0.14200065 -0.019962354 -0.09340734
0000b0 30 23 0b be 46 0c 3d 3d 1a b0 ec bc 25 ef 12 3e
       -0.13587642 0.046154283 -0.028892566 0.14349039
0000c0 53 01 df 3e 63 d8 bd 3e 6e 0c 44 3e e5 e0 32 3d
       0.43555698 0.37079152 0.19145367 0.043671507
0000d0 79 36 d9 bc 45 3d e1 bd 26 8f de 3d 43 0f bb 3d
       -0.026515232 -0.10998014 0.10867147 0.0913377
0000e0 51 c6 07 3e 40 5d b4 3e 3b 85 7f 3e 32 f8 7c 3d
       0.13259245 0.35227394 0.24953167 0.061760135
0000f0 7d 9d b6 bb f1 e9 12 bd 9a 69 a3 bc 2e 2d a6 3d
       -0.0055729733 -0.035867635 -0.019947816 0.08114086
000100 fb 80 ec 3c 39 da ae 3c dc c3 2f 3e 51 9c f4 3d
       0.028870096 0.021344291 0.17164558 0.119438775
000110 26 b0 a0 bd 9d 58 23 bd b5 11 5f 3b 5c 05 52 bd
       -0.07846098 -0.03987943 0.0034037654 -0.051274642
000120 2d 69 5d 3d bb ce 2e bc 53 5e a0 bd 92 06 ab 3d
       0.05405538 -0.010669406 -0.07830491 0.083508626
000130 42 0b e1 3d 1c a9 8a 3c 2d e2 6b 3d 86 48 8a bc
       0.109884754 0.01692634 0.057588745 -0.016880285
000140 fb 39 c5 bd 5d e8 82 3d 08 bb 58 3d 37 d4 16 3e
       -0.096301995 0.06391976 0.052912742 0.14729391
000150 e5 5c 18 3e ed 29 12 3d e1 27 b7 bc 76 35 11 3c
       0.14879186 0.035684515 -0.022357883 0.008862844
000160 6c 38 ed bc 65 8a 4c 3d 49 e3 3a 3d 3a ec 2d 3d
       -0.028957568 0.04993667 0.045626912 0.04246161
000170 b1 3a 86 3d 47 b1 73 3d 18 61 89 3d fb 97 9e bb
       0.06554163 0.059495237 0.06707972 -0.004839895
000180 3c 9e a1 3c 46 06 1b 3d 74 70 26 bc 3e 82 98 bb
       0.019728772 0.03784778 -0.010158647 -0.004654198
000190 ec 88 ad bc 59 86 c2 3d 04 17 a3 3d 3d e7 d7 3d
       -0.021183454 0.09498281 0.07963374 0.10542152
0001a0 8f 2a 28 3d 19 b9 29 3d f9 41 88 bb a4 68 95 bc
       0.041056212 0.04143629 -0.004158255 -0.018238373
0001b0 3d 33 48 3d 03 61 3a bd 1c 28 29 3d 17 08 a7 3d
       0.04887699 -0.045502674 0.041298017 0.0815584
0001c0 e9 4e 8f 3d 3c 3c 99 3d ce c3 1d 3d 08 5a f8 bc
       0.06997473 0.07482192 0.038516812 -0.030316368
0001d0 d5 0d ac bb ed 80 84 3d 0d f5 81 3d b3 bb 4b 3d
       -0.0052506723 0.06469903 0.06345568 0.04973955
0001e0 48 e7 95 3d 75 e6 c6 3d 26 ef a2 3d 42 76 7a 3c
       0.07319504 0.09711925 0.0795577 0.015286984
0001f0 3a f4 bf bd c7 98 da 3c 14 e7 d3 3b 7e 52 3a 3d
       -0.093727544 0.026684178 0.0064667556 0.045488827
000200 eb e0 49 3d b1 e5 23 3d 93 da cf 3d 86 8e cf 3d
       0.049286764 0.040013973 0.101491116 0.10134606
000210 f1 23 7a bc eb e8 0e bd 36 9f af bc e3 78 07 3d
       -0.015267358 -0.034890097 -0.021438222 0.03307427
000220 a1 46 5d 3d b6 f2 b5 3c a9 86 59 3d 21 f3 d5 3d
       0.054022435 0.02221046 0.053106938 0.10446764
000230 36 19 d4 3d d6 ae d0 bc c0 cb 3d bd 7e 79 a4 3b
       0.10356371 -0.025473993 -0.04633689 0.005019366
000240 77 b9 00 3d 1c 80 0f bb 7e 08 0b bb 9e c3 7d 3d
       0.031426873 -0.0021896427 -0.0021214779 0.061954133
000250 39 03 bf 3d 8e fc 82 3d 79 2a 2d bb ad 0e 82 ba
       0.093267865 0.06395827 -0.002642302 -0.0009922587
000260 58 a7 97 3d 8b 99 a7 3b cd f9 e5 3c a0 11 93 3c
       0.07404965 0.0051147393 0.028073216 0.01795274
000270 84 dd 66 3d 9d 8f 34 3d 78 0a e4 3c 33 c8 9a 3c
       0.056363598 0.044082273 0.027837023 0.01889429
000280 00 56 57 3c 53 16 9a bb 24 ac bb 3c ab 19 13 bd
       0.013143063 -0.0047023683 0.022909231 -0.03591315
000290 ee 92 da bd 27 a7 2a be 2e af 06 be 47 ea 18 be
       -0.10672556 -0.16665326 -0.13152763 -0.1493312
0002a0 ed b9 0c be 2c 81 37 be 0e 60 5f be e5 34 b7 3d
       -0.137428 -0.17920369 -0.21813986 0.08945636
0002b0 23 b8 44 3d fb db 1f 3c 01 01 81 bd 3c 01 ff bd
       0.04802717 0.009757037 -0.062990196 -0.12451407
0002c0 15 92 0d be 63 6e b5 bd fe 7b ce bd bb 1b 1f be
       -0.13825257 -0.08858945 -0.100822434 -0.15537922
0002d0 60 e2 3d 3e 07 2a 1e 3e 66 8f 87 3d 2b d3 a5 bc
       0.18543386 0.1544572 0.06619148 -0.020242294
0002e0 bc 85 11 bd d2 b6 9e bd 30 24 17 bd 5a a7 30 bd
       -0.03552793 -0.07749714 -0.036899745 -0.04312835
0002f0 8a aa 06 be 48 d5 63 3e ba cf 1d 3e b2 82 f7 3d
       -0.13150993 0.22249329 0.15411273 0.12085475
000300 b2 65 a7 3d 10 d7 74 3d b1 a0 c4 bc 5d 72 8c bd
       0.08173694 0.059775412 -0.024002405 -0.068577506
000310 c1 d7 ce bd 67 8f 2f be 8c ed 25 3e 96 3b 2c 3e
       -0.100997455 -0.17144547 0.16203898 0.16819605
000320 7f 87 b9 3d 98 81 b9 3d 27 a2 65 3d 73 3f 75 3d
       0.09059047 0.09057921 0.056062844 0.059874963
000330 3b 14 99 3d 18 6e 34 bd c0 a9 f2 bd 15 89 1c 3e
       0.07474562 -0.044050306 -0.118487835 0.15286668
000340 77 48 23 3e 92 ea 68 3d 28 d2 ad 3d 32 de 4e 3c
       0.15945612 0.05686433 0.0848735 0.012626218
000350 3e cb a9 bc ec f8 7c bc bb 82 bb bd fa c2 e9 bd
       -0.020726796 -0.015440207 -0.09155794 -0.11414142
000360 32 05 d8 3d 81 74 07 3e 8c 13 fc 3d a3 fd d8 3c
       0.10547866 0.13228036 0.12308416 0.02648813
000370 9f 41 0f 3d be a8 0e bd 20 c1 76 3b 7a ff b9 bd
       0.03497469 -0.034828894 0.0037651733 -0.090819314
000380 5c da 11 be 51 35 d5 3d eb bf 2b 3e 59 79 a8 3d
       -0.14243454 0.1041056 0.1677243 0.0822627
000390 36 2d b0 3d 19 e4 be 3d 57 c1 63 3d 99 4d 3c 3c
       0.08602373 0.0932085 0.055604305 0.01149311
0003a0 10 f3 8c 3c a8 c4 ef bd 46 f8 e2 3d cf 47 d3 3d
       0.017205745 -0.11707431 0.11082511 0.10316431
0003b0 76 f8 ea 3d 23 b7 ad 3d 28 7a 76 bc d7 b5 3e 3d
       0.114731714 0.08482196 -0.015043773 0.046560135
0003c0 e9 ab 0b 3d 98 5d 20 bd ab 4e c3 bd 05 b7 da bd
       0.034099493 -0.039151758 -0.09536489 -0.106794395
0003d0 6d 36 25 3d 7b e1 22 3c bf 65 9c bd 9e 22 cb bd
       0.040335108 0.009941454 -0.07636594 -0.09918712
0003e0 3d 61 99 bd d1 4a 12 3c 40 37 0a 3d 97 64 0f 3e
       -0.0748925 0.00892897 0.033744097 0.14003216
0003f0 7a d7 ab bd 51 bd 6c bd e6 40 4c 3c 32 4e c1 b9
       -0.08390708 -0.057797734 0.012466645 -0.0003687009

core.features.layer1.ds_conv.out_depth_conv.weight f4 [32, 32, 1, 1]
000000 1c 03 63 bd 52 cf 8a 3d e7 f5 1f be ee 67 04 be
       -0.055422887 0.067778245 -0.15621148 -0.12930271
000010 c7 65 9d 3e dc 62 db 3d 22 7e 59 bd a0 61 81 3e
       0.30741712 0.10712215 -0.053098805 0.25269794
000020 8a 30 66 bc ad f2 d5 3f be 8e b2 3d 17 46 d6 3d
       -0.014049659 1.6714684 0.08718632 0.10462587
000030 dc 7c 8f bd 6a f9 fb bd 5d bb 52 3e 3c 29 c7 3c
       -0.07006237 -0.12303431 0.20579286 0.024311654
000040 5f e2 97 bd 1e f1 ef bd d5 2c ea be 41 08 18 be
       -0.07416224 -0.11715911 -0.4573733 -0.14846899
000050 75 15 75 bd aa 06 83 3d b4 42 dd 3d 1a 83 70 bd
       -0.059834916 0.063977554 0.10803738 -0.05871878
000060 76 03 fb bd 34 82 dc 3d 2e 68 e8 bd 19 1e 61 3d
       -0.122565195 0.10767022 -0.11347996 0.054960344
000070 63 1a 5d bd e2 5b 87 3d 86 13 72 bd a6 02 3c be
       -0.053980242 0.06609322 -0.05910065 -0.18360385
000080 20 69 82 3d 76 41 c4 3d 8d 21 42 bc 95 65 f4 3d
       0.06367707 0.09582798 -0.011848819 0.11933438
000090 9d 4e 0b 3e 38 29 bb 3e a9 d2 b5 ba d8 7a 8b 3e
       0.13604207 0.36554885 -0.0013871986 0.2724216
0000a0 75 d7 64 3d 56 aa 1a be 96 3b 4b be b5 08 cd bd
       0.05586954 -0.1510404 -0.19846949 -0.10011426
0000b0 26 60 93 3d d9 d2 10 3e db 6d 36 bd e0 0e 1f be
       0.07196073 0.14142932 -0.04453836 -0.15533018
0000c0 de 48 92 3e d7 0d 11 3e f4 cb 1b be cd b2 2d 3e
       0.28571218 0.14165436 -0.1521452 0.16962738
0000d0 30 9b a9 bd 28 13 56 3e 02 6d e9 bc 2a 79 fe 3c
       -0.08281553 0.20905745 -0.028494362 0.031063635
0000e0 e0 c6 6d 3e e1 72 21 3f fb 2f 1a be df cf 9a be
       0.23220396 0.63065916 -0.15057366 -0.30236718
0000f0 9f 8e 18 bc 3e 1b 55 3e fb c4 cc be d6 ab 9f bc
       -0.009311347 0.20811173 -0.39994034 -0.019491117
000100 7d ba 83 bf 69 42 50 3e b3 9f 30 3e 30 40 f3 bd
       -1.0291287 0.20337833 0.1724842 -0.11877477
000110 42 de 13 3f 42 a8 05 be 79 e7 ea 3d ba 7a b2 3d
       0.57761014 -0.13052467 0.11469931 0.087148145
000120 5e 28 a9 3d ac d1 02 3e 4b d8 df 3d 4a a8 57 3e
       0.082596526 0.12775296 0.109299265 0.21060291
000130 d5 ce b5 3d bb 7c 86 be 8b f8 2c bd 13 01 21 be
       0.08877341 -0.26267037 -0.042229217 -0.15723066
000140 77 af 2a 3d 00 5d d4 3d 8b a1 80 be 30 bd 4d be
       0.041671243 0.10369301 -0.25123248 -0.200917
000150 6b 16 83 be f2 3c a5 be 25 7c 16 bd 59 c8 95 bc
       -0.2560304 -0.3227306 -0.036739487 -0.01828401
000160 bd 21 82 be f5 a9 46 38 19 b9 fe 3c 2b f2 76 bd
       -0.25416365 4.7365163e-05 0.03109412 -0.060289543
000170 52 09 c3 3e 86 dd 45 3c 1b 18 a7 bd 03 9a 90 be
       0.38093048 0.012076741 -0.08158895 -0.28242502
000180 3e 00 96 3d 20 82 4e be 68 d7 1b 3e 27 27 45 be
       0.07324265 -0.20166826 0.1521889 -0.19253217
000190 c8 89 4a 3d 44 0b 15 3f e7 ca 26 be 74 89 39 bd
       0.049447805 0.58220315 -0.16288339 -0.0452971
0001a0 ec 1e 17 be 87 28 1c 3d 14 fb 04 3f cd 09 34 be
       -0.1475789 0.038124587 0.51945615 -0.17581864
0001b0 02 50 08 bd dc 8f 3f bc ff a7 4c 3e 2c 5b 35 3e
       -0.033279426 -0.011692014 0.1998596 0.1771056
0001c0 bd 10 ef 3e 41 d7 99 3d f8 29 d3 3d da f8 60 be
       0.46692458 0.075117595 0.10310739 -0.2196993
0001d0 90 ab b0 bd 06 9b 42 3e 71 0d bf be 43 78 23 3d
       -0.08626473 0.19004449 -0.37314942 0.039909612
0001e0 27 6e d6 be 7f 38 60 3d a3 f5 51 be 31 cf b8 3e
       -0.41880915 0.05474138 -0.20503859 0.36095574
0001f0 03 36 b0 3d bd 07 1e bd 66 00 15 3e 62 c4 74 3d
       0.08604052 -0.0385816 0.14550933 0.059757598
000200 48 51 2a be 93 f8 32 be c2 55 b7 be a8 14 9e 3e
       -0.16632569 -0.17477636 -0.35807616 0.30875134
000210 ba 9e 28 bd fe 71 c8 be f1 eb 7f bd d0 a8 8f be
       -0.041167 -0.3914947 -0.06248087 -0.2805848
000220 5e 71 6e 3e 27 94 92 3e 63 c0 f7 3e 4a be 75 3e
       0.23285434 0.28628656 0.48388967 0.23998371
000230 80 3d 85 3d 7d 7b f6 bd 7d dd a5 be d8 77 48 3e
       0.06505871 -0.12035272 -0.32395545 0.19576967
000240 21 3a 9d be ed b5 f9 3d cf 9f 91 3e d0 54 47 be
       -0.3070841 0.12192903 0.28442237 -0.19465947
000250 e3 a5 b1 3b b9 82 32 bf 8b d3 94 bd d7 97 d6 3d
       0.0054213866 -0.69730717 -0.07266911 0.1047818
000260 5d 62 1e be 13 af a8 3d 85 61 e1 bd 24 65 70 3e
       -0.1546721 0.08236518 -0.110049285 0.23476082
000270 5d 02 1a bd 6e de b5 be 11 1f cb 3c 94 7c a3 be
       -0.03759991 -0.35521263 0.024795087 -0.31930983
000280 ab 75 c7 be 37 1c 22 bc 84 a5 8f 3d 33 cb ee bd
       -0.3895696 -0.009894422 0.070139915 -0.11659851
000290 92 13 da 3d b7 ce c9 bc 3f 60 40 bd 98 6d 24 3e
       0.10648264 -0.024634702 -0.046966787 0.16057432
0002a0 68 60 91 3c 15 78 93 3e 06 9a 8f be dc 84 2d 3e
       0.017746165 0.28802553 -0.28047198 0.16945213
0002b0 0c 16 88 bd df 2a fb 3e ec 05 e2 bd 9c 23 31 be
       -0.0664483 0.49056146 -0.11036286 -0.1729874
0002c0 21 62 a6 bc 81 5e 87 be 59 cc 36 bd 6f 03 32 be
       -0.020310463 -0.26439288 -0.044628475 -0.17384122
0002d0 82 78 02 3c 94 1f e1 bb b5 ad 70 3e 79 d7 40 3d
       0.007963302 -0.0068702195 0.23503764 0.04708049
0002e0 bd bd 77 be 81 cd 6a be fe 36 55 bd 1d 8d bd be
       -0.24193473 -0.22929956 -0.052054398 -0.37021723
0002f0 ca 11 22 3d 58 14 d1 3e 59 ed 0c 3e ec 64 7c 3a
       0.039567746 0.40835834 0.13762416 0.00096280756
000300 c5 cf 4a be 6b 6d e9 bd bd 0e 8c be 36 7e 8c 3e
       -0.1980582 -0.11397823 -0.27354994 0.2744004
000310 ef 53 85 bd 77 c0 d2 3d b2 14 5d 3d 34 a6 9d 3e
       -0.0651015 0.10290616 0.053974815 0.30790865
000320 25 08 06 3e 17 fc 99 3e 44 83 ea 3c 0f 5f e1 3d
       0.13089044 0.30075142 0.028627045 0.11004459
000330 5a 87 d5 3d 45 85 3e 3c 97 80 2a bf 04 be 08 be
       0.10426207 0.011628454 -0.6660246 -0.13353735
000340 3e 3f 2b 3e 2f 42 c9 bd c2 e1 3b bf 34 6d d7 bb
       0.16723344 -0.09827077 -0.73391354 -0.0065742973
000350 30 26 94 b9 28 1a c8 3e 75 83 10 be c8 39 16 3f
       -0.00028257212 0.39082456 -0.14112647 0.5868192
000360 3e cd 88 3d c1 e6 ad 3e 31 55 11 bf 59 c3 a7 3d
       0.06679772 0.33965114 -0.56770617 0.081915565
000370 a1 7c b9 3d 4c 32 d9 bb fd ff 87 3e 18 59 9e be
       0.09056974 -0.0066283103 0.2656249 -0.30927348
000380 5b e1 58 be 64 25 8f be 18 05 02 bd db f9 93 be
       -0.21179716 -0.27958214 -0.03174314 -0.28901562
000390 d1 26 ad 3e 5b 2a f1 bd 6a 24 fb bd af 88 0d 3d
       0.33818677 -0.11775657 -0.12262805 0.03455418
0003a0 c1 f5 04 3e 6a 59 64 3d 91 6b ac 3d 24 d5 ff 3e
       0.12984373 0.055749334 0.08418954 0.499673
0003b0 8a 0c 3d bb 7f a6 46 3e a6 89 24 bd 64 3d 39 be
       -0.0028846585 0.1939945 -0.040170334 -0.18089825
0003c0 14 6d b3 be 44 a2 60 3e fd 24 b7 bb df 3a b5 bd
       -0.35044158 0.219369 -0.005589126 -0.088491194
0003d0 62 49 a9 be 4c f6 04 be 64 57 ce be fa dd cb bd
       -0.330638 -0.1298458 -0.4030105 -0.09954448
0003e0 4a 33 c0 be 3a 60 50 bd 4c 09 c2 bd 46 16 c2 bd
       -0.3753913 -0.05087302 -0.094744295 -0.094769046
0003f0 0a 2f 32 3d 9f 40 5f 3e 1a b0 84 3d 6a 79 2c 3e
       0.04350189 0.21801995 0.06478901 0.16843191

core.features.layer1.norm.weight f4 [32]
000000 51 02 16 40 1c e3 5b 3f dd a1 62 3f e9 8c 21 3f
       2.3438914 0.85893416 0.88528234 0.63105637
000010 02 99 90 3f fe 84 84 3f 20 aa 2b 40 cd 7a 5c 3f
       1.1296694 1.0353086 2.6822586 0.8612488
000020 4a 31 40 3f 54 3b 92 3f 64 2d b2 3f aa 09 01 40
       0.7507521 1.1424356 1.3920102 2.0162148
000030 a4 cb 1e 3f 83 31 cd 3f 7f a6 eb 3f cb ba f1 3f
       0.6202948 1.6030735 1.8410186 1.888513
000040 90 bc e8 3f 42 f7 90 3f 10 39 79 3f ef 26 e7 3f
       1.8182545 1.1325457 0.97352695 1.8058757
000050 ef 61 ef 3f 36 49 dc 3f 65 81 57 3f 44 fb 3b 3f
       1.8701762 1.7209842 0.84181815 0.73430276
000060 62 bb c5 3f 6d e7 8e 3f 94 82 4e 3f ee a8 70 3f
       1.544781 1.1164376 0.80667996 0.94007766
000070 2f e0 5c 3f 9c f6 94 3f 43 98 8d 3f ca 5b 3d 3f
       0.86279577 1.1637759 1.1062092 0.73968184

core.features.layer1.norm.bias f4 [32]
000000 0d 91 41 bf 1c 7f b0 be 52 48 2e bf 6b d0 7d 3d
       -0.75611955 -0.34471977 -0.680791 0.06196634
000010 b3 33 9d bf c4 ae c8 be a4 93 20 bf 39 64 2c bf
       -1.2281402 -0.39195836 -0.6272528 -0.6734043
000020 54 86 c1 be 5d 41 0a be f7 58 ba 3e e4 9a 97 bf
       -0.37797797 -0.13501497 0.36396 -1.1844144
000030 18 0d 9b bf 6c 0f f0 be 66 0e d0 3d 61 8a 33 bf
       -1.2113371 -0.46886766 0.10158996 -0.70133024
000040 49 2c ec be f5 b7 b9 be 48 de d9 be 96 8f ff be
       -0.46127537 -0.3627316 -0.425524 -0.49914235
000050 ac 06 04 bf 4c 23 72 be 03 c3 fb bd d9 45 9d be
       -0.5157268 -0.23646277 -0.12293055 -0.30717352
000060 eb 1c 49 bf 0e ce db be 08 30 1c bf 05 2b 2e bf
       -0.7855975 -0.42930645 -0.6101079 -0.6803439
000070 ec 80 12 bf 81 66 d6 be 14 c6 52 be 67 7d 9a be
       -0.5722797 -0.4187508 -0.20583373 -0.301738

core.features.layer1.norm.running_mean f4 [32]
000000 df f7 46 bf 97 78 01 c0 6a 82 d9 bf 75 1c d0 bf
       -0.7772197 -2.0229852 -1.6992924 -1.6258684
000010 73 a5 ce bd f3 4d 13 3f 0f 0e ec bf db 8a 38 bf
       -0.10090151 0.57540816 -1.844179 -0.72086877
000020 21 3a 56 bf 34 e9 a6 bf e6 05 54 3f bb 7c 69 c0
       -0.8368245 -1.3039918 0.828215 -3.648238
000030 e6 2f 12 c0 d4 18 e9 be a3 0c 6a bf cd d3 12 c0
       -2.2841735 -0.45526755 -0.9142553 -2.2941773
000040 86 6d 7b 3f 37 af 89 bf f7 ef 84 c0 7e c3 ad be
       0.98213995 -1.0756596 -4.1542926 -0.3393821
000050 cd 68 ae be 4e 94 41 bf 8a f3 22 c0 a1 c4 2a c0
       -0.34064332 -0.7561692 -2.5461144 -2.6682513
000060 cd 63 1d c0 f6 96 61 3d 5a df 93 c0 c6 b9 a7 bf
       -2.4592164 0.05507561 -4.6210146 -1.3103569
000070 ed 7c b5 bf b1 8f f8 bf 2d 8f e0 3f 52 8b 1c c0
       -1.4178749 -1.9418851 1.7543694 -2.4460034

core.features.layer1.norm.running_var f4 [32]
000000 de 96 a3 42 30 6d 65 41 d7 1a f4 41 16 62 2d 41
       81.79466 14.339157 30.513105 10.836447
000010 ef 54 d0 41 ab 99 7f 41 6d 03 c8 42 ff a6 39 41
       26.041471 15.975017 100.00669 11.603271
000020 a4 56 d5 41 7c 88 cb 41 6d 09 4c 42 88 e5 86 42
       26.667305 25.441643 51.009205 67.4483
000030 ff 64 2d 41 ed 11 bb 42 db 0b 8b 42 a2 0a 54 42
       10.837157 93.53501 69.523155 53.010384
000040 df f8 9c 42 89 6a 97 41 5c 87 a6 41 06 2d 30 42
       78.48608 18.92702 20.816093 44.04397
000050 cf eb ad 42 1e 07 8d 42 e0 12 a4 41 5f 9d 5c 41
       86.96056 70.5139 20.509216 13.788421
000060 16 83 1c 42 82 32 d2 41 80 d4 b2 41 ed 28 47 41
       39.128014 26.274662 22.35376 12.447492
000070 a1 32 9e 41 61 c8 d5 41 2e c3 9d 41 24 44 9a 41
       19.774721 26.722841 19.720303 19.283272

core.features.layer1.seg_ex_block.se.1.weight f4 [2, 32]
000000 9c b3 de 3d 7c 39 b0 bc 37 91 d6 be 6a 99 f1 3d
       0.108741015 -0.021511786 -0.41907665 0.117968395
000010 ef 7b 62 3d c6 f7 94 3d 6a e6 d6 3e 58 5d 99 be
       0.055293974 0.072738215 0.41972667 -0.29954028
000020 0d 3b ab 3d a7 4a 49 3e 22 08 cf 3e 12 0a bd 3e
       0.083608724 0.19657384 0.40435892 0.36921746
000030 c4 38 e3 be 4c 4c f1 bc 45 27 d2 3e 47 86 87 be
       -0.44379246 -0.029455326 0.41045585 -0.26469633
000040 d7 40 26 3d a1 d1 1b be 38 43 52 bd b6 2f 5a 3c
       0.04058918 -0.15216686 -0.051333636 0.013317039
000050 bb 59 65 3d 3e 26 7d bd 5b ca b1 3d e2 2f b3 3d
       0.055993777 -0.06180405 0.08681174 0.08749367
000060 b9 2a 06 3e 2e c0 1e 3e 04 d6 ee be c5 ce b0 3c
       0.13102235 0.15502998 -0.46647656 0.02158297
000070 7f ea d3 bd 44 98 26 be ed 5c 73 3e 76 4d 13 3e
       -0.10347461 -0.16269022 0.23765917 0.14385018
000080 4b 7a 87 bd 02 04 9d 3d 20 d9 20 3d 68 eb 87 3e
       -0.066151224 0.0766678 0.039269567 0.26546788
000090 dd 1a d4 bd f3 94 c6 3d 80 c0 06 3f 98 5c 8c be
       -0.10356686 0.096963786 0.5263748 -0.27414393
0000a0 1c 53 33 3e 81 7c 6f be 53 1c f9 bd d5 b0 8a 3c
       0.17512172 -0.23387338 -0.121636055 0.016930023
0000b0 b5 d8 ba 3d 7e ce bd 3d 6a 0d a7 bd 2e 50 28 3e
       0.09123365 0.09267901 -0.081568554 0.16436836
0000c0 2b 33 61 3e f7 d1 27 bd 9f 5f 49 be af d6 83 bd
       0.21992175 -0.040971722 -0.19665383 -0.06437432
0000d0 1b 41 ba be 44 93 9c 3e c6 b2 87 3e 28 12 e4 bc
       -0.36377797 0.30581105 0.2650358 -0.027840689
0000e0 bc 0a b4 3c 40 0c f9 3a 43 1e ba bd 24 7a c5 3d
       0.021977775 0.0019000843 -0.09087803 0.09642437
0000f0 44 d2 73 be cc b2 a5 be 8f b8 87 3c d2 1f 9c 3d
       -0.23810679 -0.32362974 0.016567497 0.07623257

core.features.layer1.seg_ex_block.se.1.bias f4 [2]
000000 20 65 b0 3e 56 68 1b 3e
       0.34452152 0.1517652

core.features.layer1.seg_ex_block.se.3.weight f4 [32, 2]
000000 da 03 39 bf ce a0 96 3e f5 a5 34 bf 76 99 1e be
       -0.722715 0.2941956 -0.7056573 -0.15488228
000010 16 c5 b2 3c c9 1f 37 3f 6f ed 88 3d 48 c8 20 3f
       0.021822494 0.71532875 0.06685912 0.62805605
000020 e2 66 a8 be 95 39 b5 bd 9e 18 9e be e8 39 b7 bc
       -0.32890993 -0.088488735 -0.30878156 -0.022366479
000030 45 f4 09 bf 89 ef a8 be a8 a3 f5 3c 03 db c5 be
       -0.5388835 -0.3299525 0.029985264 -0.38643655
000040 91 d4 a8 3e 88 4d 82 bd e0 09 01 bf 42 4c 18 be
       0.32974675 -0.06362444 -0.50405693 -0.1487284
000050 2a 83 5f bf c6 1d fb be dd 59 00 bf 69 fd b3 bd
       -0.87309515 -0.49046153 -0.5013712 -0.087885685
000060 97 b8 ec 3e 5b 50 6a 3f f5 88 ff be 91 e9 9d 3b
       0.4623458 0.9152886 -0.49909177 0.004819103
000070 c9 25 a4 bf 2e 70 4b 3f ec 4f 8c be 69 17 3b bf
       -1.2824031 0.7946805 -0.27404726 -0.73082596
000080 66 ff ef be 98 b3 6a be b5 f5 cc bd 74 5c 04 bd
       -0.4687454 -0.22920072 -0.100078024 -0.032314733
000090 a1 ba 3b be 46 74 27 bf 14 ed 1d bf 38 5d ad 3e
       -0.18332912 -0.65411794 -0.6168988 0.33860183
0000a0 96 08 de be 1c 27 42 3e ba 3d bb be 34 c5 6c be
       -0.43365926 0.18960232 -0.3657053 -0.23122102
0000b0 64 b2 77 be cd a7 e2 be 9c 8d 0e be 9a 1e ce be
       -0.24189144 -0.44268647 -0.13921207 -0.40257722
0000c0 ff 5f f3 be 2c ed c4 3d e0 0e 52 be ea 49 0b 3e
       -0.47534177 0.096155494 -0.20513487 0.13602415
0000d0 70 8c 55 3e 16 4f 2d bd 8c 66 9d be 8d c7 19 be
       0.20854354 -0.04231175 -0.307423 -0.15017529
0000e0 48 1b 9a be 17 2e d7 3d 9c a8 d2 be 19 1b a9 3e
       -0.3009894 0.10506838 -0.41144264 0.33028486
0000f0 88 d3 c6 be 6f cf 8a 3e ef 78 28 be f5 c1 5d 3e
       -0.3883326 0.27111384 -0.16452383 0.2165602

core.features.layer1.seg_ex_block.se.3.bias f4 [32]
000000 06 63 1d 3f f4 d8 60 3e c2 cf 8b be 5c d8 ba 3b
       0.6147922 0.21957761 -0.27306944 0.0057020616
000010 f3 11 c6 3d 31 a8 a8 3e a4 4f 36 be 7a f0 a1 3e
       0.09671392 0.3294082 -0.17803818 0.31628782
000020 cd a5 d3 bd d0 52 83 be 6d 40 0f 3e 8b 0d 80 3e
       -0.10334358 -0.25649118 0.1398942 0.25010332
000030 e4 48 9e bd 1d 95 56 3e 70 de 7a 3e 21 0e 36 3e
       -0.077287465 0.2095532 0.24498916 0.17778827
000040 ab 04 48 be 01 0d 4a be d9 24 cd be 1a c0 29 3e
       -0.1953303 -0.19731523 -0.40067175 0.16577187
000050 26 aa 37 be 54 87 61 3e b1 81 12 3e eb f3 93 be
       -0.17936 0.2202428 0.14307286 -0.28897032
000060 f6 30 c0 bd 2b eb 52 be 91 b7 54 bd c9 7d e1 be
       -0.093843386 -0.20597522 -0.051932875 -0.4404128
000070 75 f8 02 3f d6 fc c6 bd c4 92 9f be 3f f5 ab 3e
       0.51160365 -0.097161934 -0.3116666 0.33585545

core.features.layer2.ds_conv.in_depth_conv.weight f4 [32, 32, 1, 1]
000000 9f d2 63 3d 38 66 2d 3d df f3 3d be 20 8a 16 be
       0.055620786 0.04233381 -0.1855006 -0.14701128
000010 3e 6b 72 3e 8e 5e 1e 3e 48 13 41 3b 50 06 a6 3d
       0.23673722 0.15465757 0.0029460955 0.08106673
000020 54 75 72 bd 53 81 9a bd 1c 20 1d 3c 60 e5 c3 be
       -0.059193924 -0.07544198 0.009590175 -0.38260937
000030 20 62 d8 3e 8f c1 10 3d 6d 7f 60 3e a0 e1 4e bd
       0.42262363 0.03534084 0.21923609 -0.05050814
000040 e2 67 00 bf 72 f6 af bd 36 89 d6 be db 44 f9 3e
       -0.5015851 -0.085919276 -0.4190156 0.48685345
000050 af 4e 06 3f 4d ab 20 be f8 c6 aa bd e0 43 e4 3d
       0.5246381 -0.15690346 -0.083387315 0.11145759
000060 78 bc 10 be 51 11 36 be e4 45 33 3e eb 3f ba 3d
       -0.14134395 -0.17780043 0.1750713 0.09094223
000070 32 3f da 3d b1 d9 26 3f f1 05 53 3e 69 46 ba 3d
       0.10656585 0.6517592 0.20607735 0.09095461
000080 53 6b 95 bd 94 dc 0a bf 3a d0 7c 3e 29 75 92 bd
       -0.07295861 -0.54242826 0.24688807 -0.07151253
000090 3b 1e 58 3e c8 ab ce 3d 81 93 09 be a3 64 00 bf
       0.21105282 0.100913584 -0.13435175 -0.5015356
0000a0 55 65 eb bd 47 c6 de bd 43 a8 81 3e 4b f1 b5 3d
       -0.11493937 -0.10877662 0.25323686 0.088839136
0000b0 8a 06 c7 3e 74 5a dc bd 32 33 a0 3e 62 83 1a 3d
       0.38872176 -0.1075944 0.3128906 0.037722953
0000c0 64 8a 9b 3e 03 7e 97 bd 46 df 1e be db 32 0d be
       0.3037902 -0.07397082 -0.1551486 -0.13788931
0000d0 58 a9 58 3c be c1 1c 3d ab c5 1d be 68 2c 83 bc
       0.013223968 0.038270704 -0.15407436 -0.016012385
0000e0 fd b4 92 3e 88 3c 19 3e 28 b6 58 3e 5b 1a 0b 3f
       0.28653708 0.14964497 0.21163237 0.5433709
0000f0 78 06 15 3f cf 93 b1 be f0 d7 86 bd a2 fb 19 3e
       0.58212996 -0.34683082 -0.065841556 0.15037397
000100 a2 37 6c 3d ea 94 be be a2 79 db 3e 78 f5 bb 3c
       0.057670243 -0.37222987 0.42866236 0.022944197
000110 13 47 f6 be 17 8f 0e be 80 bd b3 3e 6f 25 36 be
       -0.481011 -0.13921772 0.35105515 -0.17787717
000120 1a 42 06 be b9 9d 2d bd fd 98 a6 3e 49 0e f3 be
       -0.13111153 -0.042386744 0.32538596 -0.47471836
000130 da 77 96 3d e2 2a d5 be 77 44 88 3e d8 2f ae 3e
       0.073470786 -0.4163428 0.26614735 0.34020877
000140 34 da cc 3d 51 5a 0b bf 01 04 bc be 22 0b 1c 3e
       0.100025564 -0.54434687 -0.36721805 0.15238622
000150 67 42 6f 3e ca ff 47 be 03 fa 27 be 1b a9 06 be
       0.23365174 -0.1953117 -0.16403966 -0.13150446
000160 a7 4d 01 3e 2f 82 05 3d 75 53 1e 3e 8e cc 8c bd
       0.12627278 0.032594856 0.15461524 -0.06874953
000170 92 31 fe 3d a9 8c 13 3d f4 51 31 be a1 77 a9 bc
       0.124117985 0.036022816 -0.17316419 -0.020686926
000180 8b 30 b7 be 74 a8 b0 3c be 1a a0 bd ee dd 92 bd
       -0.35779223 0.0215647 -0.07817601 -0.07171236
000190 a0 64 da be 3d e7 93 be 24 82 6b 3e 9b 4d 25 be
       -0.42654896 -0.28887358 0.22998863 -0.16142885
0001a0 62 02 e0 3d 07 2e bf bd b9 bf 14 bf 8f a7 32 3e
       0.109379545 -0.09334951 -0.58105046 0.17446731
0001b0 28 ca ae bd 97 ef b2 be 07 f6 f9 3d 04 87 21 bd
       -0.08534652 -0.34948418 0.12205129 -0.0394354
0001c0 06 9b d2 bc eb a4 12 be 04 50 dc be 52 6f 47 3e
       -0.025708687 -0.14320724 -0.43029797 0.19476059
0001d0 e3 40 f7 bd 3c 98 33 be a3 c2 78 bc 60 10 07 bf
       -0.12072923 -0.17538542 -0.015183124 -0.5275936
0001e0 c2 cf 2b 3f bc 88 06 be d6 c6 30 3d 8a 29 8a 3e
       0.6711389 -0.13138098 0.043158375 0.26984817
0001f0 db c2 7d 3c fb 5e 10 3e 18 d5 53 3e e7 3d 73 3d
       0.015488352 0.14098732 0.20686758 0.059385207
000200 9d a6 45 be 87 eb 61 be 39 a7 56 3d 0c 77 35 be
       -0.19301839 -0.22062503 0.05240557 -0.17721194
000210 b8 b0 5e bd d1 d4 b2 be b5 9e cc be eb b3 a7 be
       -0.05436775 -0.3492799 -0.39964834 -0.32754454
000220 c8 84 e0 bd 4f b8 6b be de 38 cc 3e 00 f0 cf 3e
       -0.10962826 -0.23019527 0.39887136 0.40612793
000230 f6 a7 20 bc 72 0d d8 3d 53 46 75 3e 94 b2 fd be
       -0.00980567 0.105494395 0.23952608 -0.49550307
000240 68 c3 41 3d 76 bb a1 3d 45 86 9e 3e da c9 b0 3e
       0.047305495 0.078970835 0.30961815 0.34529
000250 91 08 9f bd 4e 60 f6 bc f3 80 a3 3d 88 af b1 3e
       -0.07765306 -0.030075219 0.079835795 0.34704232
000260 1a 6d 5a be 8b 96 93 be 0b 27 4d 3e 76 b4 de 3d
       -0.21330681 -0.28825793 0.20034425 0.10874264
000270 03 e8 02 3d 71 33 3e 3e 12 bf fe 3e fc b9 bd 3c
       0.031959545 0.18574311 0.4975515 0.023159973
000280 a1 86 c7 bd da 44 07 be ee e9 71 bd 6d 09 9e 3c
       -0.09742475 -0.13209859 -0.059060983 0.019291604
000290 10 06 b3 3e 80 a6 0c 3e 6c 7d 4d 3f 75 e7 f1 3b
       0.34965563 0.1373539 0.80269504 0.007382328
0002a0 2b e8 5c 3e d2 2e 50 be 82 8d e2 3e 65 39 10 3f
       0.2157294 -0.2033036 0.44248587 0.5633758
0002b0 f8 ca 3f 3d 98 e3 ee 3c cf d9 a8 3e 8d 27 20 bc
       0.046824425 0.02916126 0.32978675 -0.009775055
0002c0 89 f3 bb bd ff 32 22 be 2f 6b 10 be 39 2b 82 3e
       -0.0917731 -0.15839766 -0.14103387 0.254236
0002d0 fc 5f a2 3e 7a 8b ed 3e 6d 1e 7f bd 83 46 a1 bd
       0.31713855 0.46395475 -0.062284876 -0.07874777
0002e0 c0 43 aa 3e 9a a9 55 bc 5a d8 6d be 16 db 76 bd
       0.33254814 -0.013040924 -0.23227063 -0.06026753
0002f0 8a 8b 80 be 23 5d f2 3c 8f 9f f9 be 17 01 0d bd
       -0.2510646 0.029585427 -0.48754546 -0.034424867
000300 fd 34 58 3e fe 90 a1 3c 4b 16 cf be 01 41 77 3e
       0.21113963 0.019722458 -0.40446696 0.24145891
000310 62 da 2b 3d 9f a6 85 3d 72 ad a9 be 5a b0 75 be
       0.041956313 0.06525921 -0.3314014 -0.23993054
000320 be 2a 30 3e 30 62 ae be e0 0e 0a 3e 45 93 32 bd
       0.17203805 -0.34059286 0.13482237 -0.04359748
000330 d2 55 2a 3c 7d 17 44 3e 97 59 2c bf d7 63 a6 be
       0.010396438 0.19149585 -0.67324203 -0.32498047
000340 f1 5b a1 bd 74 ca 80 3f 26 f5 0e bf 8d 99 f9 bd
       -0.078788646 1.0061784 -0.55842817 -0.121874906
000350 3f ad b2 bc 5c 09 0d 3e 61 8b 14 3e 68 44 a2 bd
       -0.021811126 0.13773102 0.14506294 -0.07923204
000360 92 ad 4e bb 97 fa 70 3e d2 92 00 be ed 11 b2 be
       -0.0031536561 0.23533092 -0.12556008 -0.347793
000370 db 7e b7 3e 07 75 16 3e 86 56 1b 3e b5 a2 1b 3e
       0.3583897 0.1469308 0.15169725 0.15198787
000380 08 17 e6 bd 70 00 91 3d 99 0b 4e 3d 43 a6 51 3d
       -0.112348616 0.070801616 0.05030403 0.05118395
000390 19 1a 38 3e 6d 66 a1 3e 29 09 a5 be 72 c3 be 3e
       0.17978705 0.31523457 -0.3223355 0.37258488
0003a0 16 db 4a be 52 58 61 3e c6 64 8f bc 80 d5 53 3c
       -0.19810137 0.22006348 -0.017504107 0.01292932
0003b0 49 98 6f be 01 ee 6e be 31 83 73 be 8f 3c 9c be
       -0.23397936 -0.23332979 -0.23780514 -0.30514953
0003c0 10 c4 0c be df 37 61 be 1b 3b 84 3e c4 c1 aa be
       -0.13746667 -0.2199397 0.25826344 -0.33350956
0003d0 d5 63 60 be 2b eb 5c be bc 4d 36 be 4f a2 a6 bb
       -0.21913083 -0.21574084 -0.17803091 -0.0050852667
0003e0 f9 66 bc 3d aa 6f 89 3e e8 3e 13 3e 65 c3 82 3e
       0.09199328 0.26843005 0.14379466 0.255397
0003f0 4a b2 2b 3e b4 fe d1 3e 24 0e e8 3d 92 e0 72 3c
       0.1676723 0.41014636 0.11330822 0.01482405
