nnvision/data/model_weights/v1_data_driven/sota_cnn_ensemble_model_3.pth.tar (torch, 309331 bytes, 30 tensors)

core.features.layer0.conv.weight f4 [32, 1, 24, 24]
00000000: 21e0 f63d 1974 fd3d 9397 b53d 3c04 7b3d
00000010: 4934 343d 796b 073d 49fb 893c 8e1d 7b3b
00000020: a662 7fbc f892 f4bc e228 1cbd 6e96 31bd
00000030: a31c 23bd 9e82 d1bc b77a 89bc f242 7cbc
00000040: cad5 3cbc 1fa4 80bc 4416 c8bc 8587 febc
00000050: c8e1 34bd 2f84 68bd 5aa7 bcbd ec4e fdbd
00000060: 119c cf3d bd38 c03d f22c 543d 3c66 bf3c
00000070: 6e13 053c a9ec 813b 10ff e6bb e897 24bc
00000080: 632f e8bc e3f8 0dbd 13ab 28bd 8430 3bbd
00000090: b317 2bbd 6450 e4bc da60 7abc 0fa6 52bc
000000a0: 077c 29bb 71a9 6dbb 2590 5bbc 2628 90bc
000000b0: fcc0 f5bc 89b9 22bd 3b7d 96bd 1155 ccbd
000000c0: 6173 103d 0cf3 113c d1c8 dabc e4b3 2fbd
000000d0: 55e4 4ebd 2223 3cbd 2e41 45bd 38a3 25bd
000000e0: bd19 50bd cce6 31bd ff20 33bd 93ab 20bd
000000f0: 028b 18bd 2b16 babc d833 babb 57b3 783b
00000100: 6dbd 933c f0d8 8a3c f295 043c 233f b3b8
00000110: bb10 53bc abfc ccbc ee3c 4cbd f93b 88bd
00000120: c253 94bb 32e8 3bbd 8ba2 a4bd a488 b8bd
00000130: b19d b7bd ec23 9ebd 4cab 94bd bd3f 85bd
00000140: 0e2e a0bd 2141 95bd 92b0 8fbd 8f30 57bd
00000150: 37b4 33bd 23d3 d5bc 7f8a fabb 741d 933a
00000160: 8e7b 853c 0b26 9c3c c0fc 6d3c 602d 063c
00000170: 0af4 95ba d83b 1bbc c6c3 ffbc cebf 2abd
00000180: 8523 01ba 424d 40bd d9f6 a5bd c8fd a4bd
00000190: d5c1 8dbd b789 40bd 01f8 17bd bcc9 22bd
000001a0: 4a41 88bd d974 a5bd 94a8 b0bd 75a0 83bd
000001b0: f5a1 3fbd 5ead b6bc 6973 7bbb 5d89 0b3b
000001c0: 1cae 913c b9a9 c63c 0ff6 dd3c 1481 ca3c
000001d0: dce0 9d3c e1ac fe3b f4a3 3fbc ef4b babc
000001e0: a9a2 083d 1377 20bc d73e 48bd f07d 4bbd
000001f0: bfc1 ddbc 3788 133c 9b02 013d 4e4c c13c
00000200: 78b4 c3bc 79c3 92bd c367 d1bd c239 b9bd
00000210: 40fb 94bd d0b6 34bd 9797 d8bc 8d31 b7bc
00000220: 635f 13bc c950 91ba 3a9a 053c 83ac 7d3c
00000230: 9a58 693c a6ac dc3b 2a78 bdbb a83a 7cbc
00000240: 0654 823d 6f49 a93c a818 1fbd 0e0c 43bd
00000250: f93e e5bc f182 053d 49c4 bb3d 4cf2 ee3d
00000260: 835d a73d 178c bb3c 9caa eabc 570d 2bbd
00000270: b8a2 0ebd 5452 69bc 676c 82bb bbc1 0bbc
00000280: d4df 0dbc b553 47bb 0f97 d83b d02e a13c
00000290: 81dd ce3c 9dd5 b23c 651a 283c e14a b2bb
000002a0: 289c c23d ce97 543d 9c2e e1bc 7de9 8abd
000002b0: e9e8 8bbd ec9a 5cbc 6de4 963d 23c1 113e
000002c0: d8a4 123e 2ec8 da3d 45b7 5a3d ef2c bb3c
000002d0: c0d5 f63b e7a0 c83b 1128 b1bb 7643 c0bc
000002e0: d645 11bd 436b e4bc 693b 54bc 9755 003c
000002f0: 57e2 d53c 1ea5 ec3c 3cdf 8e3c 5fb2 92ba
00000300: fab6 033e be3c c33d 4e18 80bb b548 96bd
00000310: fc94 00be 87c6 e5bd a217 1abd 26e5 6b3d
00000320: 8ee2 e13d 7aee ff3d 6b89 d43d 38f9 9d3d
00000330: d53e 303d 350d dd3b fe7d 08bd febf 8ebd
00000340: 341d b4bd e973 98bd 27b0 48bd 65c3 83bc
00000350: e7d9 f73b 69ba 7a3c 7176 253c 2576 a9bb
00000360: 54d7 163e 612a ef3d 357c 453c 4c84 b3bd
00000370: 7319 46be 3aed 86be 08a0 84be f786 4fbe
00000380: a26c 0bbe 0a4a 8ebd 41d0 b4bc 6af3 283b
00000390: d905 21bc 3867 57bd b388 dfbd 65aa 19be
000003a0: 489a 28be 60f5 0fbe 206b c8bd 3bb1 5ebd
000003b0: 6ad1 dfbc 2c3a 9abc 1658 c8bc 5a2f d0bc
000003c0: 1df3 283e 0a7a 0f3e 111a 2a3d fe5c 70bd
000003d0: d9f4 40be 29bd a7be 55bd d7be 4325 f2be
000003e0: 63f9 ebbe c889 c8be edad 8ebe 70e1 3bbe
000003f0: 5dd0 0ebe 64af 22be ff03 55be 548c 80be
0.12054468 0.123756595 0.08866801 0.061283335 0.043995176 0.03306148 0.016843455 0.0038317177
-0.015587484 -0.029855236 -0.038124926 -0.04335635 -0.039822232 -0.025574978 -0.016782148 -0.01539682
-0.011525581 -0.015703259 -0.02442468 -0.03107048 -0.044160634 -0.056766685 -0.09211607 -0.12368569
0.10137189 0.09385822 0.051800676 0.023364179 0.008122308 0.0039649797 -0.007049449 -0.010045983
-0.028342908 -0.034661185 -0.041178774 -0.045700565 -0.04177065 -0.027870364 -0.01528188 -0.012856974
-0.002586128 -0.0036264325 -0.013401066 -0.01759727 -0.029999249 -0.03972772 -0.073481046 -0.09977163
0.035266284 0.008908045 -0.026707085 -0.042896166 -0.050510723 -0.045931943 -0.048157863 -0.04043886
-0.050805796 -0.043432996 -0.04373264 -0.039226126 -0.037241943 -0.022715649 -0.00568245 0.0037948692
0.018034661 0.016949147 0.00809239 -8.547145e-05 -0.012882407 -0.025022825 -0.049862795 -0.06652064
-0.0045265863 -0.045875736 -0.08038815 -0.09010437 -0.08965624 -0.07721695 -0.07259235 -0.06506298
-0.07821284 -0.07287813 -0.070161 -0.052536543 -0.04387304 -0.026101654 -0.0076459046 0.0011223988
0.016294267 0.019061109 0.014525592 0.008189529 -0.0011440527 -0.009474717 -0.031221282 -0.041686825
-0.00049262523 -0.04694868 -0.08103723 -0.080562174 -0.06921736 -0.047006335 -0.03710175 -0.03974317
-0.06653078 -0.080789275 -0.08625904 -0.06427089 -0.046785314 -0.022299465 -0.003836835 0.0021291592
0.017783217 0.024250852 0.027094869 0.024719752 0.01927226 0.0077720736 -0.011696804 -0.022741286
0.03335825 -0.0097940145 -0.048888054 -0.04968065 -0.027069924 0.009004644 0.031496625 0.023595955
-0.023889765 -0.0716619 -0.10224869 -0.090442196 -0.07274485 -0.044119656 -0.026439471 -0.022362495
-0.00899491 -0.0011086698 0.008154446 0.0154830245 0.014242316 0.0067344485 -0.005782147 -0.015394844
0.063636824 0.020664899 -0.038841873 -0.047618918 -0.02798413 0.03259558 0.09168298 0.11667308
0.08172133 0.022893948 -0.028645806 -0.04176077 -0.03482315 -0.01424082 -0.0039802077 -0.008530076
-0.008659322 -0.0030414884 0.0066098045 0.019675642 0.025252106 0.021830374 0.010260199 -0.005441055
0.09502441 0.051902585 -0.027488045 -0.067828156 -0.068315335 -0.013464671 0.073677875 0.14233832
0.14320695 0.106827125 0.053397436 0.022848574 0.007532805 0.0061226967 -0.0054063876 -0.023469668
-0.03546699 -0.027883178 -0.012953618 0.007832906 0.026108904 0.028887328 0.01744043 -0.0011192075
0.12862769 0.0953307 -0.0039091473 -0.073380865 -0.12556833 -0.11219507 -0.037620194 0.05759158
0.1102954 0.12496658 0.10377773 0.0771355 0.04302867 0.006745959 -0.03332328 -0.06970213
-0.087946326 -0.07443983 -0.048996117 -0.016084382 0.007563818 0.015303233 0.010099039 -0.0051715546
0.14730579 0.11678005 0.012053539 -0.08765468 -0.19345646 -0.26352865 -0.25903344 -0.20266329
-0.13615659 -0.069477156 -0.02207196 0.0025779852 -0.009828054 -0.05258867 -0.10914745 -0.15006407
-0.16465104 -0.14058447 -0.097860575 -0.05436824 -0.027321536 -0.018826567 -0.024456065 -0.025413204
0.1649899 0.14011398 0.041528765 -0.058682434 -0.18843402 -0.32761505 -0.42136636 -0.47294053
-0.46088704 -0.3916762 -0.2786707 -0.18347716 -0.13946672 -0.15887219 -0.20802306 -0.25107062

core.features.layer0.norm.weight f4 [32]
00000000: fdaf 6b3f e3bc 783f c179 c23f f3f8 e93e
00000010: 751f 4e3f bff8 be3f b093 1d3f 867f 863f
00000020: 4e3f 0a3f 1bf6 c83f 199b 8a3f d2e5 973f
00000030: d636 2a3f deb4 7e3f b4ad 653f 967c f13e
00000040: 5168 3e3f d705 3c40 4d7a 073f 8fa1 a73f
00000050: 6953 ee3e ea31 363f 23ae 863f 1ed9 ca3f
00000060: 4b0c 193f be2e cf3e 4046 ae3f 5c86 4d3f
00000070: a212 2d3f 0f64 913f 1447 b23f 23bb 8c3f
0.9206541 0.9716322 1.5193406 0.45697746 0.8051675 1.4919661 0.6155348 1.0507667
0.54002845 1.5700105 1.0828582 1.186701 0.66489923 0.9949473 0.89718175 0.47165364
0.74377924 2.9378564 0.5292099 1.3096179 0.46548012 0.7116991 1.0521892 1.5847509
0.5978438 0.4046535 1.3615189 0.8028314 0.67606556 1.135866 1.3927941 1.099461

core.features.layer0.norm.bias f4 [32]
00000000: ae09 c3bf 6629 77bf fa2a 15bc f1d2 b73d
00000010: 9b22 79bd 3a0c 7dbe 2e3e f1be ebd1 093f
00000020: 95f0 2abf 0850 e4be 2f2d 91be 1887 d6be
00000030: 863c 88bf 3b78 153f 8ce5 7fbe e014 3b3e
00000040: 1830 cebe 0ca4 afbf e75b 2bbb b87f 7e3f
00000050: beb1 2ebd e580 743e a9af adbf 2bb6 d0be
00000060: 1232 e5bd 987d 45be 7b01 50bc 26cc 3a3e
00000070: 139b acbe de70 e73e 745e 4abe 8c09 2d3e
-1.5237329 -0.96547544 -0.009104485 0.08975781 -0.060824018 -0.24711695 -0.47117752 0.53835934
-0.6677335 -0.4459231 -0.28354785 -0.41899943 -1.064347 0.5838658 -0.24989909 0.18269682
-0.40271068 -1.3721938 -0.0026147307 0.99413633 -0.042649977 0.23877294 -1.3569232 -0.40763983
-0.11191191 -0.19286191 -0.0126956655 0.18241939 -0.33712062 0.45203298 -0.19762594 0.16898173

core.features.layer0.norm.running_mean f4 [32]
00000000: a51f 153f 01de fe3d 8ac7 d33e b86f 77be
00000010: 3030 45bd 60e1 10be 3634 3f3e 1346 88be
00000020: 6eae 0b3e 1d3b 243d 165e 743e 2f39 c7be
00000030: f279 b83e d782 30bf eef1 22bc 6081 d7be
00000040: c66e 783e d350 c3bb 86df 4cbe 6929 08bf
00000050: e64e 25be 489d 4dbf 5061 cd3e 78f3 1d3f
00000060: b85a 373e d611 babe eea5 3e3c ddf0 f6bc
00000070: da75 8dbe 0d11 153d 72f0 32bf 796a f6bd
0.5825141 0.12444688 0.41363174 -0.24163711 -0.04814166 -0.14148474 0.1867226 -0.26615962
0.13640758 0.040095437 0.23864016 -0.38910815 0.36030537 -0.68949646 -0.009945376 -0.42090893
0.24261007 -0.0059605627 -0.20007142 -0.53188187 -0.16143379 -0.8031812 0.40113306 0.6169963
0.179057 -0.36341733 0.01163624 -0.03014415 -0.27628976 0.036393214 -0.6989814 -0.12032027

core.features.layer0.norm.running_var f4 [32]
00000000: 7f2e 3044 9975 f841 5242 5943 2837 9d42
00000010: 6ef4 1b43 c32b 0c43 f2af 8542 f07a 8343
00000020: 59e1 0f43 c8c9 7641 3756 9542 9016 d243
00000030: 8e9c eb42 8937 5044 9f3b 3f43 436c ba42
00000040: a93a 8043 37af 9c41 e06d df42 4e44 ee43
00000050: 9f36 cc42 dea8 a343 635d c143 ad46 8743
00000060: 01cd ee42 b4df 0d43 0712 3642 e139 6c43
00000070: 8493 9a42 cabc 0842 a2a2 a743 a791 e842
704.7265 31.05742 217.25906 78.60773 155.9548 140.17094 66.84364 262.96045
143.88026 15.424263 74.66839 420.17627 117.80577 832.86774 191.2329 93.21145
256.45828 19.585554 111.7146 476.53363 102.10668 327.31927 386.72958 270.55215
119.4004 141.87384 45.517605 236.22609 77.28812 34.184364 335.27057 116.28448

core.features.layer1.ds_conv.in_depth_conv.weight f4 [32, 32, 1, 1]
00000000: eac8 2ebf d78b 843c 3aec 1b3f d3ef de3e
00000010: e332 99bd 1655 70be 1dc1 7c3e eb14 3bbf
00000020: 7a77 033e bb13 b3be 0063 64bd f3c8 bbbe
00000030: 73d2 26be f30e cbbe 43f1 b7be cb7c 223e
00000040: 2057 ee3c 0c97 543c eb73 f4bd d38e 93bd
00000050: 2bfb c93d 8dce 283f 200f e4be 990f 3b3d
00000060: 359d 473e 96f0 62bd 80df 58be b50e c2bd
00000070: eb4a d33e 62a1 053e 18a7 28bd c8cb e23d
00000080: 287b 3c3e a3cb eabe 7122 7c3e 13b3 5d3d
00000090: b8d2 12bf 09d5 eabc b35a a0bd 041a 8f3d
000000a0: bdfd 893c 48d4 1c3f cc13 89bd 649b f43d
000000b0: 350f 5a3e 136a 823d 19c0 95be 75b0 c7bc
000000c0: abfc f1bb 23b5 51be fc2c adbd efa6 623e
000000d0: d638 663e d5ad 5f3d 6d2a ba3d 738b 55bc
000000e0: 2887 16be 332e 1abd 3f61 753d 7d65 92bd
000000f0: 8958 00bc ab23 c8be e8c9 c9bc 85ab 1fbf
00000100: 775b 253e b5be 05bd b2af 913d 2d95 01be
00000110: 4feb 75be 6d4b 25bf 799f 08bb ca9d 10be
00000120: 0480 e93d 3c85 88bd 9fe5 473e 9d98 0c3d
00000130: 739c fb3d 59b7 4e3e a6e5 9c3d 4340 fa3d
00000140: c28a c93c 5be7 ffbe f2f0 acbd 22b5 823d
00000150: c46e 0d3c c112 e33d 145c 8c3e 507b 8c3e
00000160: c4f9 ea3d 4d92 463e b0b8 5abd aa01 11be
00000170: b679 3f3e 08e3 b23c c8d0 f4bd 46e6 603d
00000180: 741d 4b3e b7ab d13d 44d0 0b3e 756a b53d
00000190: a3a7 11bd f187 863d 7e8b 37bc 9244 5b3e
000001a0: 615f e13d 4acb 89bc 68f9 43bd 689f e7be
000001b0: c8f1 6e3e 06c2 7f3d 8428 473e 3bf6 d53d
000001c0: b538 893d f001 23be 2534 22bd f820 9b3e
000001d0: 1582 31be 6da8 6ebc 6e10 973e 4b33 d9bb
000001e0: 97b8 e53d 87ff 16be 8d09 2bbe 234a 093d
000001f0: 0e79 c9bc a172 b73d da00 57bd 17d2 ebbe
00000200: 2fd6 5f3e 1a1f e03b 5912 35bd 9c7d 283e
00000210: 6090 a1bd 3c07 913d b951 f03d 8185 6e3c
00000220: 7a09 9e3e b772 183e c083 c2be 896c 8fbe
00000230: a230 36be 0493 0cbd 5e12 1b3e 23c9 35be
00000240: f1eb 72bd 882b 4cbe 9c52 a0bd 2381 6dbd
00000250: 280d 90bd c26d 8cbe 02ae 313e 56df 2bbf
00000260: ce92 893e aaec efbc de38 20bd 8666 1bbd
00000270: c2d3 3bbd 9c77 22bd 657d 7fbe 0137 d63c
00000280: f981 b63e e1be c63e 7179 ca3d a1ac ec3d
00000290: a6e9 58be 66ad 6ebd 9c64 8bbe 8a7c 71bd
000002a0: 60ef 1f3e ca1e 083f 22dd 04be 893d 23bd
000002b0: cc1d 90bd c3d1 723e f606 313e 893d a1ba
000002c0: ed64 26be 8424 12be 8fd4 0f3e 6638 2a3e
000002d0: 85d8 d93e 6159 5b3d 725f 293f f72f ddbd
000002e0: 9d5d 82bb 9c73 703d 522c a33e a663 14bd
000002f0: b197 ab3e cbce 043f a1d8 ea3d dfbc 32bd
00000300: 9be2 5c3e 9063 8dbc 6de4 16bf e5a5 593d
00000310: c833 05bd c826 963e db09 6dbe 88d0 af3d
00000320: 8c8b d13d 3671 c6be 1008 163d b159 09bf
00000330: 2fae afbd 3cca 923d 4173 66bd 7758 b6bd
00000340: 9053 e8bc a38a 113e 8c89 10be c4b8 06be
00000350: 2b79 b53e bf10 d0bd 4640 503c 3356 253e
00000360: 1d20 0a3e 5abb c0bc 3be0 8c3c 08ec 683d
00000370: 47c3 69be 6f7a 37bd 3a59 b03e e119 b5bd
00000380: acb4 993e 80ee e03d d91f 79be 17f5 83bc
00000390: afa4 f73d 83fc 07bf ecb7 763e a610 443e
000003a0: 0148 183e d08a 033e 08ad 0bbe 5693 113d
000003b0: 454c 273e 0273 bf3d eb64 a23d 0927 e03d
000003c0: 97b1 143e 5c3e 463f 532f 1abe 29c7 863d
000003d0: ba79 0fbe 491e 743d aced e4bd cd12 a83c
000003e0: 426b ff3d a8cd 9bbd 71c7 ffbd 867c 893e
000003f0: 5383 d6bd 3c41 4b3d 914d bbbd 6f40 6bbc
-0.6827532 0.016179962 0.6090733 0.43542346 -0.07480409 -0.23469958 0.24683042 -0.73078793
0.12838545 -0.3497599 -0.055758476 -0.3667675 -0.16291218 -0.39659843 -0.35926256 0.15867917
0.029094279 0.0129754655 -0.11936172 -0.07204976 0.098623596 0.6594017 -0.4454279 0.045669172
0.19493563 -0.055405222 -0.21179008 -0.094754614 0.41268095 0.13049844 -0.041174978 0.110740244
0.18406355 -0.45858487 0.24622513 0.054125857 -0.5735278 -0.028666036 -0.078297995 0.06987384
0.016844625 0.61261415 -0.06693229 0.11943701 0.21294864 0.06367888 -0.2924812 -0.024376133
-0.0073848567 -0.20479254 -0.08455846 0.22133993 0.22482619 0.05460914 0.09090123 -0.013033736
-0.14699996 -0.037641715 0.059907194 -0.071482636 -0.007833608 -0.39089713 -0.02463241 -0.62371093
0.16148172 -0.032652576 0.07113589 -0.12654562 -0.24015544 -0.64568216 -0.0020847006 -0.14122692
0.1140137 -0.066660374 0.19521187 0.03432523 0.122857 0.20187129 0.076609895 0.12219288
0.024602298 -0.49981198 -0.08444394 0.063822046 0.008632366 0.110875614 0.27414 0.2743783
0.1147342 0.19391747 -0.053398788 -0.14160791 0.18698773 0.021836773 -0.11953884 0.054907106
0.19835454 0.1023783 0.13653666 0.08858196 -0.03556026 0.065688975 -0.011202691 0.21412876
0.1100452 -0.016820569 -0.047845274 -0.45238805 0.2333442 0.062440895 0.19449049 0.10447355
0.06700269 -0.15918708 -0.03960051 0.3029859 -0.17334779 -0.014566523 0.29504722 -0.006628429
0.11216848 -0.14745913 -0.16702862 0.033517968 -0.024593856 0.089574106 -0.052491046 -0.46058723
0.21859048 0.006839645 -0.04420695 0.16454166 -0.078888655 0.07081458 0.11734337 0.014558197
0.30866605 0.1488751 -0.37991142 -0.28012493 -0.1779199 -0.034319893 0.15143725 -0.17752509
-0.059307043 -0.19938481 -0.078282565 -0.057984482 -0.07033759 -0.2742749 0.17351535 -0.6713766
0.26869816 -0.029287655 -0.039116733 -0.03793957 -0.045856245 -0.03966485 -0.24950178 0.026149275
0.35646036 0.38817504 0.09886444 0.11556364 -0.2118288 -0.058270834 -0.27225196 -0.05895666
0.15618658 0.5317198 -0.1297498 -0.039853606 -0.07036933 0.2371283 0.17287812 -0.0012301664
-0.16249438 -0.14271742 0.14045928 0.16623077 0.42548004 0.053552035 0.66161263 -0.10800164
-0.0039784447 0.058704004 0.3186975 -0.036227845 0.3351417 0.5187804 0.114671 -0.043637153
0.21570818 -0.01725939 -0.589423 0.053136725 -0.032520086 0.29326463 -0.23148291 0.08584696
0.102316946 -0.38758248 0.036628783 -0.53652483 -0.08578145 0.071674794 -0.05626226 -0.08903592
-0.028360158 0.14213042 -0.1411497 -0.1315642 0.35444006 -0.10159444 0.0127106365 0.16146164
0.13488813 -0.023526836 0.017196765 0.056865722 -0.22828399 -0.044794496 0.34443074 -0.08842827
0.30020654 0.1098299 -0.24328555 -0.016108079 0.12091958 -0.5311968 0.24093598 0.19146976
0.14871217 0.12845922 -0.13640225 0.0355409 0.16337688 0.09348108 0.07929405 0.10944945
0.1452087 0.774389 -0.15057115 0.065809555 -0.14011279 0.059599195 -0.11178145 0.020516777
0.1247163 -0.07607585 -0.12489212 0.26852816 -0.10474267 0.04962276 -0.09145654 -0.014358624

core.features.layer1.ds_conv.spatial_conv.weight f4 [32, 1, 9, 9]
00000000: 79c9 9f3d 71f5 af3d 0f95 ca3c 125e 9abd
00000010: 9ab7 23be 8395 76be b62d 89be 7f2a 3bbe
00000020: caa8 b33c 21ae ec3e 078f 123f 4a0f be3e
00000030: 64d0 8e3e bce0 273e f66e 6e3d 5dca d6bd
00000040: 6f44 35be 5ca7 18be 356e 573e 2e3a e13e
00000050: af75 9c3e a174 1c3e 5cd5 633e 0109 d23e
00000060: 354a b03e aa73 9c3d ed69 713d f0f5 4bbe
00000070: f24e f5bc 39ea 87bd 93f3 fdbd 7bc1 8bbc
00000080: a63b 803e 291f c73e d551 a33e bcb1 b53e
00000090: e697 a0be 95cf 42be a21b c7bd 7130 f7bd
000000a0: c42d 0dbe 6f5c 81bd faa1 323e a7ac 7a3e
000000b0: 6ae7 da3e 13a3 b5be 57e3 9dbe 32ad f7bd
000000c0: 1214 ccbd b8c7 b6bd 169e 20be b4c0 ecbd
000000d0: 19be 703d 62a2 9b3e 2dcb b0be 1bb1 09be
000000e0: dda2 aebd 221a 9cbd ce79 32bd 1726 9dbd
000000f0: 32ef 09be ff97 6dbd 38cf 813e 7ed8 8abe
00000100: c524 03be cacf acbb 5ed2 3f3d 458e e73d
00000110: fdec 283c 2338 efbd b543 0cbe 2d84 d83d
00000120: 7638 01bf 6b7f b1be 1847 78be 091c 18be
00000130: f84a 0bbd 4542 79bd 11bf 80be 7c2e c7be
00000140: 5fe4 5abe 69a9 aa3c c600 933d 642e 89bc
00000150: f095 6dbd 3899 6cbc d622 d9ba a405 86bb
00000160: b6dc 493d 4a11 523e b2c8 183c 2d10 f83c
00000170: 23b9 78bd 5d03 4ebe 2d6c 61be 6fac b8bd
00000180: e5e5 29bd 3c11 ba3c 786a 3f3e d8aa c13d
00000190: 39bd a43d 1882 e8bc 902e 20be 3aa7 88be
000001a0: 0fe4 60be 0c12 6fbd 10c9 8cbd f644 c13c
000001b0: eb98 9b3d a96d 9d3d f039 4f3d c992 41bd
000001c0: cd8d f1bd bdba 26be 8b07 f7bd 2a92 edbd
000001d0: 91a8 0cbe 363c 2a3e a02f 0c3e 058e 093e
000001e0: 5747 633d 8cad cf3d fd2b b83d f2df 803c
000001f0: f5f2 08bd 197a 9abd bde7 9a3e 5cd8 5d3e
00000200: c903 2d3e df7d 403e 0198 643e 6fc0 8d3e
00000210: 2c72 793e f99b 1f3e 94db b23d dd39 6c3d
00000220: 1072 b03d 87b9 223d 3c7f 323c 1c8b 743d
00000230: ca64 103e b874 0d3e 6137 bf3d 84eb ad3d
00000240: 3cf9 15be 8612 5bbd a67f 25be c0cf 09be
00000250: 9973 adbd 81b2 08bd 9b9f 93ba 531f d33c
00000260: 8814 5a3d 9728 58be faca 06be 1c49 17be
00000270: 9758 2abe a78a 1fbe c497 56bd c9e9 9fbd
00000280: c3a0 06bd 6e58 8dbb ae54 ac3d 1c54 09bd
00000290: fb6d 6abe 5485 2cbe bce3 b8bb 8c5b d43d
000002a0: 1d90 133d 5e46 853d c68e a33d 1856 073e
000002b0: 6d59 52bd 2a54 56be b731 50be 64f0 913d
000002c0: 1839 203e 3186 cd3c 65aa 52bc 99c6 e3bc
000002d0: 87fe 063e f1ae 85bd 9cfc a2be bb75 afbe
000002e0: ef36 4cbd 96a6 e63d c503 dd3d 423f 6d3c
000002f0: a18e c3bc 41e5 0e3e 429c 97bd 7e78 afbe
00000300: d2df c8be a6f6 74be e29f adbc 0e31 a33d
00000310: 10d2 ca3d ad96 113c cdde 483e 0ddb 853d
00000320: 3325 99be f79f c6be 705f a8be ddc2 cbbd
00000330: a312 dc3c 8e49 b03d 91b0 923d d50a 383e
00000340: 3fb9 af3d 416b 2abe 8909 cebe c9e4 b2be
00000350: 5932 49be ec5c 64bc 292f 2f3d ca50 2e3d
00000360: b09c e13d ffea a63d 4b2a bfbd 9b44 95be
00000370: 6c27 b7be e583 37be 57e8 38bc ebb3 353d
00000380: 5209 fe3c 240a ae3c e55d 7bbc c5c7 7fbd
00000390: 089b 30be 6cdb 69be 9261 aebd 82ef 553d
000003a0: d8ff 7e3d 8675 813d 50c3 b1bd 6579 3dbd
000003b0: 6b26 97bd 2904 83be 8c22 86be 52cb b7bd
000003c0: a726 b13d b20f 9b3d f61f ac3d 45f6 11bc
000003d0: 1af5 78bd ed1a 03be 1150 babd 09da 86bd
000003e0: e3f4 1dbd d981 d8bc 7c15 1abd c98b 9e3d
000003f0: c73b 543d 1298 0b3d 26b9 09bd 1d4d acbd
0.078021 0.08591736 0.02472928 -0.07537474 -0.15988007 -0.24080472 -0.26792687 -0.1827793
0.02193107 0.462266 0.5724949 0.3712104 0.27893364 0.16394323 0.05821129 -0.104878165
-0.17701887 -0.14907593 0.21038134 0.439897 0.30558535 0.15278865 0.22249359 0.41022494
0.34431615 0.07639249 0.05893891 -0.19918036 -0.02994487 -0.06636471 -0.12399974 -0.017060032
0.25045508 0.3889096 0.3189837 0.35487163 -0.3136589 -0.19024499 -0.097220674 -0.12069786
-0.1378699 -0.063164584 0.17444602 0.24479924 0.4275468 -0.35475978 -0.3083751 -0.12093581
-0.099647656 -0.08924812 -0.15685305 -0.11560193 0.05877504 0.30397326 -0.3453001 -0.13446467
-0.085271575 -0.07622172 -0.043573193 -0.07673281 -0.13470152 -0.058006283 0.25353408 -0.27118295
-0.12806995 -0.005273794 0.04683148 0.11306433 0.010310409 -0.11680629 -0.13697703 0.105720855
-0.5047678 -0.34667525 -0.2424587 -0.14854445 -0.034007043 -0.060854215 -0.25145772 -0.38902652
-0.21376179 0.020832734 0.07177882 -0.016745754 -0.05800432 -0.014440827 -0.0016566168 -0.004090028
0.049282752 0.20514408 0.009325193 0.03028115 -0.060723435 -0.2011847 -0.22013922 -0.09017264
-0.04147901 0.022713296 0.18692958 0.09456414 0.08043904 -0.028382346 -0.15642762 -0.26690084
-0.21961997 -0.05836682 -0.06874287 0.023592453 0.07597526 0.07686932 0.050592363 -0.047259126
-0.117946245 -0.16282173 -0.120619856 -0.11600144 -0.13736178 0.16624531 0.13690042 0.13433082
0.055487957 0.10140523 0.08992765 0.015731785 -0.033434827 -0.075428195 0.30254927 0.21664566
0.16895975 0.18798016 0.2232361 0.27685878 0.2435996 0.15586843 0.087332875 0.05767237
0.08615506 0.039727714 0.010894593 0.059702978 0.14100948 0.13814056 0.093367346 0.08492187
-0.14645857 -0.053484462 -0.16161975 -0.13458157 -0.08469314 -0.03337336 -0.0011262776 0.025771772
0.053242236 -0.21109234 -0.13163367 -0.14773983 -0.16635357 -0.15580235 -0.05239083 -0.07808263
-0.032868158 -0.00431352 0.08414589 -0.03352748 -0.22893517 -0.16847736 -0.0056423824 0.10369024
0.03602611 0.06507562 0.07986216 0.13216436 -0.051354814 -0.20930544 -0.20331465 0.07125929
0.1564678 0.025088402 -0.012858008 -0.02780466 0.13183032 -0.06527508 -0.3183335 -0.3426951
-0.049857076 0.112622425 0.107917346 0.014480414 -0.023871722 0.13954641 -0.07402851 -0.34271616
-0.3923326 -0.23922214 -0.021194402 0.07968341 0.099033475 0.008886022 0.19616242 0.06535921
-0.29911193 -0.38793918 -0.32885313 -0.099492766 0.026864355 0.086077794 0.071625836 0.17972882
0.08580255 -0.16642477 -0.4024165 -0.34940174 -0.19648112 -0.01393817 0.042769585 0.042557515
0.11016214 0.08150291 -0.093342386 -0.29153904 -0.35772264 -0.17921408 -0.011285863 0.044361036
0.031010304 0.02124507 -0.01534221 -0.062446374 -0.1724664 -0.22837609 -0.08514704 0.052230366
0.06225571 0.06321244 -0.08679831 -0.04625835 -0.073803745 -0.2558911 -0.26198232 -0.08974327
0.086499505 0.07571353 0.084045336 -0.008908813 -0.060780622 -0.1280324 -0.09097303 -0.06584556
-0.03856362 -0.026429104 -0.037618145 0.07741506 0.05181482 0.034080572 -0.033623837 -0.08413146

core.features.layer1.ds_conv.out_depth_conv.weight f4 [32, 32, 1, 1]
00000000: f863 743e 6d96 103d 8824 8abe bc7f 853d
00000010: a433 8fbe 0cec 5fbd 1c70 9c3d d74e 383e
00000020: 183c d83d d535 d1be 55b0 cd3d da83 30be
00000030: e7ea ffbe b712 423e 1f4d 613e ef13 72bd
00000040: 54a7 9f3d 768d 5dbe 00b3 19bd fbbc 843e
00000050: 948a c73e e9b4 463e 6805 063d 9b8d 8bbe
00000060: 76d4 f33d 7b36 1c3e c67d 5fbe 92bf 06be
00000070: ab5c 31bf 50b3 afbe d31f 033f 9bae 8a3e
00000080: 4cc9 623c 5a9f 98be 2888 bf3e 8f8c d33d
00000090: 12df 8dbe 53fb 05bf 5247 38bd e24a 26be
000000a0: 276f 61bf 5904 f0bd 1392 7bbe 69bc 963e
000000b0: b235 eb3d e9ae 873d 9657 61be 8ef8 113f
000000c0: 3e34 273d 9cf6 b6bd 7a2c 4fbc 0573 f03e
000000d0: b2e9 b5be 1efc 4abd 8091 ddbe 0233 293e
000000e0: 9838 77be 029c 3a3f cfbe 59bd 0f80 623e
000000f0: d2b0 8bb7 4b15 81bd 3d63 e6bd 995a e33e
00000100: 27ce c03e c845 273d 1786 593e 3ef9 8c3e
00000110: e179 2b3c c696 b6bd 81fc 67be 00f6 98be
00000120: e6f6 b6be 420a 45be 8fde cb3e 1888 d63e
00000130: 278e dc3d 30c7 053f c585 0bbf f4c5 443d
00000140: 78b8 7bbd 1373 80be 131e 60bc 1024 8fbe
00000150: 84fd b93e a0da 4fbd 7c03 abbd 8878 51be
00000160: 297a f33d 43e1 56be b339 733d d538 6abe
00000170: 7601 e73e 4888 5b3f 752e ca3d 5306 3cbe
00000180: 1d10 ea3d dab6 023d 3db0 c83d ed84 3abe
00000190: 9ef4 a23d 442b 703e a610 8b3d f50c 573e
000001a0: 3558 fd3f 311d 813e 70fa 87be ee2e a7be
000001b0: 9126 4d3d 6d2d c7be 4945 e43e 6cb6 bdbe
000001c0: 75af a43e cc97 c0be a4d7 233e 68b9 4cbe
000001d0: 8409 3cbd 8208 69be 9998 4fbe 6d63 a93d
000001e0: 1579 9e3d d48a 08bd d29c d23c efe6 5c3e
000001f0: aa73 5fbc ed94 49be 235e 17be 3193 3fbe
00000200: 52a1 bf3d 1dee 87be a683 653e 50e4 6fbe
00000210: 98d2 94ba 2311 1fbe 7380 aa3d b49c 923d
00000220: 6a65 f23e 8bbe a63e 3b97 74be 1187 bc3e
00000230: bbc9 afbe b404 cf3e 4866 adbe 7d8f acbd
00000240: fd05 81be 9c39 da3c d294 1b3c d893 ff3e
00000250: cebd 903e 6997 76bd eaa0 a83e 763c 88bd
00000260: 2670 ae3e f3da 8d3c a2f5 cd3e 1691 b9bd
00000270: aacc 92bd 2a93 993c 2e0b 6dbe 7f60 403e
00000280: 93a6 ca3d 1ffb 343e 34f2 65be 607c 363d
00000290: 5d44 53be 5055 12be a29c 12bf 59ba 793e
000002a0: 5cc8 003e 75d9 26be be02 573d e1e0 9fbd
000002b0: d8a1 5fbd 3ecb a8be 1f67 803e 9699 99be
000002c0: af25 dd3e d96e 5c3e 31b0 b93e 83fa a4be
000002d0: 771b 15be 61ba 4f3e 6652 893e b9e4 1cbd
000002e0: b6a1 93be 952d 97be fd6c b5bd fd81 7d3e
000002f0: e455 7cbd cbc0 a53d f641 0ebd 8b6c c73e
00000300: 95b7 813c 3a00 9a3e 5a7d 0abe ac1c f53d
00000310: b41c a0be ff31 013e 63d8 4d3e 741b 503e
00000320: 1461 c4bc 6f67 233e 9795 0f3e 0d20 5fbe
00000330: b8fc 7abe 1df4 c83e 982c e03e b6bd c93d
00000340: 466f 373e 190c 05bd fddb fa3e 13ff 103f
00000350: 8077 9f3e 3800 e7be 4c46 92be ef67 6e3e
00000360: 59d9 603c 0d10 3e3e 4fe4 cabe ce25 cbbe
00000370: af53 02bf e57e 46bd d421 3d3e 44b0 e23c
00000380: 06c3 19be 708f 293d de67 5bbe bd73 a83e
00000390: 14f7 ac3e c40d 53be d7d2 97be 2a10 1c3e
000003a0: ba02 5bbe e100 093e 4a16 94bd dbe0 0d3e
000003b0: 5d62 213d 21cf 27be 5577 b9be 135b c43e
000003c0: 9723 87bd 7f1a 69be 5ca3 8dbe 7517 2abe
000003d0: 5437 9ebe 4335 09be 900d 1f3e 982a e73e
000003e0: ea78 383e 1e60 5fbe 36c9 a6bd 8df8 7f3e
000003f0: cb06 f33e 35f2 6e3d c744 c7be ef69 cabe
0.2386626 0.035299707 -0.26980996 0.06518504 -0.27969086 -0.05466847 0.07638571 0.17998825
0.10558337 -0.40861383 0.10043398 -0.17237797 -0.49983904 0.18952452 0.22002076 -0.05910104
0.07795587 -0.21635994 -0.037524223 0.2592543 0.38972914 0.19404949 0.03272 -0.27256474
0.11905758 0.15255158 -0.21825323 -0.13159016 -0.69282025 -0.34316492 0.51220435 0.27086338
0.013841938 -0.29809076 0.37408566 0.10329544 -0.27709252 -0.52336615 -0.04498989 -0.16239503
-0.8806023 -0.11719579 -0.24567442 0.2944062 0.11484851 0.06625158 -0.22006068 0.5701989
0.040821306 -0.08933756 -0.012644881 0.46962753 -0.35529858 -0.049556844 -0.4327507 0.16523364
-0.24142683 0.728943 -0.053160485 0.22119163 -1.665243e-05 -0.063028894 -0.11249397 0.44405058
0.37657282 0.040838033 0.21242557 0.27533907 0.01046607 -0.089154765 -0.22654916 -0.29875183
-0.35735244 -0.19242194 0.39818236 0.41900706 0.10769301 0.5225706 -0.5450099 0.048040345
-0.06145522 -0.25087795 -0.013679045 -0.279572 0.3632623 -0.050745606 -0.08350274 -0.20456135
0.118885346 -0.20984368 0.0593812 -0.22873242 0.45118302 0.85754824 0.09872142 -0.18361787
0.114288546 0.031912662 0.0979924 -0.1821477 0.07956813 0.23454005 0.06790285 0.21001036
1.9792544 0.25217584 -0.26558256 -0.32652992 0.050085608 -0.38901845 0.4458411 -0.3705324
0.32165113 -0.37615812 0.16000229 -0.19992602 -0.045907512 -0.22757152 -0.20273055 0.08270917
0.07737938 -0.03333552 0.025709543 0.21572469 -0.013638416 -0.19685717 -0.14782004 -0.18708493
0.09356941 -0.26548854 0.22413501 -0.23426938 -0.0011354266 -0.15533881 0.08325281 0.07158795
0.47342998 0.32567248 -0.23885815 0.36821797 -0.34333596 0.40433276 -0.33867097 -0.08425806
-0.2519988 0.026638798 0.009495931 0.49917483 0.2826981 -0.06020299 0.32935268 -0.06652157
0.34069937 0.017316317 0.40226465 -0.09060876 -0.07167943 0.018746931 -0.23148796 0.1878681
0.09895053 0.1767392 -0.22455674 0.044552207 -0.20631547 -0.14290357 -0.5727025 0.24387492
0.12576431 -0.16293891 0.05249285 -0.07806564 -0.054597706 -0.3296756 0.25078675 -0.2999999
0.43192813 0.2152666 0.36267236 -0.32222375 -0.14561258 0.20285942 0.26820678 -0.038304064
-0.28834313 -0.29526964 -0.088586785 0.24756618 -0.06160535 0.08093413 -0.034730874 0.3895
0.015834609 0.30078298 -0.1352438 0.11968359 -0.312719 0.12616728 0.20102076 0.20322973
-0.023972072 0.15957426 0.14021908 -0.2178957 -0.24510467 0.39248744 0.43784022 0.098506376
0.17913541 -0.03248224 0.48995963 0.5663921 0.3114586 -0.45117354 -0.28569257 0.23281835
0.013723695 0.1856081 -0.3962731 -0.3967728 -0.5090894 -0.04846086 0.18469936 0.02767194
-0.15015802 0.04139656 -0.21426341 0.329008 0.33782256 -0.2061072 -0.29653046 0.15240541
-0.21387759 0.13379242 -0.07230814 0.13855307 0.039400447 -0.16387607 -0.36223856 0.38350734
-0.06598585 -0.22764014 -0.27663696 -0.1661051 -0.30901587 -0.13399224 0.15532517 0.45149684
0.18014875 -0.2181401 -0.08143847 0.24997158 0.4746612 0.058336455 -0.3891966 -0.39533946

core.features.layer1.norm.weight f4 [32]
00000000: 69fc 343f 7841 ff3f 7327 b73f 6512 0340
00000010: 5af2 843f 162d 793f 7a5d 373f 76f3 343f
00000020: f36e d63f ad0f 543f 4dfd 893f ca29 683f
00000030: e86a df3f 8afe 1240 81af 1640 3ad6 823f
00000040: fb5e 0d3f dd7c a43f 8b73 3a3f 9523 3e3f
00000050: 77f9 7e3f c802 5d3f 8d37 2340 b017 cb3f
00000060: d3f1 2e40 0594 0b40 65b8 983f 32f8 6b3f
00000070: 999a 1e3f e04c a63f 86ac a23f 99a9 783f
0.7069765 1.9941854 1.4308914 2.0479977 1.038646 0.9733442 0.7162701 0.7068399
1.6752609 0.8283642 1.0780426 0.90688765 1.74545 2.2967858 2.354462 1.0221627
0.55223054 1.2850605 0.72832555 0.74273044 0.99599403 0.8633237 2.5502656 1.5866604
2.7335098 2.1809094 1.1931273 0.9217559 0.6195465 1.299221 1.27089 0.97133785

core.features.layer1.norm.bias f4 [32]
00000000: a3be 38bf b3fb ffbe 85b7 6bbf 1143 a1be
00000010: 24ce 5abf fd31 cdbe 5d93 5f3f 3918 19be
00000020: 746e dfbe efd9 013e d8c8 16bf 2e44 2bbf
00000030: d706 bcbe 5317 55bf 6270 60bf f7d6 b1bd
00000040: 9e32 a23e 4817 1f3f b773 25be eb09 5d3d
00000050: 400f ddbf f56a 91be 8506 1ebf f9d1 35bf
00000060: 309c 7cbf 745f 71bf c44e 1abf 9160 cebe
00000070: 3a1a 82be 703e 4cbf 12eb 35be 527a 22be
-0.7216589 -0.4999672 -0.92076904 -0.3149648 -0.85470796 -0.400772 0.87334234 -0.14950646
-0.43638957 0.12680791 -0.58900213 -0.6690091 -0.36723968 -0.83238715 -0.8767148 -0.086835794
0.31679243 0.621449 -0.16157423 0.053964537 -1.7270279 -0.28401914 -0.617287 -0.7102352
-0.98675823 -0.94286275 -0.60276437 -0.4030805 -0.25410634 -0.7978277 -0.17765453 -0.15866974

core.features.layer1.norm.running_mean f4 [32]
00000000: 21e6 99c0 56a2 a2be 454f 933f e7a5 bd3f
00000010: 1c44 6a3f 55f5 92bf 02ca 3ac0 206b f23f
00000020: b2a4 973e 6c87 26c0 55c1 70bf 2163 a8bf
00000030: 2b5d e9bf e345 4abf 055d 06c0 4bc2 123f
00000040: bcd6 b83f 47ab f93f 1ef6 bcbd cc57 1140
00000050: a30c a3c0 81b3 eabf 33c2 c7be 32f7 89bf
00000060: 9204 cabe ce74 81bf 7f71 5abf bf16 e4bf
00000070: af3e 53c0 5d4a 4ac0 62f7 4b40 820e 3f3f
-4.809342 -0.31764477 1.1508566 1.4816254 0.91510177 -1.1481119 -2.9185796 1.8938942
0.2961784 -2.6020155 -0.94045 -1.3155252 -1.8231558 -0.7901289 -2.0994275 0.5732772
1.4440532 1.9505395 -0.09226631 2.2709837 -5.0952926 -1.833603 -0.3901535 -1.0778563
-0.39456612 -1.0113771 -0.8532943 -1.7819442 -3.300701 -3.1607888 3.186974 0.7463151

core.features.layer1.norm.running_var f4 [32]
00000000: c4d7 ec41 b588 fd42 b9b5 6f42 df45 4943
00000010: 2416 0d42 4c14 0b42 3732 1742 72f0 0f42
00000020: 1bd9 a342 486a 6842 1fae 0e42 02c8 9a41
00000030: 2168 cc42 59f4 e342 caf9 1b43 0908 2042
00000040: 146a db41 0e47 7642 f5fb 7741 bffd ee41
00000050: eebe c441 303c 8842 6d4d 1043 5976 c242
00000060: 2c7a 1b43 5059 0643 5cd4 0642 9940 1342
00000070: 043a c741 4d88 6d42 1f76 6142 ad42 a841
29.605354 126.767006 59.927464 201.27293 35.27162 34.76982 37.799038 35.98481
81.924034 58.10379 35.67004 19.34766 102.20338 113.97724 155.97574 40.007847
27.426796 61.56939 15.499013 29.8739 24.593227 68.11755 144.30244 97.23115
155.47723 134.34888 33.707382 36.813084 24.903328 59.383106 56.365353 21.032557

core.features.layer1.seg_ex_block.se.1.weight f4 [2, 32]
00000000: bd68 a8bd f6d6 793e a3e3 db3b d107 bbbd
00000010: 9489 8c3d d848 003e 0396 863d c4b7 80be
00000020: 35f4 bfbe 8497 ab3d d79c 01be 556d ecbd
00000030: 9ffb 743e ac6d 1f3e 3e7d b7be 15d5 a7bd
00000040: 3e53 b2bd 5d61 7cbc a35b 2cbd b197 673e
00000050: a85b 1abe 59a8 0cbe 483f 43bf ecc7 9c3e
00000060: a5ef 703e 8998 cabe d8fd 493d b0f1 353e
00000070: 3d8f 5fbe e3c2 da3e 73c3 343e 96c1 133e
00000080: 8a86 13be 910d 22be 026b 87bd 9a0e 29bd
00000090: 8e57 013e 082f fa3c f14c 6f3e fe4e 7d3e
000000a0: 76e3 103e 7e5d 1fbd b084 293d a60d 5fbe
000000b0: 3b38 e43e bea8 b53e 9aa0 e53e 42e9 063e
000000c0: b876 683e 724a d63e d3d6 8a3e 6047 5cbe
000000d0: f31a cebe 6796 893e 1a04 193e 0de2 ee3c
000000e0: a842 a53e 0539 11be 6f78 3abe 1475 02bf
000000f0: 1e93 063e 0b25 a53e ea3d ce3e f8d5 693d
-0.08223102 0.24398407 0.006710486 -0.0913235 0.068621784 0.12527788 0.06571581 -0.25140202
-0.37491003 0.08378509 -0.12657486 -0.11544291 0.23924111 0.1556918 -0.3583774 -0.08194939
-0.087072834 -0.015404073 -0.04207958 0.2261646 -0.15074027 -0.13736095 -0.76268435 0.30621278
0.23528917 -0.395695 0.04931435 0.17767978 -0.21831985 0.42726812 0.17652683 0.14429316
-0.14406791 -0.15825488 -0.06612207 -0.04127369 0.12631056 0.030540004 0.23369195 0.24737164
0.1414927 -0.03890752 0.041386306 -0.2178255 0.4457415 0.35480303 0.44849092 0.13174918
0.22701538 0.41853672 0.27117023 -0.21511602 -0.40254936 0.2687256 0.14942971 0.029160524
0.32277417 -0.14181907 -0.18210004 -0.509599 0.13142058 0.32254824 0.40281612 0.057088822

core.features.layer1.seg_ex_block.se.1.bias f4 [2]
00000000: 6b83 273e 5052 e63e
0.16358726 0.44984674

core.features.layer1.seg_ex_block.se.3.weight f4 [32, 2]
00000000: 3980 25be 48bd 9f3e 25dd cebe 0788 ddbe
00000010: b63b 4a3b 4626 d3be f525 443d 6ada eebe
00000020: 4129 3fbe 3770 2abf c7c4 d5be 9370 9ebe
00000030: 4587 92bd 2ffe 8abf 360c f93d 587b 6abc
00000040: bb11 013f e196 f2be 628f 27bf c73a b73e
00000050: c468 3bbf fd8a 5ebe fdd5 a43e f205 8dbd
00000060: 9681 f5bd b3aa 16bf c3bc 783c 83a9 edbe
00000070: 1716 d4bc 9a2b e6be 403a b0be bcea eabe
00000080: 1142 21bf 300e abbd 0c4e aabe 2586 78bf
00000090: 214c 17bf 24b7 69be fbff 49be c014 e8bd
000000a0: 37f9 84bd e16c 59be ed8d 433e 1d45 513e
000000b0: b744 253f 02bd eebe e00b 42bf c5ec 72be
000000c0: 2674 cebe de51 ecbe fcc5 493d 6fa4 bdbe
000000d0: 7939 d1be 3775 93be 9a91 23be 20f5 eabd
000000e0: eece eabd d38e 0ebe b2b2 58be e612 b8be
000000f0: 04ba 1ebd 1d5c d3be 162f d73e 7407 febe
-0.16162194 0.31199098 -0.40403095 -0.43267843 0.0030858344 -0.41240138 0.04788776 -0.46651012
-0.18668081 -0.66577476 -0.41751692 -0.30945262 -0.07154707 -1.0858821 0.12160532 -0.014311634
0.5041768 -0.47380736 -0.6545316 0.3578703 -0.73206735 -0.21732707 0.3219451 -0.068858996
-0.11987607 -0.58854216 0.015181723 -0.4641839 -0.02588944 -0.4495514 -0.3441944 -0.45882213
-0.62991434 -0.083523154 -0.3326267 -0.9707969 -0.5910054 -0.22823769 -0.19726555 -0.11332083
-0.064928465 -0.2123294 0.19097109 0.20436521 0.64557976 -0.46628577 -0.7579937 -0.23723133
-0.4032299 -0.4615621 0.04926108 -0.37039515 -0.4086416 -0.28800365 -0.15973511 -0.11472535
-0.1146525 -0.1392167 -0.21161917 -0.35951918 -0.038751617 -0.41281214 0.4202811 -0.4961506

core.features.layer1.seg_ex_block.se.3.bias f4 [32]
00000000: 15c1 e73e f629 b53d 070e 89be 57a0 af3d
00000010: 0d3a a43e 30e2 a83e 913c c8be 1c3c 003c
00000020: 54d0 c53e f1f2 63be a9a1 bebe 6373 213e
00000030: 9599 a9bd ff58 40bd d38c b63e e65a aebe
00000040: 266e 743d 5990 8abe 5c79 6f3e 3e37 57bc
00000050: 40cf 3c3e 1a8a 5fbd 5873 bf3d ad8f 383e
00000060: 46d4 823e d789 443e 5aac f0be 959b 643e
00000070: 9318 bc3e 1f27 803e 840d 6e3e 21f1 babe
0.45264497 0.08845894 -0.26768515 0.08575504 0.3207554 0.32985067 -0.39108709 0.007826831
0.38635504 -0.22260644 -0.37232712 0.15766673 -0.082812466 -0.046959873 0.35654315 -0.34053725
0.05967536 -0.27063254 0.23386139 -0.013135729 0.18438435 -0.054575063 0.09348172 0.18023558
0.25552577 0.19193207 -0.47006494 0.22324975 0.367375 0.25029847 0.23247343 -0.36512092

core.features.layer2.ds_conv.in_depth_conv.weight f4 [32, 32, 1, 1]
00000000: 8362 77be 9bdf 8fbe f174 8b3e 8e56 c8be
00000010: 7440 aabd 3711 9c3e e46e 5bbd 883a c0be
00000020: 0f85 70be 22f6 203e bc0b 263f cf09 9b3d
00000030: 5902 1bbf 3038 7abe b0cb 9fbe 10bf 60be
00000040: e36b 83bc fc36 36bf ecb6 d1bd f719 453e
00000050: ff4c 56bf c4bd 2f3e 4c31 98be 5fff c5bd
00000060: cc61 0abe 07a1 b0be 8b09 05bd c3ee bc3e
00000070: 1965 653e 496a 89be 90fd e73a cbd8 f63e
00000080: 8d11 be3d f700 ef3e 53a1 99be 4aee 253f
00000090: f963 ffbe 9cd8 23be 3809 183c e7ad bd3d
000000a0: 497c 8a3d 3644 74be bd65 80be fb39 ab3d
000000b0: c47f 523e 8964 9abe 9635 313e ea09 35be
000000c0: 9524 81be 7821 bdbd 14c0 c1be 0a2b 92bc
000000d0: 5af7 f2be 1ad5 94be e6e3 6b3e 0443 a03e
000000e0: fe4e 8cbe a685 123e 189f e53e b498 a33d
000000f0: c3fb 35be 7bb9 c9be de24 e1be 50f3 853e
00000100: 4bf3 4bbc 321a 903d 072e 9c3e c4eb 9b3e
00000110: 98e1 0f3d 6880 663f a27c 933e 9e25 af3e
00000120: b27b 39be 7a84 1e3e dfae a2bd bd2a fdbd
00000130: bfd4 7cbe 5c12 f63d 335e 383e 6786 033e
00000140: 14af df3c fc4f d83e 4b79 45be 4171 09bf
00000150: ff20 2c3e 0b34 e83c cdf6 573d 7eef 4d3e
00000160: 75a9 653e 70a2 1d3e 43e6 033f fa0f d73d
00000170: f853 f2be 2eaf 89bd 34f8 11be f1ff 4b3e
00000180: 9480 19bd 343e 033d a8c2 96be 2075 1ebe
00000190: 33b5 703d 1eff 1bbf 21c2 0d3e 9f3a a9be
000001a0: c386 70be ae64 fbbc 97fa 08bd f58c 353d
000001b0: a81c 2f3f a290 85be 1c43 343d 274e 2e3d
000001c0: 8a8e 14bd 7a83 ecbd d9f0 9c3e f005 93be
000001d0: 86ef ffbe c716 533e 5577 533e 44f1 17bf
000001e0: 6743 30be 2a67 51be 37da 26bf e905 093d
000001f0: 3e35 4e3f a791 05be fd56 b53e 0c99 6a3d
00000200: b73c 6abe ed63 f4bd 77b6 3e3d 08c5 133e
00000210: 4d5b ff3d d0b4 50be b9af 12bf abf5 89be
00000220: a6b6 b93e 3cf5 17bf 91ca 93be 5adb 583e
00000230: d7a5 a1bd ed84 ce3d 99fd a2bd abcd ccbc
00000240: 6e92 803e ddcf 98be 4af6 b53e 17d1 b83e
00000250: ae79 9c3e 4d3f d3be fac8 05be ab45 433e
00000260: 7f6e ac3e 802e e03c 728e f03e b0c1 0bbf
00000270: cabd 95be d5eb 3d3e 2f81 64be 8e50 993e
00000280: b87d 873e 7f98 c23d 3f18 ffbd b6f4 113e
00000290: 9be6 d7be b9b0 bdbd 4921 acbe 7fcb c2bd
000002a0: 61fb ea3e da6f 23be 81da efbe 82e1 e6bc
000002b0: 0a70 0abf 42f4 1e3e d0a9 9abd e080 1bbf
000002c0: eb87 b53e 7f41 9c3d 3fdf b03c 9475 74be
000002d0: 3e22 0b3f be04 c33e e6f4 b0bd 09ac 953e
000002e0: 10e5 933d 4ea7 333e 24c8 913e 60da 4c3e
000002f0: 2808 223f 8a3f 67be bd8e 4f3e 59c6 d8be
00000300: d199 f9bb a552 fc3e ae5e 243e fc26 c23e
00000310: f823 01be 5691 b53d b631 ce3d 5830 8ebe
00000320: ebbb 013f 29bd bcbe d654 9ebd 554a 1fbd
00000330: b8e2 dfbd d1e3 8fbe 3685 0bbf ad40 e4be
00000340: 5cb0 63bd 24ad bf3d 740d 52be 5967 953e
00000350: 462d a13e d072 873e 19d8 883e b4d1 b23e
00000360: 72fc 9cba d999 cdbe 7dc6 fcbe a8a8 853e
00000370: 53b8 46be 9a40 7d3e 101a 863d 0d28 85bd
00000380: d8ad 80be 868e ffbd 0308 da3d 6ce5 b4be
00000390: f730 9e3e 0fc6 373e 7ed1 54be ff1e e7bd
000003a0: c26e c1be 4c93 0bbd 1f7c cd3e 5ff1 db3e
000003b0: 0ff5 f03c 0c18 79be 0e27 04bf c77e 6a3d
000003c0: 3a60 52be 8956 28be 79bf 203e 92bb 723e
000003d0: 807e 633c 6a8f 553e cc05 063d 6110 afbe
000003e0: 01ea 7fbe f010 88be 8147 81bd 578f 873e
000003f0: 9e3b 103d 3ad2 b5bc 63bb 46bd 8fd4 803e
-0.24158673 -0.28100285 0.27237657 -0.39128536 -0.08313075 0.30481884 -0.05357255 -0.37544656
-0.23488258 0.15718892 0.64861655 0.0757023 -0.6055046 -0.24435496 -0.3121009 -0.21947885
-0.016042655 -0.7117765 -0.10239968 0.19248186 -0.83711237 0.17162234 -0.2972511 -0.09667849
-0.13513869 -0.34497854 -0.032479804 0.3690091 0.22401847 -0.26838902 0.0017699469 0.48212275
0.09280691 0.46680424 -0.30005893 0.64816725 -0.4988096 -0.16000599 0.009279542 0.09261685
0.06761987 -0.23854145 -0.2507762 0.08360668 0.20556551 -0.30154827 0.17305598 -0.17679563
-0.25223222 -0.09234899 -0.37841856 -0.017842788 -0.4745434 -0.29068834 0.23036155 0.3130113
-0.27404016 0.14308795 0.4484794 0.0798811 -0.1777182 -0.39399323 -0.4397344 0.26162195
-0.012448142 0.07036246 0.30503866 0.30453312 0.035127252 0.9003968 0.28806025 0.34208387
-0.18113592 0.15480223 -0.0794351 -0.12361667 -0.24690531 0.120152205 0.18004684 0.12844239
0.027305163 0.42248523 -0.19284551 -0.53688437 0.16809462 0.028345129 0.052725602 0.2011089
0.22427924 0.15393996 0.51523226 0.10501094 -0.47329688 -0.06722866 -0.14254838 0.19921853
-0.037476137 0.032041743 -0.29445386 -0.15474367 0.058766555 -0.6093615 0.13843586 -0.33052537
-0.23488908 -0.030687656 -0.033442106 0.04432388 0.684031 -0.2608691 0.044009313 0.042555
-0.03626875 -0.11548515 0.30652502 -0.28715467 -0.4998743 0.20614158 0.2065099 -0.5935252
-0.17213212 -0.2044951 -0.6517672 0.033452902 0.8054999 -0.13043843 0.3541793 0.057274863
-0.22874723 -0.11933122 0.04656073 0.1443063 0.12468586 -0.20381474 -0.5729938 -0.26945242
0.36272162 -0.5935857 -0.28865483 0.21177426 -0.078929596 0.10083947 -0.07958526 -0.025000414
0.25111717 -0.29846087 0.35539466 0.36097023 0.30561584 -0.41259232 -0.13064948 0.19069545
0.33678052 0.027365923 0.46983677 -0.5459242 -0.2924636 0.18546994 -0.22314905 0.2994427
0.26463103 0.095017426 -0.124557965 0.14253506 -0.42168126 -0.09262223 -0.33619145 -0.0951147
0.45894912 -0.15960637 -0.46846393 -0.028183702 -0.5407721 0.15522864 -0.075519204 -0.6074352
0.3545526 0.0762968 0.021590827 -0.23872977 0.54349124 0.38089556 -0.08640461 0.29232815
0.072214246 0.1754429 0.28473008 0.20005178 0.63293695 -0.22582832 0.20269294 -0.42338827
-0.0076172133 0.49281803 0.16051742 0.37920368 -0.12611377 0.08865611 0.10068075 -0.27771258
0.50677365 -0.36863068 -0.07731025 -0.038889248 -0.10931915 -0.28103498 -0.5450014 -0.44580594
-0.05558811 0.09359196 -0.20512944 0.2918041 0.31479853 0.26454782 0.2672737 0.34925616
-0.001197709 -0.4015644 -0.49370185 0.26105237 -0.19406252 0.24731675 0.0654794 -0.0650178
-0.25132632 -0.12478356 0.10646059 -0.35331285 0.30896732 0.17946647 -0.2078304 -0.11285209
-0.37779814 -0.03407602 0.4013376 0.4295759 0.029413728 -0.2432558 -0.5162209 0.05724981
-0.2054452 -0.1643926 0.15698041 0.23704365 0.01388514 0.2085549 0.032720372 -0.34192184
-0.24991609 -0.26575422 -0.063124664 0.26476547 0.035213105 -0.02219497 -0.04851855 0.2516217

core.features.layer2.ds_conv.spatial_conv.weight f4 [32, 1, 9, 9]
00000000: 12c1 a93e 7382 1b3e eeac 183d be13 533e
00000010: 7c7e 4e3e 1421 e43d 87ad 6e3e 5492 a43e
00000020: dbb5 be3e 654e 833e 9bdb a23d afae 79bd
00000030: 452c eabd 7c4a 05be 5c88 d3bd e031 083d
00000040: 31de 7abc be93 563e 8f10 9c3e d86e 26be
00000050: b326 c2be dc65 68be 1499 92be 45c1 e6bd
00000060: 71f7 c13d 58bf 653d 495b 053f f3c0 603e
00000070: ee8f 30be 69a0 f3be fa62 28bf 428d 15bf
00000080: ce84 babe f5c6 49bb a990 233e 0fbf 383e
00000090: 1eac 783e 3a1e 57bd 35d8 eebe 5580 3abf
000000a0: 26a3 36bf e70c 9fbe 5b71 823e 770a 403e
000000b0: 2749 613e f2b9 543e 9cae b8bc 8ad3 debd
000000c0: f1de 7fbe f17c 81be 0d9d 52be de17 013d
000000d0: 03cd 143d 6b54 a23e bb17 903e b3f9 3b3d
000000e0: 4125 06bd 56e1 47bd a3c1 c0bc 4f90 47bc
000000f0: 4466 9e3d d6cd 2c3e a16c d43e dad6 913e
00000100: 7c5b 94bd a1cd 593c edc5 523d da04 a9bc
00000110: 6bca 973c dc24 da3d cc73 27bb 0178 583e
00000120: c368 f83e 0cc0 c23d 4a76 8e3d 8e97 443e
00000130: 9de8 7c3e 75f2 1f3e 59da c13d e5eb 7b3d
00000140: 18db a73e a973 eebd b414 3cbd 121a a43d
00000150: 94fe 99bd 2fff 363e 8d0c 0c3e cac5 0d3e
00000160: b474 ae3e 42ba ca3e a3b9 7ebd c28c f0bc
00000170: 1aaf bb3d e15a fabd b597 fb3d 3989 913c
00000180: 5f01 173e 61d6 34be b001 8d3b 7966 ba3d
00000190: 5bb9 223e a305 d73e 62e7 b83d 555f 3b3e
000001a0: 948c 1d3e f848 b13e f13d 5fbe 61af 6e3e
000001b0: bbc5 d63d a464 0d3e 2354 793e a64b fb3e
000001c0: 6236 063f 1211 573e c1e9 463e 2dec eabd
000001d0: 442c 3f3e c56e 1e3e 4837 fcbb 235b 0b3e
000001e0: b2b9 0a3f fc28 df3e 9d41 783e f2b6 953e
000001f0: 3f51 8bbd 50cc 073e 6784 b73e 4e1e 443e
00000200: 01ae 903e 9f7e 423e 91cf 373e b110 7d3e
00000210: 2980 693e 5e6d b3bd 7bb8 3e3e 95bb 533e
00000220: 5fd5 753e 25bb 8d3e a229 debd 6f51 a8bd
00000230: aade a73d de06 323c 7cc3 843d 33bf 233e
00000240: 6376 7ebc 82e5 31bd 4721 c53b 6215 03be
00000250: 5335 893b f8ef b0bd 62db 553d e952 f53d
00000260: 88dd 5dbd 3bb8 923e fa51 233e 688c 823e
00000270: 0840 b33d 0df0 553e 7026 283d 1c4e 373d
00000280: fd77 4b3e 66f1 353e f153 96bb cc44 0e3e
00000290: fbc2 6c3d b758 653e 8785 c43e 1e21 3f3e
000002a0: b729 1e3d 4ebf 15bd 09e6 76bd b77f 30be
000002b0: 0078 053e 6ca2 14bd bcc6 033c 0d03 053d
000002c0: 3296 0bbe 54a9 84bd 0a4f a93c c5ce a73d
000002d0: 813f 40be c4a6 433e d7f9 5d3e 0a05 cf3e
000002e0: 3880 a23e 8fd4 bc3d 54fc b23d 9b4c 233c
000002f0: 709b d1bb e933 e3be 630b 19be 0f4b 683d
00000300: 46de d83e ab80 d73e 6476 733e da5f 2c3e
00000310: 836b 453e 1cb0 46bd 2957 92be 1b7d 84be
00000320: bc16 05be a19a 383e b7c0 b63e b5ff 3f3e
00000330: 3325 00bd 418a 6b3d 70ea 4bbd 53e2 35be
00000340: c354 97be e59a ccbe 49c4 e1bc bb51 903e
00000350: eebd ce3d 0747 0dbe fada 09be a58b fc3b
00000360: 6996 c3be 2b9d 94be 9cb9 8cbe 4436 66bc
00000370: beae 843b 7f6d b83d 08d8 1d3e b4a3 ba3d
00000380: 97e2 babc 46e8 adbe efd0 7bbe 75ac 86be
00000390: 882d 30bd ab7f 58be de83 2abc 01b0 413d
000003a0: 46a5 c13d 3fea 833d 7e68 84be f840 aabe
000003b0: 0192 c3be 9ec3 32be a92e b1bd 1ab8 023e
000003c0: e75d d93c 18b0 343d efd5 6b3e 6d73 a1be
000003d0: 3952 10be 1064 97be 2d44 a0be 5da3 73be
000003e0: 41b2 2e3c 0979 413e d537 113e 776b 6b3e
000003f0: f221 073e d1a4 d03d 1f6a b8be a8a3 d5be
0.33155113 0.15186481 0.037274294 0.20613 0.20165437 0.11139122 0.23308383 0.3214289
0.3724812 0.25645748 0.07952043 -0.060957607 -0.11434225 -0.13016695 -0.10328743 0.03325069
-0.015311764 0.20954797 0.30481383 -0.16253221 -0.3792015 -0.22695106 -0.28632414 -0.11267332
0.09471024 0.056090683 0.52092415 0.21948604 -0.17242405 -0.4758332 -0.65776026 -0.5841867
-0.36429447 -0.0030788754 0.15973152 0.18041633 0.24284407 -0.05251906 -0.46649328 -0.7285207
-0.71342695 -0.3106453 0.25477108 0.18753992 0.22000562 0.20774058 -0.022544198 -0.108801916
-0.24987389 -0.25290635 -0.20567723 0.031516902 0.036328327 0.3170503 0.28143105 0.04589243
-0.03275037 -0.04879888 -0.023529833 -0.012180402 0.07734349 0.16875395 0.41489127 0.2848423
-0.07244012 0.013293655 0.051458288 -0.020632196 0.018529138 0.106515616 -0.0025551198 0.21139528
0.48517427 0.09509286 0.069561556 0.19198439 0.2469811 0.15619834 0.09465475 0.061504263
0.32784343 -0.11643154 -0.04591818 0.08012785 -0.0751926 0.17870782 0.13676663 0.13844982
0.34073412 0.39595228 -0.062188756 -0.029363994 0.09164257 -0.12224365 0.12284795 0.017765628
0.14746617 -0.17659904 0.0043031797 0.09101576 0.1589102 0.41996488 0.09028508 0.18298085
0.15385658 0.34625983 -0.21800973 0.23309089 0.10486933 0.13807923 0.24348502 0.49081153
0.5242673 0.21002606 0.19425108 -0.11470828 0.1866923 0.15471943 -0.0076970197 0.13608985
0.541896 0.43585956 0.2424378 0.2924114 -0.06802606 0.13261533 0.35843202 0.19152185
0.28257754 0.18993615 0.17950274 0.24713399 0.22802795 -0.087610945 0.18625061 0.20677026
0.24007176 0.27681842 -0.108477846 -0.08218657 0.08196767 0.010865895 0.06482598 0.15990905
-0.015531155 -0.043431766 0.00601593 -0.12801126 0.004187265 -0.086395204 0.052211173 0.119787045
-0.054166347 0.28656182 0.1594924 0.25497746 0.08752447 0.20892353 0.04105228 0.044752225
0.1986999 0.17767867 -0.0045876433 0.13893431 0.057803135 0.22397123 0.38383123 0.18664977
0.038614 -0.036559395 -0.060277972 -0.1723622 0.13034058 -0.03628771 0.008042987 0.032473613
-0.13631514 -0.06477609 0.020667572 0.08193735 -0.18774225 0.19106585 0.21677338 0.40433532
0.31738448 0.0922023 0.08739534 0.009966995 -0.0063967034 -0.44375542 -0.1494575 0.056712206
0.4235708 0.42090353 0.23775631 0.1683344 0.19279294 -0.048507795 -0.28582123 -0.25876698
-0.12996954 0.18027736 0.35693905 0.18749888 -0.031285476 0.057504896 -0.049784124 -0.17762117
-0.29556856 -0.39961925 -0.027559416 0.28187355 0.1009482 -0.13796626 -0.13462439 0.0077070766
-0.3820069 -0.2902616 -0.2748536 -0.014051024 0.004049151 0.0900526 0.1541444 0.09113255
-0.022813125 -0.33966273 -0.2459142 -0.2630345 -0.043012172 -0.21142451 -0.010407416 0.04728699
0.094553515 0.06441163 -0.2586097 -0.33252692 -0.3819733 -0.17457435 -0.08651478 0.12765542
0.026534034 0.04411325 0.23030828 -0.31533375 -0.14093865 -0.2956853 -0.31302014 -0.23792787
0.010662616 0.18893827 0.14181454 0.22990213 0.13196543 0.10187686 -0.36018464 -0.41726422
