nnvision/data/model_weights/v1_data_driven/sota_cnn_ensemble_model_5.pth.tar (torch, 309331 bytes, 30 tensors)

core.features.layer0.conv.weight f4 [32, 1, 24, 24]
-0.04175714 -0.0372683 -0.028018292 -0.015280428 -0.014419165 -0.020766549 -0.020698756 -0.012481482
0.006649761 0.010378096 0.00368262 0.0010283804 0.009213539 0.0038403324 5.2391624e-05 0.00439946
-0.0018052235 -0.000346566 -0.002118932 0.00529927 -0.013748378 -0.009779966 -0.013656829 -0.017831298
-0.044445463 -0.03745319 -0.030166423 -0.016150674 -0.013992768 -0.016540518 -0.010801583 -0.018155728
-0.0072015813 -0.008425812 0.0052548065 -0.016289836 -0.015275879 0.0069924 -0.013035807 -0.013098467
-0.0099011585 -0.0070191966 -0.010962996 -0.022178056 -0.02186652 -0.028887544 -0.03205351 -0.01690333
-0.055040922 -0.04057697 -0.03777361 -0.030415267 -0.017948668 -0.014738331 -0.011443834 -0.031229617
-0.02893018 -0.025596417 -0.013093881 -0.025565129 -0.026477585 -0.0038374346 -0.0116991205 -0.016242698
-0.01935637 -0.014131361 -0.023184218 -0.03198047 -0.030121917 -0.043422714 -0.030948548 -0.025726851
-0.048298042 -0.03920153 -0.030121718 -0.038147002 -0.02330329 -0.021399358 -0.021065721 -0.03557545
-0.021831881 -0.029051665 -0.03570537 -0.03228645 -0.022343641 -0.014458611 -0.01764778 -0.01478714
-0.02827336 -0.033541374 -0.029514238 -0.025180293 -0.03347883 -0.043737527 -0.032436848 -0.029034449
-0.043556828 -0.04429761 -0.034783773 -0.025690887 -0.021238392 -0.028753577 -0.026706813 -0.03391071
-0.039938726 -0.030258771 -0.031075355 -0.031244764 -0.026037287 -0.014952002 -0.032810554 -0.029452523
-0.025751077 -0.03237505 -0.02840153 -0.030579224 -0.028078537 -0.03408489 -0.037843745 -0.028420102
-0.046955127 -0.049919575 -0.035868425 -0.04270332 -0.035044365 -0.03674103 -0.025427196 -0.033617992
-0.036273103 -0.036076315 -0.029081546 -0.039962437 -0.033334926 -0.033264387 -0.032431543 -0.029895231
-0.039052308 -0.045233488 -0.036454286 -0.034608617 -0.0343185 -0.03371799 -0.025907783 -0.034963533
-0.039662153 -0.038497884 -0.03038034 -0.036790065 -0.03652682 -0.03521413 -0.029806178 -0.03149091
-0.026633808 -0.01576558 -0.011284993 -0.031918388 -0.0344383 -0.03885783 -0.022050252 -0.028954655
-0.037617423 -0.058006596 -0.044891592 -0.03749681 -0.043078877 -0.033043228 -0.030251127 -0.029163424
-0.037062876 -0.03546789 -0.035541262 -0.041983213 -0.025107877 -0.030195756 -0.020479044 -0.014709297
-0.02570898 -0.014681471 -0.011999465 -0.022981735 -0.022099376 -0.031581532 -0.029700663 -0.041772243
-0.045873802 -0.044965077 -0.05238664 -0.046541803 -0.042004958 -0.040689517 -0.05131501 -0.037173063
-0.029700736 -0.032662045 -0.027530788 -0.024927812 -0.03188218 -0.03664949 -0.023734754 -0.014782257
-0.026853595 -0.018614478 -0.016437327 -0.02469021 -0.030515412 -0.03941812 -0.02899232 -0.043522764
-0.042745292 -0.039071146 -0.038190085 -0.034094874 -0.032408267 -0.04423814 -0.04959888 -0.036399487
-0.022275113 -0.02053477 -0.010892486 -0.020927366 -0.019534567 -0.023475792 -0.026351219 -0.035329945
-0.02197405 -0.019244028 -0.01366262 -0.02738794 -0.034277678 -0.040553942 -0.036337733 -0.032856148
-0.031758185 -0.04191957 -0.038334865 -0.038649447 -0.033927634 -0.031562753 -0.05284174 -0.025784036
-0.032932624 -0.019611828 -0.0073911445 -0.020595908 -0.02150815 -0.018871376 -0.01639548 -0.027105747
-0.023002772 -0.031438757 -0.031209718 -0.030082826 -0.026892066 -0.030331558 -0.021708893 -0.0064730463
00000000: 8909 2bbd a5a6 18bd 9e86 e5bc c35a 7abc
00000010: 5d3e 6cbc 9c1e aabc 7090 a9bc 217f 4cbc
00000020: 3de6 d93b e408 2a3c 1c58 713b b8ca 863a
00000030: 62f4 163c 16ae 7b3b 14bf 5b38 5829 903b
00000040: 409d ecba 4db3 b5b9 c8dd 0abb 80a5 ad3b
00000050: e040 61bc 273c 20bc e4c0 5fbc f112 92bc
00000060: 720c 36bd 8468 19bd 931f f7bc 6b4e 84bc
00000070: ec41 65bc fb7f 87bc 1ff9 30bc 52bb 94bc
00000080: 3efb ebbb 6b0c 0abc 8330 ac3b 4372 85bc
00000090: ae47 7abc 8120 e53b 2394 55bc f49a 56bc
000000a0: 7838 22bc 4a01 e6bb 239e 33bc c1ae b5bc
000000b0: 6b21 b3bc 92a5 ecbc 8b4a 03bd da78 8abc
000000c0: 9772 61bd 0934 26bd 80b8 1abd 7029 f9bc
000000d0: 1609 93bc 0a79 71bc eb7e 3bbc 41d5 ffbc
000000e0: fcfe ecbc 94af d1bc b887 56bc f66d d1bc
000000f0: 85e7 d8bc 787d 7bbb abad 3fbc 680f 85bc
00000100: 4091 9ebc 3987 67bc d4ec bdbc f4fd 02bd
00000110: 3dc2 f6bc 04dc 31bd cf87 fdbc 1ec1 d2bc
00000120: 2bd4 45bd c991 20bd d2c1 f6bc 0840 1cbd
00000130: 8be6 bebc b54d afbc 0592 acbc 90b7 11bd
00000140: c6d8 b2bc c2fd edbc cb3f 12bd cc3e 04bd
00000150: 030a b7bc cfe3 6cbc 1492 90bc c345 72bc
00000160: 899d e7bc ae62 09bd d8c7 f1bc e746 cebc
00000170: 1921 09bd 1f26 33bd 80dc 04bd a7d9 edbc
00000180: a568 32bd 6971 35bd 6e79 0ebd b275 d2bc
00000190: 23fc adbc 9f8c ebbc 3fc8 dabc f5e5 0abd
000001a0: ca96 23bd 3ee1 f7bc be91 febc 05f5 ffbc
000001b0: 264c d5bc 3ef9 74bc 5c64 06bd 6b46 f1bc
000001c0: ecf3 d2bc b39b 04bd 53aa e8bc 4881 fabc
000001d0: f604 e6bc 999c 0bbd 0b02 1bbd 46d1 e8bc
000001e0: 0554 40bd 7878 4cbd c5ea 12bd ade9 2ebd
000001f0: ae8a 0fbd c37d 16bd b24c d0bc 05b3 09bd
00000200: 1b93 14bd c2c4 13bd 6c3c eebc a7af 23bd
00000210: 348a 08bd 3d40 08bd f0d6 04bd d8e6 f4bc
00000220: 50f5 1fbd c046 39bd 1751 15bd c4c1 0dbd
00000230: 8e91 0cbd e01b 0abd 8f3c d4bc ec35 0fbd
00000240: c874 22bd f5af 1dbd 31e0 f8bc 2eb1 16bd
00000250: 269d 15bd b13c 10bd 162c f4bc 9dfc 00bd
00000260: 252f dabc d126 81bc b1e4 38bc dbbc 02bd
00000270: 2d0f 0dbd 6329 1fbd bba2 b4bc 5032 edbc
00000280: ba14 1abd 5398 6dbd 3fe0 37bd 4196 19bd
00000290: 7a73 30bd 5658 07bd 36d1 f7bc 22e8 eebc
000002a0: 3ecf 17bd c746 11bd b793 11bd 97f6 2bbd
000002b0: 09af cdbc 175d f7bc abc3 a7bc 43ff 70bc
000002c0: a49b d2bc 8d8a 70bc 6799 44bc 3144 bcbc
000002d0: c009 b5bc a35b 01bd ce4e f3bc 5f19 2bbd
000002e0: 2be6 3bbd 4d2d 38bd 6093 56bd 9ea2 3ebd
000002f0: 640d 2cbd 0daa 26bd b02f 52bd c842 18bd
00000300: f54e f3bc a3c8 05bd 3f88 e1bc 6935 ccbc
00000310: e496 02bd c71d 16bd 636f c2bc 4831 72bc
00000320: 12fc dbbc 647d 98bc 93a7 86bc 2043 cabc
00000330: 75fb f9bc e574 21bd 4d81 edbc ed44 32bd
00000340: b015 2fbd 1109 20bd 356d 1cbd 11a7 0bbd
00000350: 88be 04bd 0d33 35bd 3228 4bbd a117 15bd
00000360: 4c7a b6bc 8938 a8bc 6676 32bc de6f abbc
00000370: f506 a0bc 4e50 c0bc 83de d7bc 22b6 10bd
00000380: ec02 b4bc a7a5 9dbc 2fd9 5fbc ac5c e0bc
00000390: c066 0cbd e41b 26bd e0d6 14bd 2b94 06bd
000003a0: df14 02bd dbb3 2bbd 0505 1dbd e24e 1ebd
000003b0: b4f7 0abd f247 01bd 9570 58bd 0b39 d3bc
000003c0: 5ce4 06bd fca8 a0bc 6a31 f2bb c0b8 a8bc
000003d0: dc31 b0bc 2598 9abc d04f 86bc df0c debc
000003e0: 4f70 bcbc edc5 00bd 86ab ffbc 4270 f6bc
000003f0: c04c dcbc e379 f8bc d9d6 b1bc d91b d4bb

core.features.layer0.norm.weight f4 [32]
0.65949804 0.61934835 0.9641624 1.1086105 1.4378644 0.8308923 0.5374112 0.91137516
0.5752552 1.5438128 1.3433464 1.4708033 0.6210855 0.7941142 1.7200524 0.5775133
0.8121694 0.814765 0.75685596 0.7297646 0.92691773 0.777809 1.1754496 1.1769617
2.1020615 0.9116719 0.8981348 0.83442885 0.71545583 0.72415113 2.7713964 0.986335
00000000: ddd4 283f 9d8d 1e3f 59d3 763f f3e6 8d3f
00000010: f10b b83f 5cb5 543f c893 093f e24f 693f
00000020: ed43 133f a89b c53f c6f2 ab3f 4843 bc3f
00000030: 76ff 1e3f 114b 4b3f ad2a dc3f e9d7 133f
00000040: 55ea 4f3f 7094 503f 50c1 413f dad1 3a3f
00000050: 7b4a 6d3f 7e1e 473f 2275 963f aea6 963f
00000060: 2d88 0640 5463 693f 2aec 653f 219d 553f
00000070: 1d28 373f f861 393f 8f5e 3140 7380 7c3f

core.features.layer0.norm.bias f4 [32]
-0.2856066 -0.003935438 -0.09142939 0.59700686 0.9216618 -0.82098347 -0.111189716 -0.32250556
0.25055572 -0.00055617036 -0.41007885 -0.28037858 -0.14335683 0.26992667 0.09298371 -0.10409504
-1.0414283 -0.030107444 -0.17922905 0.21732633 -0.008705695 -1.1048439 0.1089115 -0.38316423
-1.0056618 -0.58547837 0.10545082 0.22651742 0.1048334 -0.2682921 -1.5799713 -0.15114829
00000000: 073b 92be d9f4 80bb 553f bbbd 71d5 183f
00000010: 07f2 6b3f f92b 52bf 6fb7 e3bd 731f a5be
00000020: d748 803e f6cb 11ba dbf5 d1be c88d 8fbe
00000030: 22cc 12be d433 8a3e 3e6e be3d c82f d5bd
00000040: 864d 85bf e3a3 f6bc d287 37be cb8a 5e3e
00000050: 55a2 0ebc 866b 8dbf fe0c df3d 1a2e c4be
00000060: 87b9 80bf e9e1 15bf 99f6 d73d 2ff4 673e
00000070: e5b2 d63d 955d 89be 803c cabf 9ec6 1abe

core.features.layer0.norm.running_mean f4 [32]
-0.35014412 -0.008037499 -0.06424836 0.003696262 0.4391013 0.19094823 0.13095221 0.6519632
0.20948695 0.05236534 -0.16491461 -0.48261696 0.23903379 0.2535 -0.011438031 0.13906313
-0.47189286 0.8511281 -0.0680609 0.05991153 1.3253242 -0.6265045 -0.87513965 0.8157231
-0.046995167 -0.35795093 -0.19316325 0.685862 0.5174886 -0.32799858 -0.009467928 0.54470944
00000000: 1746 b3be b7af 03bc a594 83bd fc3c 723b
00000010: e3d1 e03e ef87 433e 5618 063e 0fe7 263f
00000020: bf83 563e 0a7d 563d 60df 28be 9219 f7be
00000030: 46c5 743e c1ca 813e 9466 3bbc 9166 0e3e
00000040: f19b f1be 88e3 593f 8363 8bbd cb65 753d
00000050: 39a4 a93f 9962 20bf 2709 60bf 3bd3 503f
00000060: 017e 40bd 5845 b7be 96cc 45be a794 2f3f
00000070: 227a 043f 6eef a7be 5e1f 1bbc 1472 0b3f

core.features.layer0.norm.running_var f4 [32]
124.51243 234.00354 79.13156 18.717672 265.3651 301.3188 134.84058 206.11876
76.326355 38.06384 37.375744 145.66429 37.48581 198.4953 10.531308 94.887665
261.20972 205.8336 172.42265 152.67604 302.53717 491.8785 206.40598 375.00336
28.445587 191.96399 299.5627 160.64932 130.31088 111.244156 11.989072 344.96936
00000000: 5d06 f942 e800 6a43 5c43 9e42 cbbd 9541
00000010: bcae 8443 cea8 9643 30d7 0643 671e 4e43
00000020: 18a7 9842 5f41 1842 c380 1542 0faa 1143
00000030: 78f1 1542 cc7e 4643 3d80 2841 7cc6 bd42
00000040: d89a 8243 67d5 4d43 336c 2c43 11ad 1843
00000050: c244 9743 73f0 f543 ee67 4e43 6e80 bb43
00000060: 9090 e341 c8f6 3f43 07c8 9543 3aa6 2043
00000070: 964f 0243 027d de42 3dd3 3f41 147c ac43

core.features.layer1.ds_conv.in_depth_conv.weight f4 [32, 32, 1, 1]
0.1798582 -0.032413654 0.41425037 0.2139992 0.09493938 -0.0019289321 0.11844638 -0.013072477
0.12787144 -0.023289388 0.18487619 0.319218 -0.15913591 0.007842296 -0.34728253 -0.016631393
0.20102865 0.098232895 0.07883277 0.07359497 -0.01792448 0.2573556 0.5067951 0.1285929
-0.38782007 -0.03371761 -0.15375407 -0.20221345 -0.059206866 0.10288045 0.28013116 0.47033605
0.119641274 -0.06974802 0.074811734 0.14641513 -0.22468635 -0.10477236 0.029204868 0.22522064
-0.042876102 0.32470384 -0.24358808 -0.19546774 -0.07716777 -0.12898904 -0.004443942 0.13906008
0.3755202 -0.2831889 -0.20567843 -0.017203491 -0.27684394 -0.059261978 -0.34369457 0.17012735
0.13289489 0.007039432 -0.009127751 0.13642776 0.16674954 -0.20118164 -0.0013991577 -0.34484312
0.09608254 0.13206266 0.17697003 -0.03065225 0.073576525 0.06964012 0.0072308085 -0.013354087
-0.13466623 0.3526279 0.17454208 0.27843297 0.15350762 -0.0013509872 0.07157285 -0.06455162
0.32737616 0.12595248 -0.13539602 0.04469613 0.18905282 0.022948993 -0.06877024 0.6357476
-0.07137292 0.074635535 0.22261478 0.22588311 -0.084960416 0.109667495 -0.4453322 -0.020176014
-0.23526357 -0.32069123 -0.12724796 0.043841593 -0.054228414 -0.12402331 0.050473716 0.038291372
-0.07913865 -0.041070122 0.05032238 0.4086408 0.27766407 0.111480206 0.06810928 0.09880242
-0.11451389 0.09826466 -0.23534112 -0.0052365814 -0.15452927 0.14411226 0.022462381 -0.10499618
0.0040461095 0.0541505 -0.1961101 -0.3198651 -0.11901779 -0.13501747 -0.64232844 -0.059826005
0.090064794 0.23372407 0.4475594 0.066353574 -0.40769657 0.025113199 0.22067502 0.6082831
-0.050634958 0.3694415 -0.108639754 -0.20926015 -0.21820739 0.2539236 -0.29192534 0.25225222
-0.09340156 -0.16879664 -0.04164986 0.17471282 0.43680617 0.028722387 -0.20138142 0.04500629
0.121884376 0.06660237 0.6327127 -0.5698978 -0.121894926 0.041010335 0.15173672 0.13356154
0.16123001 -0.06547511 0.020678 0.14606509 0.06694165 -0.12277312 0.11024961 0.18273099
0.15269716 0.057951555 0.051374014 0.3698891 -0.12113304 -0.16721062 0.08168955 0.10981222
-0.2875965 0.1903865 -0.11219361 0.027809292 -0.3727737 0.014819216 -0.008985587 -0.41469082
-0.082680665 0.28626403 0.05539306 -0.19512129 -0.12814958 -0.24865766 -0.03727493 0.22189513
0.08165233 -0.31774372 0.04596134 -0.019086318 -0.09300295 0.17542587 0.3373008 0.17397942
-0.047231484 -0.05461816 -0.5005004 -0.14369865 -0.1267644 -0.026731567 -0.35412982 0.12932119
-0.17227653 -0.12161468 -0.25466618 -0.02490416 0.27628556 0.07785051 -0.47634882 0.22558714
-0.019974738 0.18801169 0.25504953 -0.23563322 -0.16938773 0.023897022 0.12344468 0.027243158
-0.009321633 -0.07654089 0.20850992 -0.16602303 -0.023124147 -0.2989684 0.10001804 0.0617918
-0.21836844 0.6104055 0.17014265 -0.1547676 -0.011269296 -0.08408136 -0.2635414 0.07668875
0.19024205 0.21307439 -0.2142242 0.042524144 0.042990897 -0.19798826 0.12075611 0.12253092
-0.022884361 -0.11492619 -0.16288024 -0.21417782 0.038889658 -0.1490126 -0.42774612 0.106682695
00000000: bf2c 383e 2ec4 04bd a018 d43e 9b22 5b3e
00000010: 946f c23d 39d4 fcba 0494 f23d f12d 56bc
00000020: bbf0 023e 63c9 bebc 2f50 3d3e 8b70 a33e
00000030: 86f4 22be f97c 003c 04cf b1be 8f3e 88bc
00000040: 74da 4d3e 542e c93d 1373 a13d f6b8 963d
00000050: 5cd6 92bc 1dc4 833e 53bd 013f dbad 033e
00000060: 5a90 c6be 7a1b 0abd b571 1dbe 0b11 4fbe
00000070: e682 72bd fcb2 d23d 5a6d 8f3e e3cf f03e
00000080: 7c06 f53d 0dd8 8ebd e536 993d d9ed 153e
00000090: 2e14 66be e492 d6bd 0c3f ef3c 3da0 663e
000000a0: da9e 2fbd 953f a63e 276f 79be b228 48be
000000b0: 230a 9ebd b415 04be 7d9e 91bb c465 0e3e
000000c0: 2f44 c03e 23fe 90be 5e9d 52be 56ee 8cbc
000000d0: 7dbe 8dbe b0bc 72bd bcf8 afbe dd35 2e3e
000000e0: 9915 083e 09ab e63b 908c 15bc b8b3 0b3e
000000f0: 64c0 2a3e 8f02 4ebe f163 b7ba 478f b0be
00000100: ecc6 c43d 6f3b 073e a237 353e 6d1a fbbc
00000110: 4aaf 963d 7b9f 8e3d 6bf0 ec3b 1acb 5abc
00000120: f2e5 09be a58b b43e 29bb 323e c48e 8e3e
00000130: 1a31 1d3e 9c13 b1ba c994 923d a433 84bd
00000140: d99d a73e b0f9 003e 41a5 0abe 4a13 373d
00000150: 1097 413e 87ff bb3c 69d7 8cbd 5bc0 223f
00000160: f72b 92bd 84da 983d 21f5 633e e74d 673e
00000170: baff adbd 5a99 e03d 9502 e4be 2b48 a5bc
00000180: efe8 70be a431 a4be 4a4d 02be 3e93 333d
00000190: 9d1e 5ebd efff fdbd 87bd 4e3d 6ad7 1c3d
000001a0: 7213 a2bd 2539 28bd d71e 4e3d 5e39 d13e
000001b0: fc29 8e3e bc4f e43d e17c 8b3d ec58 ca3d
000001c0: 4286 eabd fb3e c93d 43fd 70be a197 abbb
000001d0: ec3c 1ebe 2a92 133e 0703 b83c 3d08 d7bd
000001e0: 3a95 843b eacc 5d3d 16d1 48be 5cc5 a3be
000001f0: 99bf f3bd 0542 0abe a36f 24bf 1d0c 75bd
00000200: e473 b83d 5d55 6f3e 8126 e53e 62e4 873d
00000210: 9bbd d0be 32ba cd3c a2f8 613e 71b8 1b3f
00000220: 9a66 4fbd 7027 bd3e 857e debd 4b48 56be
00000230: c271 5fbe 4602 823e 3d77 95be 3427 813e
00000240: 5149 bfbd 07d9 2cbe 0b99 2abd ebe7 323e
00000250: 0fa5 df3e 364b eb3c ee36 4ebe 8458 383d
00000260: 849e f93d d366 883d 76f9 213f d2e4 11bf
00000270: 0ca4 f9bd 74fa 273d df60 1b3e 5bc4 083e
00000280: 7b19 253e d117 86bd e964 a93c 1692 153e
00000290: b418 893d 7970 fbbd 8cca e13d d51d 3b3e
000002a0: a55c 1c3e 9c5e 6d3d 8f6d 523d 1b62 bd3e
000002b0: 9914 f8bd 4339 2bbe da4c a73d 3be5 e03d
000002c0: d93f 93be aef4 423e c3c5 e5bd 50d0 e33c
000002d0: 32dc bebe 4ccc 723c 4938 13bc 5b52 d4be
000002e0: 7b54 a9bd 3391 923e d5e3 623d e0cd 47be
000002f0: a539 03be 1da0 7ebe 99ad 18bd 7a38 633e
00000300: 5639 a73d 4eaf a2be f541 3c3d e95a 9cbc
00000310: 5578 bebd d7a2 333e b1b2 ac3e a927 323e
00000320: cd75 41bd 4bb7 5fbd cb20 00bf bd25 13be
00000330: 87ce 01be 29fc dabc 8150 b5be c66c 043e
00000340: 4269 30be 1e11 f9bd 9b63 82be cf03 ccbc
00000350: 4d75 8d3e 1770 9f3d fee3 f3be 5100 673e
00000360: 10a2 a3bc 2386 403e da95 823e d649 71be
00000370: fa73 2dbe b0c3 c33c 90d0 fc3d 0b2d df3c
00000380: c3b9 18bc 78c1 9cbd a083 553e f101 2abe
00000390: da6e bdbc 6312 99be 42d6 cc3d 6619 7d3d
000003a0: fa9b 5fbe 8943 1c3f e039 2e3e 667b 1ebe
000003b0: daa2 38bc d932 acbd e6ee 86be fe0e 9d3d
000003c0: d0ce 423e 2c30 5a3e 975d 5bbe cc2d 2e3d
000003d0: 3917 303d 6fbd 4abe fb4e f73d 7ef1 fa3d
000003e0: fc77 bbbc 6c5e ebbd 14ca 26be 6e51 5bbe
000003f0: c34a 1f3d c296 18be 8a01 dbbe 757c da3d

core.features.layer1.ds_conv.spatial_conv.weight f4 [32, 1, 9, 9]
0.016830966 0.059161145 0.11807748 0.11003178 0.08514568 -0.028440783 -0.028220875 0.19094884
0.041392535 0.05139237 0.032881882 -0.010751784 -0.041309062 -0.093902 -0.09390182 0.08422451
0.094725505 -0.18145895 0.2110702 0.14970502 0.03130352 -0.07913639 -0.11928117 0.0760909
0.23261203 0.14725353 -0.075885475 0.14724508 0.0946903 -0.0028132133 -0.06681232 -0.0051880693
0.08746539 0.15208952 0.06515452 -0.04931054 0.09711651 -0.044361375 -0.065476656 0.059051152
0.16435108 0.2048002 0.09806364 -0.031822283 -0.02421971 0.19037172 0.026125526 0.087730534
0.2522461 0.32020992 0.18556008 0.06273173 -0.020382263 -0.11990585 0.15473719 -0.060203515
0.056199465 0.32876748 0.26796246 0.019647844 -0.13080883 -0.124796115 -0.16428456 0.003048804
-0.06165721 0.010465822 0.14152925 0.116505764 -0.10986442 -0.17078464 -0.122011736 -0.15431167
-0.0054547777 -0.15169537 -0.14460365 -0.013641557 -0.09957127 -0.19333604 -0.14144075 -0.06239159
-0.19644243 -0.117949314 -0.07734406 -0.05139653 -0.020893715 0.025043033 0.013052513 0.03723298
0.16060378 0.23743682 -0.1683558 -0.08430225 -0.07701905 -0.11492046 -0.064844124 0.02198157
0.11163679 0.23717868 0.32043314 -0.1403359 -0.040631615 -0.16593441 -0.13121586 -0.09383746
-0.06071457 0.099191226 0.15529037 0.2653566 -0.13360667 -0.056705374 -0.08855382 0.027685696
0.09072606 0.06585246 0.06787049 0.10810408 0.104410015 0.021259645 0.06977607 0.039536733
0.07723961 0.1914537 0.12950449 0.048273005 0.009584396 -0.07931076 0.053808145 0.09996135
0.09853755 0.09944645 0.07381289 0.030017043 -0.0008564833 -0.090356 -0.1401421 0.08881217
0.09040166 0.0913874 0.028376818 0.06977358 -0.009529697 -0.036156166 -0.15075207 -0.20889814
0.091317624 0.11433353 0.07337439 0.06584098 -0.012091899 0.0063948827 -0.06789305 -0.10730232
-0.115414135 0.20221168 0.17483878 0.12736972 0.041273683 0.09855283 0.013150043 -0.04489437
0.012832245 0.05872412 0.047147676 0.0032695413 0.025596749 0.043103598 0.044225875 -0.014748453
-0.11463966 -0.13036437 -0.16952236 -0.03381437 -0.06949026 -0.03214665 0.06391839 0.09874727
0.02286726 -0.009224428 -0.06774415 -0.091466 -0.03240981 -0.032128975 0.07976239 0.053873744
0.07032632 -0.06321608 -0.045298804 -0.017322782 -0.05318449 -0.041035563 -0.06496392 -0.006765319
0.020200467 0.029865408 0.016628109 -0.024723202 -0.014010285 -0.04883244 -0.020614319 -0.016376346
-0.029793983 -0.010978621 -0.07481815 -0.023709578 -0.03639047 -0.045490135 -0.09032563 -0.13817981
-0.1087353 -0.08098294 -0.060985837 -0.04245133 -0.04383535 -0.022607107 -0.06403622 -0.12318299
-0.123475604 -0.08108942 -0.057891488 -0.06751131 -0.01452872 0.060280453 0.028167518 -0.04130766
-0.11963927 -0.13776438 -0.04679701 -0.0025535913 0.07378454 0.06886491 0.07894971 0.052831173
-0.031330206 -0.24285756 -0.14080131 -0.13061675 -0.11362941 -0.068805106 -0.06308036 -0.04249275
-0.059155907 -0.12636052 -0.28403783 -0.33884174 -0.27852675 -0.07871228 0.050924744 0.12906529
0.08504122 0.026706252 0.047313724 0.1369944 -0.087899365 -0.05937178 0.048751857 0.17962581
00000000: 18e1 893c f552 723d 9bd2 f13d 5858 e13d
00000010: dc60 ae3d a5fc e8bc 772f e7bc 1888 433e
00000020: 388b 293d ce80 523d 27af 063d 4028 30bc
00000030: b133 29bd b14f c0bd 994f c0bd e67d ac3d
00000040: 72ff c13d 60d0 39be c922 583e 464c 193e
00000050: 1f38 003d 4212 a2bd b049 f4bd 8cd5 9b3d
00000060: d931 6e3e a1c9 163e d869 9bbd 6ac7 163e
00000070: fdec c13d e35d 38bb e6d4 88bd ae00 aabb
00000080: 0e21 b33d 5bbd 1b3e bc6f 853d d9f9 49bd
00000090: 05e5 c63d 46b4 35bd a018 86bd 9fdf 713d
000000a0: a64b 283e 25b7 513e 97d5 c83d 1558 02bd
000000b0: 6a68 c6bc cef0 423e 3305 d63c 11ac b33d
000000c0: 6726 813e 8ef2 a33e 7603 3e3e 7e79 803d
000000d0: b4f8 a6bc 3391 f5bd 6d73 1e3e f697 76bd
000000e0: 6931 663d 3654 a83e 6032 893e 84f4 a03c
000000f0: c0f2 05be 1b95 ffbd 363a 28be 71ce 473b
00000100: 458c 7cbd d778 2b3c 0bed 103e 939a ee3d
00000110: 9900 e1bd 2be2 2ebe 4ae1 f9bd e103 1ebe
00000120: febd b2bb 0856 1bbe fb12 14be d680 5fbc
00000130: 06ec cbbd e2f9 45be d8d5 10be 538e 7fbd
00000140: 3428 49be 698f f1bd 9066 9ebd 2b85 52bd
00000150: 4c29 abbc 0c27 cd3c 35da 553c 9c81 183d
00000160: 5175 243e a322 733e 7665 2cbe a8a6 acbd
00000170: 2abc 9dbd 6b5b ebbd ffcc 84bd b212 b43c
00000180: d4a1 e43d f8de 723e d00f a43e 37b4 0fbe
00000190: 566d 26bd b6ea 29be 735d 06be db2d c0bd
000001a0: d7af 78bd c524 cb3d 7004 1f3e d2dc 873e
000001b0: 30d0 08be e543 68bd b55b b5bd 1dcd e23c
000001c0: 96ce b93d a8dd 863d afff 8a3d ac65 dd3d
000001d0: ebd4 d53d b528 ae3c c2e6 8e3d 45f1 213d
000001e0: cd2f 9e3d 700c 443e d39c 043e eab9 453d
000001f0: df07 1d3c ae6d a2bd ee65 5c3d 89b8 cc3d
00000200: 0ece c93d 95aa cb3d 362b 973d 4de6 f53c
00000210: 9f85 60ba 910c b9bd 6981 0fbe 28e3 b53d
00000220: 8124 b93d 5129 bb3d 8076 e83c 73e5 8e3d
00000230: 7222 1cbc 7d18 14bd c05e 1abe 65e9 55be
00000240: bc04 bb3d b327 ea3d 5045 963d a3d7 863d
00000250: 1a1d 46bc 2a8c d13b 830b 8bbd 52c1 dbbd
00000260: 3f5e ecbd 9410 4f3e f008 333e 356d 023e
00000270: 980e 293d 11d6 c93d 4773 573c 29e3 37bd
00000280: 563e 523c b488 703d ec1d 413d cd45 563b
00000290: 46b0 d13c 668d 303d 3126 353d 7fa3 71bc
000002a0: 33c8 eabd 3d7e 05be 4597 2dbe f080 0abd
000002b0: e950 8ebd 35ac 03bd a5e7 823d 023c ca3d
000002c0: 1f54 bb3c 0e22 17bc 72bd 8abd 8752 bbbd
000002d0: 26c0 04bd ac99 03bd 775a a33d b7aa 5c3d
000002e0: 3f07 903d 6f77 81bd 3d8b 39bd 82e8 8dbc
000002f0: fbd7 59bd e814 28bd ce0b 85bd 9caf ddbb
00000300: 737b a53c 4da8 f43c ac37 883c 5088 cabc
00000310: 658b 65bc 8604 48bd 5cdf a8bc b027 86bc
00000320: 8312 f4bc addf 33bc 423a 99bd 973a c2bc
00000330: 2c0e 15bd dd53 3abd a5fc b8bd 027f 0dbe
00000340: 9db0 debd 62da a5bd 49cc 79bd 72e1 2dbd
00000350: b28c 33bd 8a32 b9bc 6c25 83bd 5d47 fcbd
00000360: c7e0 fcbd 3612 a6bd a01f 6dbd 5f43 8abd
00000370: de09 6ebc a3e8 763d 91bf e63c 3932 29bd
00000380: 6f05 f5bd 1b12 0dbe 39ae 3fbd 275a 27bb
00000390: 591c 973d 0c09 8d3d 63b0 a13d 8065 583d
000003a0: 1a54 00bd a7af 78be 382e 10be 66c0 05be
000003b0: 89b6 e8bd b1e9 8cbd 4730 81bd e10c 2ebd
000003c0: 774d 72bd a764 01be 686d 91be aa7c adbe
000003d0: 0f9b 8ebe e733 a1bd 7796 503d b129 043e
000003e0: 172a ae3d 12c7 da3c 09cc 413d 4348 0c3e
000003f0: 9504 b4bd d32f 73bd 07b0 473d d4ef 373e

core.features.layer1.ds_conv.out_depth_conv.weight f4 [32, 32, 1, 1]
-0.19538054 0.21203567 -0.071233265 0.37477878 0.28760737 0.05301497 0.15769115 0.09717384
0.0935511 -0.07685168 -0.0133398445 -0.06880685 0.117567286 0.08879289 0.27087796 0.12544885
0.15946594 -0.32398257 0.35610524 -0.41943228 0.34146246 0.13776484 -0.061239682 0.14147307
-0.025459332 0.3092663 -0.25058785 0.20593803 0.28057382 0.34101638 0.028889107 0.60785925
0.10919615 0.17932872 -0.048805136 0.085533015 -0.23993492 0.054934423 0.122443035 0.026276631
0.06590526 -1.0075607 -0.1052652 -0.009695902 -0.015985817 -0.7367986 -0.0012462647 -0.12196144
-0.085161686 -0.051454876 0.27975556 -0.033913773 -0.16475534 0.51931506 -0.90339816 -0.14447172
0.014208926 0.08416716 -0.008980864 -0.06503752 0.06977753 -0.17060466 -0.12507966 -0.11525573
-0.01048779 -0.003129951 0.01578296 0.0074137948 0.15935047 -0.17758211 0.13670412 0.41833916
0.17571726 0.10745261 -0.19233096 0.1838041 -0.4621269 0.18534712 0.4252675 0.54467154
0.12695941 0.30688012 -0.05769114 0.034435265 0.33502516 0.31063917 0.3771829 -0.02104031
-0.37835902 0.22211675 -0.3337445 -0.35438287 -0.7605401 0.085825674 0.8233159 0.19364798
0.10524357 -0.183191 -0.43973777 -0.09495298 -0.46074024 -0.5807819 0.15863329 -0.18334746
0.6236223 0.0008100165 -0.34018487 -0.058363557 -0.117027454 -0.15860374 -0.25101474 0.31475216
-0.26386845 0.0759092 -0.0630735 0.22151844 -0.1388622 -0.10535258 0.38797545 -0.08492362
0.4977499 -0.27836907 -0.13786013 0.0471946 0.163778 0.07473788 -0.25459388 -0.21938236
0.3739572 -0.14398976 0.11924987 0.19500741 -0.64024866 0.26368892 -0.37088692 0.3134401
0.2633142 0.5438292 -0.19653046 -0.27858597 0.12230224 -0.353611 0.23778339 0.2946039
0.09043513 0.39834553 0.07893832 0.09687386 -0.22128005 0.43182227 -0.23254952 0.074703164
-0.052358933 -0.18878579 -0.35417783 -0.351141 -0.0739736 -0.25067392 0.17029113 0.43513352
0.15579319 -0.08998686 0.18934385 0.18393323 0.040775158 0.21622717 0.21093407 0.12580271
-0.18487847 0.31165197 0.16134326 -0.30945748 -0.40730232 -0.1181259 0.16997136 -0.028177148
0.19164075 -0.09887817 0.23393084 -0.28421935 0.44329736 -0.12448127 0.3773527 -0.2814048
-0.091040894 0.1037644 0.22864866 -0.58572763 0.045494884 -0.038819764 0.2278007 0.32326788
0.18209682 -0.1875132 0.010173169 0.09452642 0.28515473 0.2849519 -0.13153078 -0.0041764714
0.041964218 -0.0807815 0.04614732 0.12344532 -0.316859 0.148945 0.026852386 0.67438835
0.0192008 -0.39751038 -0.048188664 -0.13021977 0.13373782 0.12543607 0.12657687 0.2772424
-0.22960056 0.24281639 0.07418226 0.16593511 0.14333554 0.07066096 0.20358908 0.05385482
0.11509903 0.04300268 -0.033582702 -0.075148314 0.0029785025 -0.28637898 0.3078175 -0.38773558
-0.12534487 0.18500948 -0.0854308 -0.06205432 -0.19056045 -0.42830393 0.47658387 -0.060540576
-0.029301839 0.13956964 0.11426116 -0.062217746 -0.27555203 0.014494748 -0.24944372 0.05142323
0.3358419 -0.09534199 -0.09422261 -0.07280264 0.31028813 -0.1640868 -0.50729394 0.18424308
00000000: d611 48be e11f 593e bfe2 91bd 01e3 bf3e
00000010: 4641 933e 3a26 593d ca79 213e 1403 c73d
00000020: b897 bf3d 6a64 9dbd 5d8f 5abc 9bea 8cbd
00000030: 1ec7 f03d 0cd9 b53d 84b0 8a3e aa75 003e
00000040: 0a4b 233e 0be1 a5be 6d53 b63e d4bf d6be
00000050: 2bd4 ae3e 3a12 0d3e 76d6 7abd 51de 103e
00000060: 1790 d0bc 2758 9e3e 0d4d 80be 6be1 523e
00000070: 5fa7 8f3e b399 ae3e d9a8 ec3c aa9c 1b3f
00000080: 3ba2 df3d f3a1 373e e5e7 47bd ef2b af3d
00000090: 80b1 75be eb02 613d 6ac3 fa3d 1742 d73c
000000a0: 56f9 863d c0f7 80bf 4895 d7bd 8fdb 1ebc
000000b0: b0f4 82bc d59e 3cbf b459 a3ba ebc6 f9bd
000000c0: 4069 aebd 59c2 52bd 1f3c 8f3e 2be9 0abd
000000d0: a0b5 28be d5f1 043f 1a45 67bf 65f0 13be
000000e0: 8ecc 683c d55f ac3d 7924 13bc 6432 85bd
000000f0: 86e7 8e3d fdb2 2ebe e214 00be 320b ecbd
00000100: fbd4 2bbc dd1f 4dbb 444b 813c 6bef f23b
00000110: c52c 233e 16d8 35be 2afc 0b3e 8d30 d63e
00000120: 3aef 333e 1d10 dc3d 68f2 44be 2437 3c3e
00000130: e69b ecbe a3cb 3d3e a9bc d93e 986f 0b3f
00000140: a601 023e 641f 9d3e 8b4d 6cbd fe0b 0d3d
00000150: 6b88 ab3e 190c 9f3e 1e1e c13e ba5c acbc
00000160: 46b8 c1be 9372 633e 8fe0 aabe ac71 b5be
00000170: c2b2 42bf 5fc5 af3d d5c4 523f a84b 463e
00000180: f189 d73d 6c96 3bbe 4f25 e1be b576 c2bd
00000190: 25e6 ebbe 1fae 14bf c470 223e 70bf 3bbe
000001a0: b6a5 1f3f 4a57 543a b62c aebe a00e 6fbd
000001b0: 17ac efbd 0569 22be 0185 80be 3227 a13e
000001c0: c419 87be 4876 9b3d ae2c 81bd bbd5 623e
000001d0: e431 0ebe 18c3 d7bd b8a4 c63e 6fec adbd
000001e0: 13d9 fe3e 6486 8ebe 352b 0dbe 204f 413d
000001f0: 6cb5 273e 2c10 993d 215a 82be c5a5 60be
00000200: 5177 bf3e 0d72 13be 4739 f43d 06b0 473e
00000210: 56e7 23bf 3c02 873e e4e4 bdbe 397b a03e
00000220: 1ed1 863e 6438 0b3f 483f 49be d2a2 8ebe
00000230: 9979 fa3d 800c b5be 7d7d 733e 53d6 963e
00000240: 0e36 b93d f2f3 cb3e 6aaa a13d cd65 c63d
00000250: 3d97 62be cf17 dd3e 7621 6ebe f9fd 983d
00000260: 5276 56bd 1051 41be cc56 b5be c1c8 b3be
00000270: 797f 97bd 5558 80be cc60 2e3e d2c9 de3e
00000280: 4088 1f3e 084b b8bd 5be3 413e fe58 3c3e
00000290: da03 273d a86a 5d3e 1aff 573e 6dd2 003e
000002a0: c850 3dbe d990 9f3e 2b37 253e 3671 9ebe
000002b0: ee89 d0be feeb f1bd f90c 2e3e c3d3 e6bc
000002c0: 793d 443e a380 cabd 918b 6f3e 3385 91be
000002d0: dff7 e23e 09f0 febd 6034 c13e 4a14 90be
000002e0: a673 babd 6e82 d43d e022 6a3e 3ff2 15bf
000002f0: d858 3a3d 7901 1fbd 9644 693e 5e83 a53e
00000300: 9777 3a3e 7603 40be 5dad 263c 1197 c13d
00000310: cdff 913e 37e5 913e 01b0 06be c8da 88bb
00000320: ace2 2b3d c570 a5bd f904 3d3d e6d0 fc3d
00000330: 583b a2be 0a85 183e 89f9 db3c b7a4 2c3f
00000340: ff4a 9d3c 7b86 cbbe 7a61 45bd 5558 05be
00000350: 91f2 083e 5072 003e 5e9d 013e b7f2 8d3e
00000360: 691c 6bbe dca4 783e deec 973d e5ea 293e
00000370: 8dc6 123e b2b6 903d a879 503e df96 5c3d
00000380: 0ab9 eb3d 9423 303d 048e 09bd 5ce7 99bd
00000390: fb32 433b 44a0 92be 419a 9d3e 4785 c6be
000003a0: 685a 00be 2073 3d3e 58f6 aebd ac2c 7ebd
000003b0: 4722 43be a74a dbbe cd02 f43e 65f9 77bd
000003c0: 690a f0bc 58eb 0e3e c101 ea3d 09d8 7ebd
000003d0: 2815 8dbe 617b 6d3c 2d6e 7fbe 2aa1 523d
000003e0: 78f3 ab3e a942 c3bd c9f7 c0bd 8d19 95bd
000003f0: 16de 9e3e 5f06 28be 04de 01bf 38aa 3c3e

core.features.layer1.norm.weight f4 [32]
0.95756006 2.0563812 1.5300415 0.9434914 0.84330225 0.88838756 0.71180284 1.2057304
2.439197 1.211025 0.96867335 0.9494897 0.8694013 0.904979 1.2932264 1.375341
0.8773733 0.8193499 0.8125048 0.73347044 0.95698684 1.6720552 0.6475317 0.7856872
1.8429208 2.3701935 0.8108946 1.430101 2.8103456 1.382275 1.5694413 0.9768774
00000000: a822 753f c09b 0340 66d8 c33f a788 713f
00000010: a8e2 573f 5e6d 633f b638 363f 6055 9a3f
00000020: ce1b 1c40 de02 9b3f fafa 773f c211 733f
00000030: 1591 5e3f b4ac 673f 7188 a53f 2d0b b03f
00000040: 899b 603f eac0 513f 5100 503f b8c4 3b3f
00000050: 17fd 743f e805 d63f a3c4 253f cc22 493f
00000060: d4e4 eb3f 40b1 1740 ca96 4f3f 8d0d b73f
00000070: b4dc 3340 63ee b03f 74e3 c83f a314 7a3f

core.features.layer1.norm.bias f4 [32]
-0.5060659 -0.40768394 -0.9600021 -0.31118143 0.20765689 -0.51556253 -1.4035897 -0.4077473
-0.51117784 0.57207966 -0.3346801 -0.55345917 -0.78572047 -0.6877654 -0.2498957 -0.51411617
-0.6569777 -0.7710595 -0.12124381 -0.025972942 -0.64892584 -0.35197985 -0.23253426 -0.37666827
-0.9786545 -0.98954344 -0.47698933 0.05568718 -0.8789127 0.14175718 -0.9873679 -0.041186944
00000000: 898d 01bf f3bb d0be b3c2 75bf 2c53 9fbe
00000010: 02a4 543e e8fb 03bf d4a8 b3bf 41c4 d0be
00000020: 8ddc 02bf d073 123f 315b abbe 80af 0dbf
00000030: fa24 49bf 6511 30bf a9e4 7fbe 1e9d 03bf
00000040: b12f 28bf 2864 45bf ad4e f8bd 35c5 d4bc
00000050: 0120 26bf b436 b4be 761d 6ebe aada c0be
00000060: 1a89 7abf b852 7dbf f237 f4be 3e18 643d
00000070: 6c00 61bf cb28 113e 25c4 7cbf a4b3 28bd

core.features.layer1.norm.running_mean f4 [32]
-1.9874246 -0.76910305 -1.8065445 -0.26681653 1.2547021 -1.6115829 -2.0424736 -1.043213
-0.0069093397 0.56151783 -0.88571066 -0.33148423 -2.2134352 -2.3346226 -0.38973522 -1.9591323
-2.2336912 -1.1390122 -3.21076 -1.5561426 -1.6696523 0.5884595 -0.785861 1.7230123
-3.4990273 -0.9176487 -0.30066225 -0.8043159 -1.799241 1.3514891 -0.55627966 -2.281172
00000000: ee63 febf f0e3 44bf da3c e7bf 2d9c 88be
00000010: 149a a03f 5948 cebf e3b7 02c0 0188 85bf
00000020: be67 e2bb a2bf 0f3f efbd 62bf 4db8 a9be
00000030: eca8 0dc0 756a 15c0 608b c7be d9c4 fabf
00000040: ccf4 0ec0 27cb 91bf 187d 4dc0 ae2f c7bf
00000050: 2bb7 d5bf 48a5 163f 302e 49bf ab8b dc3f
00000060: 10f0 5fc0 06eb 6abf 67f0 99be a6e7 4dbf
00000070: 874d e6bf 98fd ac3f 5868 0ebf b9fe 11c0

core.features.layer1.norm.running_var f4 [32]
14.545206 66.25275 54.003433 22.765816 24.296797 17.483667 11.508476 30.81196
90.47127 55.505856 13.221466 14.086759 19.088171 26.663568 50.169308 35.8655
16.963577 23.43073 16.4302 22.572927 18.169252 72.80892 15.04947 18.970062
63.867527 101.92866 17.677399 37.54971 94.01137 64.30973 36.493263 33.04384
00000000: 2ab9 6841 6881 8442 8403 5842 6420 b641
00000010: d75f c241 8dde 8b41 b822 3841 e57e f641
00000020: 4af1 b442 ff05 5e42 208b 5341 5d63 6141
00000030: 93b4 9841 fd4e d541 5fad 4842 4676 0f42
00000040: 68b5 8741 2372 bb41 0d71 8341 5b95 b441
00000050: a15a 9141 2b9e 9142 a1ca 7041 b0c2 9741
00000060: 5978 7f42 79db cb42 506b 8d41 e732 1642
00000070: d205 bc42 959e 8042 1af9 1142 e42c 0442

core.features.layer1.seg_ex_block.se.1.weight f4 [2, 32]
0.2143147 0.09764794 -0.15981948 -0.4299423 -0.40942958 0.25914073 0.081040606 -0.3475376
-0.055333942 0.057175692 -0.27402306 -0.25003147 -0.036298152 0.030601311 -0.5722053 -0.41061208
0.44418466 0.27897993 -0.013943505 0.104356155 0.15983386 -0.61619943 0.2300229 0.034969356
-0.32182378 -0.4251275 -0.10281876 -0.09790819 -0.40066007 -0.57736564 -0.5049716 0.15238403
-0.06568238 0.12403091 -0.27479124 0.3943611 -0.13064136 0.040050622 -0.057119887 0.31360102
0.3232733 -0.026623331 -0.1808882 0.003360067 -0.31526178 -0.19882041 -0.0945616 -0.062259883
0.23368403 -0.42711574 0.18380289 0.12747884 -0.15901403 0.108792774 -0.3453322 -0.15242209
0.05948585 0.17671555 -0.00469959 0.008849168 0.025452372 0.19774884 0.39145505 -0.06949945
00000000: 5075 5b3e a5fb c73d b8a7 23be 6621 dcbe
00000010: c1a0 d1be 18ae 843e 9ef8 a53d 73f0 b1be
00000020: d8a5 62bd 0f31 6a3d c04c 8cbe 2004 80be
00000030: 5fad 14bd 9aaf fa3c 0c7c 12bf bf3b d2be
00000040: 2c6c e33e 75d6 8e3e 4c73 64bc aeb8 d53d
00000050: 7dab 233e 3fbf 1dbf 208b 6b3e 073c 0f3d
00000060: 16c6 a4be 50aa d9be a492 d2bd 1784 c8bd
00000070: 5123 cdbe 3cce 13bf d245 01bf 8f0a 1c3e
00000080: 7c84 86bd eb03 fe3d 70b1 8cbe b3e9 c93e
00000090: d9c6 05be 1f0c 243d 8bf6 69bd 5090 a03e
000000a0: 1484 a53e 2c19 dabc c23a 39be 9234 5c3b
000000b0: fe69 a1be 9497 4bbe 83a9 c1bd 3804 7fbd
000000c0: de4a 6f3e eaae dabe d336 3c3e d089 023e
000000d0: 93d4 22be bfce de3d 62cf b0be 8914 1cbe
000000e0: 6fa7 733d ecf4 343e 05ff 99bb 1afc 103c
000000f0: 7e81 d03c ac7e 4a3e cc6c c83e ba55 8ebd

core.features.layer1.seg_ex_block.se.1.bias f4 [2]
-0.10672159 0.31984237
00000000: d990 dabd 61c2 a33e

core.features.layer1.seg_ex_block.se.3.weight f4 [32, 2]
0.17236054 -0.38730487 0.22986947 -0.77397746 0.44165933 -0.46094865 -0.33883634 -0.18572608
0.8976643 -0.04495727 -0.21977574 -0.33527508 0.4212115 1.0450943 0.2202732 -0.6150035
0.39648095 -0.559942 0.7121821 -0.2394249 -0.5786993 -0.23778026 -0.15519446 -0.28306445
0.019939259 -0.6220078 0.8470455 -0.12815286 0.38761684 -0.32857215 0.4131262 -0.5511569
0.35120142 -0.10519778 -0.01951132 -0.32343006 0.49312425 -0.2730449 -0.57057923 -0.13852337
0.0068669664 -0.45792067 0.69501 -0.66348404 -0.25025606 0.26510835 0.48587924 -0.09388839
0.29686093 -0.28329724 0.5269999 -0.38334054 0.24285398 -0.19098534 0.49553043 -1.0198284
0.7943302 -0.37957194 0.6454738 -0.31383035 0.59455043 -0.60383767 0.28315976 -0.049607877
00000000: 487f 303e d34c c6be e762 6b3e 6323 46bf
00000010: 2c21 e23e 7601 ecbe f57b adbe fa2e 3ebe
00000020: 54cd 653f 1d25 38bd e40c 61be 2da9 abbe
00000030: 09a9 d73e a6c5 853f 4c8f 613e df70 1dbf
00000040: 8dff ca3e 5c58 0fbf 9151 363f cd2b 75be
00000050: a325 14bf ab7c 73be 4ceb 1ebe d3ed 90be
00000060: a857 a33c e73b 1fbf f9d7 583f 813a 03be
00000070: b775 c63e 9c3a a8be 4785 d33e 9e18 0dbf
00000080: acd0 b33e ef71 d7bd 34d6 9fbc a098 a5be
00000090: c87a fc3e 8bcc 8bbe 7b11 12bf 12d9 0dbe
000000a0: 4a04 e13b 9474 eabe 2dec 313f 17da 29bf
000000b0: 9021 80be 48bc 873e 2ac5 f83e 8e48 c0bd
000000c0: 28fe 973e 560c 91be 77e9 063f 3645 c4be
000000d0: b7ae 783e a991 43be 2ab6 fd3e bd89 82bf
000000e0: 3959 4b3f 4157 c2be c53d 253f 5fae a0be
000000f0: 7534 183f 1b95 1abf 51fa 903e a131 4bbd

core.features.layer1.seg_ex_block.se.3.bias f4 [32]
-0.19117083 0.44864118 -0.16218449 -0.20160821 -0.6862276 0.5539981 0.5547156 0.24985181
0.20990145 -0.4653172 -0.47484696 -0.08732865 -0.12944208 0.14311597 0.029601231 0.26047337
0.054374337 0.5117956 -0.48536056 -0.36287135 0.343246 0.2586448 -0.5145857 -0.52435964
-0.15322337 -0.10105779 0.33732718 -0.23799981 -0.14517793 -0.35563508 0.10537755 0.016187718
00000000: 49c2 43be 4cb4 e53e b113 26be 6272 4ebe
00000010: 9dac 2fbf d2d2 0d3f d701 0e3f 27d9 7f3e
00000020: 68f0 563e 0e3e eebe 241f f3be 5dd9 b2bd
00000030: 778c 04be fe8c 123e 487e f23c c45c 853e
00000040: a0b7 5e3d 0905 033f 2e81 f8be 46ca b9be
00000050: f1bd af3e 176d 843e e3bb 03bf 6f3c 06bf
00000060: 96e6 1cbe 63f7 cebd 26b6 ac3e 39b6 73be
00000070: 86a9 14be cd15 b6be 2fd0 d73d 1b9c 843c

core.features.layer2.ds_conv.in_depth_conv.weight f4 [32, 32, 1, 1]
-0.5568612 0.2012926 0.2960487 -0.07998797 0.09039275 0.17367269 -0.0802269 0.12398734
-0.021944975 0.07601756 -0.2600552 0.21740209 -0.1528524 -0.2495245 -0.08698341 -0.12745044
0.5443562 0.21124326 0.031392317 0.2831655 0.15248325 0.26823682 0.20513344 -0.30282715
0.4429006 -0.39055127 -0.027322583 0.06558236 -0.13699691 0.11709632 0.39343113 -0.13192149
-0.23080611 0.47662318 -0.08232985 -0.077284224 -0.14114825 0.006404089 0.20374343 -0.07946171
0.6280067 0.063100666 -0.21549545 -0.011897398 0.083775096 -0.22908731 0.088542275 -0.0809584
-0.12128008 -0.31027767 0.14074604 0.0035212776 -0.21065241 0.033371348 0.012070193 -0.29990125
0.017926238 0.013010986 -0.09449929 0.07737981 0.4191134 0.29673877 0.20319201 -0.008270386
-0.11088093 -0.0811401 0.73247254 0.16628411 0.343151 0.032562662 0.4972688 -0.29329664
0.014533925 0.0865397 0.14312299 -0.1368148 -0.5310268 0.26604658 -0.06063203 -0.28224668
0.1967126 -0.197629 -0.21978736 -0.411631 -0.11618768 -0.115426466 0.010683511 -0.10206803
-0.044446867 -0.21441615 -0.22895128 0.52021724 -0.12124431 -0.14967123 -0.047033083 0.47516668
0.4730373 0.59118044 -0.27043933 0.36158735 -0.04087892 -0.11580821 0.054612834 -0.13532872
0.7569499 -0.1931508 0.03613765 -0.2634825 -0.38387945 0.037580676 -0.51986134 -0.050826248
0.24585396 0.16465376 0.008226736 0.005719001 -0.056695074 -0.15261796 0.08133805 -0.002884858
-0.12289111 -0.05714811 0.11277913 -0.10013123 -0.063210934 0.10349387 -0.033415098 -0.0127109215
-0.023620108 0.278634 -0.31218517 0.4463349 0.20092201 -0.30217162 -0.3121741 0.09858338
0.07866174 0.6067565 0.19855039 -0.26077396 0.43540776 0.21406811 -0.18480495 -0.2610392
0.15733951 -0.31690782 0.7562038 0.63592386 -0.065209165 0.15572596 0.091494605 -0.23990305
0.50051826 0.1479059 -0.19448283 -0.8467333 -0.10135655 -0.06596308 0.0030342806 0.17052622
0.42538804 0.22203471 0.25044176 -0.080697626 -0.13876532 -0.055041205 -0.27590466 0.110761315
0.618001 -0.35631615 0.13906614 -0.0018440218 -0.12231001 -0.07482497 -0.13379811 0.12519324
-0.12083167 0.23015334 -0.30216223 0.1391474 -0.19054113 -0.33309123 0.07502793 0.071212314
-0.07582732 0.47594318 -0.44260767 0.030332739 -0.50543875 -0.30172718 -0.60391563 0.02551478
0.21075633 0.06306016 0.02070378 0.035233878 -0.40371975 0.38278 -0.323322 -0.38257745
0.059597682 0.7033092 0.44815034 0.1108414 0.09814808 -0.092447825 0.18069816 0.53838366
-0.41065526 0.06722806 0.39233884 0.028087325 -0.5460945 -0.20462324 0.035961933 0.39680615
0.14204688 0.1360435 -0.34823477 0.04825932 -0.33922237 -0.06673102 -0.12218053 -0.07085595
-0.07270653 0.013805647 0.40047407 0.22483584 0.0011129291 0.16696171 0.5990608 0.69666845
-0.023026656 0.45234084 -0.027942527 0.214741 -0.29765582 0.083875194 0.3687294 0.0054085054
-0.21420807 -0.018530257 0.2100909 0.08913796 -0.11143798 -0.2502515 -0.23979759 -0.06600987
0.01770944 -0.007172749 -0.065118 0.31323352 -0.5421375 0.23388422 0.45850652 -0.05461223
00000000: 758e 0ebf a61f 4e3e b293 973e bcd0 a3bd
00000010: d61f b93d 41d7 313e 004e a4bd 13ed fd3d
00000020: f3c5 b3bc 18af 9b3d f525 85be a79e 5e3e
00000030: 5785 1cbe 5a83 7fbe 5c24 b2bd 5e82 02be
00000040: ee5a 0b3f 2750 583e 3b95 003d 12fb 903e
00000050: 9224 1c3e 5656 893e 800e 523e 290c 9bbe
00000060: dec3 e23e 56f6 c7be 9cd3 dfbc 0b50 863d
00000070: eb48 0cbe 32d0 ef3d ce6f c93e 6d16 07be
00000080: 7058 6cbe f407 f43e 8d9c a8bd 3147 9ebd
00000090: 2b89 10be 64d9 d13b 1ea2 503e d2bc a2bd
000000a0: 0cc5 203f ec3a 813d d7aa 5cbe 4eed 42bc
000000b0: 4792 ab3d dd95 6abe a755 b53d 85cd a5bd
000000c0: b161 f8bd b7dc 9ebe bb1f 103e 3cc5 663b
000000d0: 44b5 57be 65b0 083d 0fc2 453c a88c 99be
000000e0: 0cda 923c 082c 553c d888 c1bd 4e79 9e3d
000000f0: 0896 d63e 25ee 973e 9111 503e 8380 07bc
00000100: 8b15 e3bd c82c a6bd 5283 3b3f 6246 2a3e
00000110: 7db1 af3e 6d60 053d 049a fe3e fa2a 96be
00000120: b31f 6e3c ba3b b13d d58e 123e 2e19 0cbe
00000130: 5ff1 07bf 4237 883e 4b59 78bd a382 90be
00000140: 076f 493e 425f 4abe f00f 61be 4cc1 d2be
00000150: cef3 edbd b664 ecbd e509 2f3c 0b09 d1bd
00000160: eb0d 36bd e88f 5bbe 3472 6abe f52c 053f
00000170: f04e f8bd 6a43 19be c3a5 40bd 0c49 f33e
00000180: f231 f23e 9a57 173f 0677 8abe fa21 b93e
00000190: a870 27bd db2c edbd b5b1 5f3d 9d93 0abe
000001a0: 78c7 413f 53c9 45be 1305 143d 2ee7 86be
000001b0: d98b c4be 32ee 193d a215 05bf 2f2f 50bd
000001c0: 24c1 7b3e ff9a 283e 6fc9 063c 7566 bb3b
000001d0: 1839 68bd e247 1cbe 9094 a63d e30f 3dbb
000001e0: 56ae fbbd 2314 6abd bff8 e63d 9a11 cdbd
000001f0: bc74 81bd 98f4 d33d 45de 08bd 7841 50bc
00000200: f57e c1bc 1ea9 8e3e bcd6 9fbe 0286 e43e
00000210: 80be 4d3e 3db6 9abe 49d5 9fbe 15e6 c93d
00000220: 6819 a13d 6554 1b3f cb50 4b3e 2a84 85be
00000230: c4ed de3e ac34 5b3e 823d 3dbe eea6 85be
00000240: 9c1d 213e be41 a2be 9296 413f e8cb 223f
00000250: 628c 85bd a076 1f3e 8661 bb3d 25a9 75be
00000260: f721 003f a574 173e 8226 47be 83c3 58bf
00000270: 0694 cfbd a717 87bd c8da 463b 6d9e 2e3e
00000280: 76cc d93e 115d 633e e739 803e cc44 a5bd
00000290: 7f18 0ebe e372 61bd 6043 8dbe d4d6 e23d
000002a0: 5035 1e3f 126f b6be 5b67 0e3e 1bb3 f1ba
000002b0: ac7d fabd d53d 99bd 5f02 09be a832 003e
000002c0: 9876 f7bd 51ad 6b3e 02b5 9abe a87c 0e3e
000002d0: 371d 43be ef8a aabe 3ea8 993d c3d7 913d
000002e0: 5b4b 9bbd d3ae f33e 799d e2be 5d7c f83c
000002f0: 6f64 01bf fc7b 9abe 379a 1abf 5f04 d13c
00000300: 82d0 573e af25 813d f99a a93c 6651 103d
00000310: 5bb4 cebe bdfb c33e 768a a5be 31e1 c3be
00000320: b31c 743d 120c 343f f673 e53e d100 e33d
00000330: dc01 c93d 4955 bdbd f008 393e 83d3 093f
00000340: 6841 d2be ddae 893d a3e0 c83e 6417 e63c
00000350: d9cc 0bbf c188 51be d24c 133d 2d2a cb3e
00000360: bd74 113e fd4e 0b3e d44b b2be 91ab 453d
00000370: 8eae adbe 46aa 88bd c939 fabd ed1c 91bd
00000380: 29e7 94bd 1531 623c f00a cd3e 5e3b 663e
00000390: b4df 913a 03f8 2a3e 0c5c 193f dd58 323f
000003a0: 66a2 bcbc 3899 e73e bae7 e4bc 11e5 5b3e
000003b0: 5866 98be c2c6 ab3d 1aca bc3e d539 b13b
000003c0: 5c59 5bbe c4cc 97bc 1222 573e f68d b63d
000003d0: 9839 e4bd f720 80be 808d 75be 2f30 87bd
000003e0: 6313 913c 6109 ebbb 965c 85bd 2560 a03e
000003f0: 86c9 0abf 587f 6f3e 5ec1 ea3e 13b1 5fbd

core.features.layer2.ds_conv.spatial_conv.weight f4 [32, 1, 9, 9]
0.05733104 -0.09074421 0.024055682 0.14906727 0.20638826 0.2702146 0.15202923 0.14350642
0.27584556 0.15701467 -0.12847841 -0.07247335 0.007845843 -0.06588626 0.03210781 0.08968156
0.049458686 0.10751197 0.19148788 0.046510816 -0.011994168 0.030813836 0.04523542 0.12900797
0.1761359 0.079470664 0.12798168 0.33309054 0.08965085 0.05254456 0.17696148 0.2475349
0.30619955 0.24280341 0.11761698 0.18265584 0.37372807 0.14379103 0.15360644 0.17206722
0.20951527 0.3690047 0.31994107 0.2624592 0.25959843 0.12648857 0.008316189 0.08136768
0.10451057 0.12654074 0.19119614 0.22354491 0.23098533 0.2803104 0.010847522 0.009425665
0.083184265 -0.009791404 0.016564708 0.08804427 0.14380161 0.17634198 0.23999937 0.007923679
0.14695066 0.13199331 -0.0024436687 0.016420137 0.14301448 0.09339974 0.026013248 0.17387798
0.24401696 0.2343557 0.07293687 -0.02145963 0.13161282 0.22547644 0.2248091 0.10021547
0.10248805 -0.022509532 -0.02231776 -0.010522093 0.07703702 -0.025542554 -0.04484131 0.0012449578
-0.11372264 -0.13885666 -0.04599648 0.11128764 0.05873326 -0.046560448 0.051048994 0.13819392
-0.026500873 -0.059769742 0.09732839 0.0057566506 -0.030798104 0.17831029 0.124030665 0.14866495
0.18710448 0.04294661 -0.060596853 -0.026556538 0.032234214 0.23723052 0.42810646 0.38212606
0.4052743 0.28324467 0.06014207 -0.011966161 -0.062352747 -0.0012147188 0.18775174 0.3427263
0.40100583 0.4149117 0.28700742 0.13415599 0.08571723 -0.004455557 -0.011973047 0.09669014
0.2981753 0.383204 0.28423935 0.20593032 0.148111 0.045866106 0.110301085 -0.012928315
0.06663641 0.21320902 0.29783735 0.36428773 0.14535946 0.07241357 0.08847576 0.11348715
0.023595857 0.03806737 0.10698786 0.17914546 0.03792401 0.14345905 0.013571183 -0.10465817
-0.07348684 -0.16556707 -0.06629916 0.0077654584 -0.03313421 0.007839333 0.04203009 0.14728267
-0.014239304 -0.07521738 -0.18291454 -0.06290244 -0.22940299 -0.15846747 0.026981838 0.1768305
0.12047237 -0.008840659 0.08442867 -0.15813486 -0.117172845 -0.37058794 -0.20350802 0.1576446
0.28431755 0.0737306 -0.09562413 -0.04452243 -0.25097468 -0.22791737 -0.6107434 -0.41763797
0.044401534 0.19418162 0.07350046 0.05070234 -0.04398823 -0.1869906 -0.26011068 -0.57191277
-0.4544894 0.004889073 0.17738137 0.18152498 0.17769027 -0.054840688 -0.10762587 0.011820504
-0.13789468 -0.084379815 0.12435065 0.18278949 0.08726586 0.02126024 -0.16553979 -0.02463058
-0.022817666 0.04471132 0.20002335 0.29488558 0.13231713 -0.023004346 -0.15150031 -0.10572192
0.16525126 -0.076336265 -0.12512812 0.12468863 0.16718556 0.13675803 -0.011208663 -0.09953224
0.018584365 0.04522811 -0.015971228 -0.12867825 -0.073268496 -0.04389511 -0.006686709 -0.01508377
-0.12901054 -0.06538302 -0.27266815 -0.01323108 0.14869066 0.25605398 0.13798112 0.04652219
0.019977016 -0.13070531 -0.20139074 0.21810548 0.1545505 -0.05899504 -0.12388075 0.06930532
0.020074397 -0.16688533 0.07986744 0.04014154 0.14660707 0.15618251 0.061406568 0.045492355
00000000: f4d3 6a3d 1ad8 b9bd 6c10 c53c 17a5 183e
00000010: 7257 533e 9159 8a3e 8dad 1b3e 59f3 123e
00000020: a13b 8d3e 74c8 203e d88f 03be e86c 94bd
00000030: da8b 003c 60ef 86bd 7b83 033d f7aa b73d
00000040: 3195 4a3d 3c2f dc3d 6615 443e 2082 3e3d
00000050: 3083 44bc 4c6d fc3c c748 393d aa1a 043e
00000060: f85c 343e 84c1 a23d a10d 033e d88a aa3e
00000070: dd9a b73d f738 573d 6435 353e ca79 7d3e
00000080: 30c6 9c3e 75a1 783e 2ce1 f03d 220a 3b3e
00000090: 4959 bf3e f53d 133e 024b 1d3e 6432 303e
000000a0: 2c8b 563e 2fee bc3e 51cf a33e 0d61 863e
000000b0: 16ea 843e 3886 013e a040 083c 19a4 a63d
000000c0: a309 d63d e593 013e ecc8 433e f5e8 643e
000000d0: 6b87 6c3e d884 8f3e ceb9 313c 1b6e 1a3c
000000e0: 835c aa3d 206c 20bc b6b2 873c 8e50 b43d
000000f0: bb40 133e fe92 343e 65c2 753e 52d2 013c
00000100: 3c7a 163e 4129 073e f525 20bb 8683 863c
00000110: 6372 123e 5d48 bf3d bc19 d53c 120d 323e
00000120: 95df 793e f1fa 6f3e ed5f 953d 1bcc afbc
00000130: 83c5 063e 4ce3 663e 5b34 663e c53d cd3d
00000140: 41e5 d13d e965 b8bc bcd3 b6bc db64 2cbc
00000150: 96c5 9d3d 9e3e d1bc 85ab 37bd da2d a33a
00000160: 6ae7 e8bd 7130 0ebe ce66 3cbd c6ea e33d
00000170: 4992 703d 2bb6 3ebd c018 513d b582 0d3e
00000180: 5c18 d9bc 1ed1 74bd 1b54 c73d 49a2 bc3b
00000190: 4e4c fcbc f996 363e ca03 fe3d a03b 183e
000001a0: 5198 3f3e c9e8 2f3d 6834 78bd 198d d9bc
000001b0: 0608 043d 8fec 723e c530 db3e 07a6 c33e
000001c0: 1d80 cf3e 7205 913e 8857 763d b80d 44bc
000001d0: 9865 7fbd 3337 9fba fe41 403e d279 af3e
000001e0: a350 cd3e 4e6f d43e a3f2 923e 3060 093e
000001f0: 848c af3d ecff 91bb 992a 44bc 7b05 c63d
00000200: 6faa 983e 5133 c43e d287 913e 66df 523e
00000210: 69aa 173e 19de 3b3d 89e5 e13d 49d1 53bc
00000220: ac78 883d 7753 5a3e 237e 983e ec83 ba3e
00000230: 1cd9 143e 914d 943d c732 b53d f36b e83d
00000240: 194c c13c 88ec 1b3d 731c db3d e871 373e
00000250: 3556 1b3d eee6 123e ab59 5e3c 0657 d6bd
00000260: 4580 96bd 6a8a 29be dbc7 87bd 6375 fe3b
00000270: bdb7 07bd 8c70 003c be27 2c3d 45d1 163e
00000280: f84b 69bc 920b 9abd f34d 3bbe ffd2 80bd
00000290: 9ee8 6abe 4c45 22be 0409 dd3c 0e13 353e
000002a0: 38ba f63d 69d8 10bc f0e8 ac3d 1bee 21be
000002b0: 51f8 efbd b4bd bdbe 6864 50be 966d 213e
000002c0: 1292 913e 1200 973d 95d6 c3bd 275d 36bd
000002d0: c17f 80be 2c63 69be ae59 1cbf a5d4 d5be
000002e0: 62de 353d 8cd7 463e 6987 963d 42ad 4f3d
000002f0: 012d 34bd 777a 3fbe 3a2d 85be e068 12bf
00000300: d6b2 e8be 8434 a03b 76a3 353e afe1 393e
00000310: 70f4 353e a1a0 60bd f46a dcbd caaa 413c
00000320: 4334 0dbe 53cf acbd 8eab fe3d 2b2d 3b3e
00000330: 71b8 b23d f429 ae3c 4383 29be 12c6 c9bc
00000340: 1dec babc 3823 373d ecd2 4c3e 3efb 963e
00000350: 247e 073e 9c73 bcbc e622 1bbe bc84 d8bd
00000360: a037 293e 3056 9cbd 9621 00be c15c ff3d
00000370: b132 2b3e 4c0a 0c3e 8aa4 37bc 8fd7 cbbd
00000380: 3d3e 983c 1c41 393d 18d6 82bc 3bc4 03be
00000390: cb0d 96bd 5ccb 33bd 2e1c dbbb eb21 77bc
000003a0: 571b 04be 88e7 85bd 299b 8bbe 2cc7 58bc
000003b0: 5d42 183e 8219 833e ec4a 0d3e 0d8e 3e3d
000003c0: d7a6 a33c 9dd7 05be 6039 4ebe 0b57 5f3e
000003d0: 7c42 1e3e c8a4 71bd 31b5 fdbd f3ef 8d3d
000003e0: 1073 a43c fde3 2abe 8a91 a33d 756b 243d
000003f0: 2a20 163e 4fee 1f3e 7485 7b3d 3156 3a3d
