nnvision/data/model_weights/v1_data_driven/sota_cnn_ensemble_model_10.pth.tar (torch, 309331 bytes, 30 tensors)

core.features.layer0.conv.weight f4 [32, 1, 24, 24]
0	0xbd713e55	-0.058897335
1	0xbd1c3d13	-0.038144182
2	0xbcfd3df6	-0.030913334
3	0xbcdf459e	-0.027254876
4	0xbcac7f12	-0.021056686
5	0xbce42601	-0.027850153
6	0xbcab5a52	-0.020917092
7	0xbb2d350c	-0.0026429323
8	0x3b58ac4d	0.0033061684
9	0x3b32b4f4	0.00272685
10	0x3a7a0e66	0.00095388887
11	0x3b37a1bc	0.0028019985
12	0xbd134429	-0.035953674
13	0xbd1addee	-0.037809305
14	0xbcd6631b	-0.026170304
15	0xbbe52433	-0.0069928407
16	0xbb98ea9d	-0.00466664
17	0x3c0612cd	0.008183193
18	0x3cd62a75	0.026143292
19	0x3d085b57	0.033290233
20	0x3d2995eb	0.04140274
21	0x3d3d09d4	0.04615195
22	0x3ca8d00c	0.020607017
23	0xbc8fe153	-0.017563498
24	0xbd61739a	-0.055041887
25	0xbd305ad4	-0.04305537
26	0xbd0d97ff	-0.034568783
27	0xbd312334	-0.043246463
28	0xbd4873a9	-0.048938427
29	0xbd497a53	-0.049188923
30	0xbd1d9b3a	-0.038478114
31	0xbc569613	-0.013097304
32	0xbc4f0379	-0.012635105
33	0xbbe898e2	-0.007098303
34	0xbbe02e23	-0.0068414374
35	0xbc7e76d1	-0.015531258
36	0xbd22c22b	-0.039735954
37	0xbd0ac29e	-0.033877008
38	0xbceb75a3	-0.028742617
39	0xbc039f57	-0.008033595
40	0x3bf9a4c3	0.007618518
41	0x3c98917c	0.01862406
42	0x3c9482ca	0.018128771
43	0x3c317162	0.010830255
44	0x3cc2f3db	0.02379792
45	0x3d13c6da	0.03607831
46	0x3ba9d675	0.005183036
47	0xbd0ddd80	-0.034635067
48	0xbcd59738	-0.026073083
49	0xbbf86563	-0.0075804456
50	0xbb4b6024	-0.0031032646
51	0xbcde552d	-0.027140224
52	0xbd2dc0d5	-0.042420227
53	0xbd440a3b	-0.04786132
54	0xbd00fae2	-0.03148926
55	0xbc8de62a	-0.017321665
56	0x3b806e76	0.003919418
57	0x3c0f6832	0.008752869
58	0x3b9dd836	0.004817034
59	0xbc7a87d1	-0.01529117
60	0xbc873127	-0.01650293
61	0xbc62f4bb	-0.013852294
62	0xba4c4b9e	-0.000779325
63	0x3cd957d3	0.026531136
64	0x3d0dffd3	0.0346678
65	0x3d048528	0.03235355
66	0x3d2a5714	0.04158695
67	0x3d0377af	0.03209656
68	0x3ce5d9a2	0.028057877
69	0x3d297fae	0.04138153
70	0x3ace830d	0.0015755609
71	0xbcf23c5b	-0.029569795
72	0xbcd30469	-0.025758939
73	0xbc20abd2	-0.00980659
74	0xbcb60751	-0.022220286
75	0xbd1dd98f	-0.03853756
76	0xbd54c9b2	-0.051950164
77	0xbce30e79	-0.027716862
78	0xbcb94029	-0.022613602
79	0x3be0d2ed	0.006861082
80	0x3bf1bf23	0.0073775216
81	0x3c53a243	0.012917104
82	0x3c7dce4e	0.015491081
83	0x3cd3cfea	0.025855977
84	0x3cb0d39e	0.021585282
85	0x3cff41c9	0.031159298
86	0x3d0472b6	0.03233596
87	0x3d6ad95c	0.057336196
88	0x3d660155	0.056153614
89	0x3d4fcf64	0.050734892
90	0x3d0a994f	0.033837613
91	0x3cabf052	0.020988617
92	0x3c8c27f0	0.017108887
93	0x3cc52021	0.024063172
94	0xbb864478	-0.0040975176
95	0xbc19489e	-0.009355692
96	0xbccc3c74	-0.02493117
97	0x3b8aca26	0.0042355238
98	0xbcce391a	-0.025173713
99	0xbd09e9c7	-0.033670213
100	0xbd105f6f	-0.035247263
101	0x3b95b174	0.004568273
102	0xbbe45df1	-0.0069692065
103	0x3c40b1c8	0.011761136
104	0x3c2211b5	0.009891917
105	0x3d014482	0.031559475
106	0x3d2de6be	0.04245638
107	0x3d85207f	0.06500339
108	0x3d94e01c	0.07269308
109	0x3d9c5079	0.076325364
110	0x3d71f191	0.059068266
111	0x3d98fa9d	0.07469676
112	0x3d8ecade	0.069722876
113	0x3d7568d4	0.059914425
114	0x3d3c4930	0.045968235
115	0x3d06c3f2	0.03290171
116	0x3c171eed	0.009223682
117	0x3bda8e95	0.006669829
118	0xbc82bf44	-0.015960343
119	0xbce058b9	-0.027386056
120	0xbd1b1197	-0.03785857
121	0xbc0152d4	-0.007893283
122	0xbce6e5ec	-0.028185807
123	0xbd148517	-0.036259737
124	0xbd3739c6	-0.04473283
125	0xbc5008fa	-0.012697453
126	0xbc37bc49	-0.011214324
127	0x3c1f5285	0.009724264
128	0x3ca21798	0.019786641
129	0x3d6aa8f2	0.057290025
130	0x3db94d2d	0.09047923
131	0x3e06a76f	0.13149808
132	0x3e1950ad	0.14972182
133	0x3df831e7	0.12118893
134	0x3dcc5bf5	0.09978477
135	0x3dc2ba5d	0.09508202
136	0x3da7546f	0.08170401
137	0x3d699a34	0.057031825
138	0x3d0f822a	0.035036243
139	0x3b6882d4	0.003547837
140	0xbc375173	-0.011188853
141	0x3bba21f2	0.005680316
142	0xbb47578e	-0.0030417177
143	0xbcbd3582	-0.023096804
144	0xbd1e8a8f	-0.03870636
145	0xbc82d932	-0.015972707
146	0xbce15532	-0.027506445
147	0xbd0a2ac1	-0.03373218
148	0xbd38aa1f	-0.045084115
149	0xbc874285	-0.016511211
150	0x3b17e8f9	0.0023179634
151	0x3ce47095	0.027885715
152	0x3d73e3fd	0.0595436
153	0x3de93d7b	0.113886796
154	0x3e385213	0.18000059
155	0x3e61a8d6	0.22037062
156	0x3e70c917	0.2351421
157	0x3e30832f	0.17237543
158	0x3df8ef5a	0.12155028
159	0x3dc0a6df	0.09406828
160	0x3d823a94	0.06358829
161	0x3d603a0f	0.05474287
162	0x3d4846c9	0.04889563
163	0x3ca080d4	0.01959268
164	0xbbfac623	-0.0076530143
165	0x3c65ffc8	0.014038034
166	0xbc03b2d2	-0.00803824
167	0xbce81dc3	-0.028334504
168	0xbd3ca8e3	-0.0460595
169	0xbcdaeaa8	-0.026723221
170	0xbd72f6e5	-0.05931749
171	0xbd9a02cb	-0.07520064
172	0xbd9d3b09	-0.07677276
173	0xbd1dd1a9	-0.038530026
174	0xbbfeff19	-0.007781875
175	0x3cc8bf67	0.02450533
176	0x3d9db1c5	0.076999225
177	0x3e25c790	0.16189408
178	0x3e7f5583	0.24934964
179	0x3e8e47ab	0.27789053
180	0x3e8e1e9a	0.27757722
181	0x3e49ebcd	0.19718857
182	0x3e05e418	0.13075292
183	0x3d92832b	0.071539246
184	0x3d525797	0.051353063
185	0x3d4a736c	0.04942648
186	0x3d16f132	0.036851116
187	0x3c45ebc2	0.012080135
188	0xbc78d481	-0.015187384
189	0x3bf6f400	0.0075364113
190	0xbc5880c0	-0.01321429
191	0xbd0e0d2d	-0.034680534
192	0xbd23817b	-0.039918404
193	0xbd00637b	-0.031344872
194	0xbd5b69ce	-0.0535677
195	0xbd564371	-0.05231041
196	0xbd76260a	-0.06009487
197	0xbc42d5d8	-0.011891805
198	0x3cbd9298	0.02314119
199	0x3d6b7fac	0.057494804
200	0x3e0045f0	0.12526679
201	0x3e575ed9	0.21032275
202	0x3e9a1f05	0.3010179
203	0x3ea36288	0.3191111
204	0x3e91ed35	0.28501287
205	0x3e302e69	0.17205204
206	0x3dadefa5	0.08492974
207	0x3d0b19bc	0.03396009
208	0x3c670c1e	0.01410201
209	0x3d2d9709	0.042380366
210	0x3d20d43b	0.0392649
211	0x3c546feb	0.012966136
212	0xbc2614b3	-0.010136771
213	0x3b3158fb	0.0027061093
214	0xbcba6913	-0.022755181
215	0xbd002875	-0.031288583
216	0xbd4fe147	-0.05075195
217	0xbd440d08	-0.04786399
218	0xbd1fd019	-0.039016817
219	0xbd149df5	-0.036283452
220	0xbd0ac94f	-0.03388339
221	0xbbe17411	-0.0068802913
222	0x3cf63693	0.03005532
223	0x3d888d71	0.06667603
224	0x3e1da79d	0.1539597
225	0x3e74b435	0.23896869
226	0x3ea25500	0.31705475
227	0x3ea5a602	0.32353216
228	0x3e8376c2	0.25676543
229	0x3e0189cc	0.12650222
230	0x3d123905	0.03569891
231	0xbca0fb66	-0.019651126
232	0xbc96ca92	-0.01840714
233	0x3c00a9ca	0.007852981
234	0x3c672962	0.0141089875
235	0xbc82410d	-0.01590016
236	0xbc848832	-0.016178224
237	0xbc4918b2	-0.012273954
238	0xbc83e9ba	-0.01610266
239	0xbce44527	-0.027865006
240	0xbd319df5	-0.04336353
241	0xbcc745e6	-0.024325322
242	0xbca22488	-0.01979281
243	0xbcc80f4c	-0.024421357
244	0x3c1f2290	0.00971283
245	0x3d1a6b06	0.03769972
246	0x3d811dd3	0.06304517
247	0x3dd68bdd	0.104758956
248	0x3e3e1427	0.18562375
249	0x3e8bad3b	0.27280602
250	0x3ea3fa74	0.32027018
251	0x3e92c9d9	0.28669623
252	0x3e394c7e	0.18095586
253	0x3cc71ab3	0.024304723
254	0xbd4d5023	-0.050125252
255	0xbdc469b4	-0.09590474

core.features.layer0.norm.weight f4 [32]
0	0x3f9b921c	1.2153964
1	0x3f45ceb3	0.7726852
2	0x3f3b6097	0.7319426
3	0x3f12c1cb	0.57326955
4	0x3f4d3b02	0.80168164
5	0x3f51c541	0.8194161
6	0x3f9ed2fe	1.240814
7	0x3f18622e	0.5952481
8	0x3f410eda	0.75413287
9	0x3fd248ad	1.6428429
10	0x3f4e5aa2	0.80607045
11	0x3fb283ff	1.3946532
12	0x3f36d8d4	0.71424603
13	0x3f630b3a	0.88689005
14	0x3f3565a4	0.70858216
15	0x3eef69ca	0.46760398
16	0x3f61a1fa	0.8813778
17	0x3f7297f7	0.9476313
18	0x3fba4419	1.4552032
19	0x40216f6f	2.5224264
20	0x3f2e9734	0.6819947
21	0x3f7e42a1	0.9932042
22	0x3f77c1c0	0.96780014
23	0x3f1e12e2	0.6174756
24	0x3fa2510f	1.2680987
25	0x3f2f9186	0.68581426
26	0x3f9c82c9	1.2227412
27	0x4015db73	2.341519
28	0x3f767d85	0.9628528
29	0x3f3f8657	0.7481436
30	0x3f40f8f4	0.7537987
31	0x3f401dc8	0.7504544

core.features.layer0.norm.bias f4 [32]
0	0x3c705ba3	0.014670285
1	0xbdc13475	-0.094338335
2	0xbc939851	-0.018016966
3	0xbe99364a	-0.29924232
4	0xbf9d8ac7	-1.2307976
5	0x3e20baac	0.1569621
6	0xbed6d098	-0.4195602
7	0xbe88299f	-0.26594254
8	0xbf05f69e	-0.5232943
9	0xbf1a9a06	-0.6039127
10	0xbe7fdd04	-0.24986655
11	0xbe773ed2	-0.24145058
12	0xbd8fb7a7	-0.07017451
13	0x3d6c0371	0.05762047
14	0xbf29a5b6	-0.6626848
15	0x3c2e80dc	0.01065084
16	0xbebc16f8	-0.36736274
17	0xbdabcb59	-0.08388395
18	0xbe8a46ee	-0.2700724
19	0xbf99b0a2	-1.2007029
20	0xbf02f600	-0.51156616
21	0x3f12d957	0.57362884
22	0x3ef6cf19	0.48204878
23	0xbe2a351b	-0.1662182
24	0xbcccfab1	-0.025021883
25	0xbe9207f7	-0.28521702
26	0xbe6b7b7e	-0.22996327
27	0xbf45f5e6	-0.77328336
28	0x3f248c2a	0.64276373
29	0xbf6221ee	-0.8833302
30	0x3e0c8092	0.1372092
31	0xbd80d248	-0.06290108

core.features.layer0.norm.running_mean f4 [32]
0	0x3d9b2602	0.07575609
1	0xbe540fa1	-0.20709087
2	0x3e4da0c8	0.20080864
3	0x3eb6b5e6	0.35685652
4	0xbe83b25a	-0.2572201
5	0x3ea9937f	0.33120343
6	0xbe1c2fa3	-0.15252547
7	0x3e5d5fbd	0.21618553
8	0xbe297e9d	-0.16552205
9	0xbccc0cb1	-0.024908395
10	0x3d9e0224	0.07715252
11	0x3e519392	0.2046645
12	0x3eeaa1ab	0.45826468
13	0xbe83c2b6	-0.2573449
14	0xbece00e6	-0.4023506
15	0x3dba052b	0.09083017
16	0xbd467d6e	-0.048459463
17	0x3d0ab37b	0.033862572
18	0xbf0bb1e6	-0.54568326
19	0xbc354a77	-0.011065117
20	0xbee3d92e	-0.44501632
21	0x3e938af4	0.2881695
22	0x3e77e86c	0.24209756
23	0x3e884aab	0.26619467
24	0x3c36fec5	0.01116914
25	0x3eb7e205	0.35914627
26	0xbe9717cd	-0.29510346
27	0xbcc06940	-0.023487687
28	0x3eeeb156	0.46619672
29	0xbe2d32db	-0.16913931
30	0xbcbcd479	-0.023050534
31	0x3e286acf	0.16446994

core.features.layer0.norm.running_var f4 [32]
0	0x4247ec69	49.98087
1	0x42486b5d	50.104847
2	0x430b5559	139.33339
3	0x42f2dc52	121.43031
4	0x4357348a	215.20523
5	0x42ff4200	127.62891
6	0x42c8dd9d	100.43284
7	0x42d6bbd0	107.36682
8	0x4226a28c	41.658737
9	0x41a0ae80	20.085205
10	0x429ec67e	79.38768
11	0x42c269e9	97.206856
12	0x433cc951	188.78639
13	0x431baade	155.66745
14	0x432ffb0e	175.98068
15	0x42769851	61.648746
16	0x41a15f33	20.171484
17	0x43036391	131.38893
18	0x43582aaa	216.16666
19	0x40fdb20c	7.927984
20	0x44011a8c	516.4148
21	0x43b81f71	368.24564
22	0x43e24117	452.5085
23	0x424ff1ec	51.98625
24	0x4207075a	33.75718
25	0x42d80f32	108.02968
26	0x4290d376	72.41301
27	0x4129b6a4	10.60709
28	0x43db4174	438.51135
29	0x431dae3d	157.68062
30	0x42a34503	81.63479
31	0x42ce3afa	103.11519

core.features.layer1.ds_conv.in_depth_conv.weight f4 [32, 32, 1, 1]
0	0x3e1824ed	0.14857836
1	0xbe535bc2	-0.20640472
2	0xbe4e67f1	-0.20156838
3	0xbe84fa5d	-0.25972262
4	0xbd8c4193	-0.06848445
5	0x3c321c3b	0.0108709885
6	0x3e3fb355	0.18720753
7	0x3e0dbb3d	0.13840957
8	0xbe1d64bb	-0.15370457
9	0xbea968fe	-0.33087915
10	0x3e410671	0.18850113
11	0x3e0cf144	0.1376391
12	0x3d828246	0.06372504
13	0x3e148500	0.1450386
14	0x3d332474	0.043735936
15	0x3d248bc8	0.04017237
16	0x3d8ed62d	0.069744445
17	0x3d5f6308	0.054537803
18	0x3e90a79d	0.2825288
19	0xbe518ada	-0.20463124
20	0xbd0d5ccb	-0.034512322
21	0xbe1a9ef0	-0.15099692
22	0x3c1f90e9	0.009739139
23	0x3e48f504	0.19624716
24	0xbe9f3e4b	-0.31102213
25	0x3dac4c4c	0.0841299
26	0xbe0fe187	-0.14050876
27	0x3f47c6c9	0.780377
28	0x3d6898ac	0.056786224
29	0x3dc652d4	0.09683767
30	0xbe2279ba	-0.15866747
31	0x3d158cd8	0.036511272
32	0xbd03bbc8	-0.032161504
33	0x3d776e0d	0.060407687
34	0x3e0c5d74	0.13707525
35	0x3d11813f	0.03552365
36	0xbe499235	-0.1968468
37	0x3e100372	0.14063814
38	0x3e2e2e34	0.17009813
39	0x3d5910db	0.05299459
40	0x3e2950ce	0.16534731
41	0x3dd5c8f5	0.1043872
42	0x3e72d7c6	0.23715124
43	0xbe8075e5	-0.25089946
44	0xbd66bda2	-0.05633319
45	0x3f3eb502	0.74494946
46	0x3dbd4595	0.09241787
47	0xbd1b6fc5	-0.03794839
48	0xbdf93a18	-0.12169284
49	0xbe83ba4f	-0.2572808
50	0x3d0e2910	0.03470713
51	0xbe482017	-0.19543491
52	0x3e0640d8	0.13110673
53	0x3e2ff0ac	0.17181653
54	0xbe0b7322	-0.13618138
55	0x3d1e9e55	0.038725216
56	0xbd2cb5a4	-0.042165413
57	0xbde65ba0	-0.11247945
58	0xbd33e607	-0.043920543
59	0x3ea40a5f	0.32039163
60	0x3c5ee8ea	0.013605336
61	0xbc82a872	-0.015949462
62	0xbe65c6b9	-0.22439088
63	0x3e386b75	0.18009742
64	0x3c66ff36	0.014098933
65	0xbe52b6e9	-0.20577587
66	0x3d79284e	0.060829453
67	0x3d855e6b	0.065121494
68	0xbdb977c9	-0.0905605
69	0xbd9e03c7	-0.07715564
70	0x3d36ad84	0.04459907
71	0x3e09cfec	0.13458222
72	0xbe40db18	-0.18833578
73	0xbebb69c6	-0.36604136
74	0xbe2556c1	-0.16146375
75	0xbe6ce687	-0.23134814
76	0xbe2ca1aa	-0.16858545
77	0xbe35aa09	-0.17740645
78	0xbdfc2af3	-0.123128794
79	0x3d676c7e	0.05649995
80	0xbd143dc4	-0.036191717
81	0xbdbf4aea	-0.093404606
82	0x3e83cd9b	0.25742802
83	0x3e9aed1a	0.3025902
84	0x3ca70ee0	0.020392835
85	0xbe07c2ec	-0.1325795
86	0xbe2eeb3c	-0.17081922
87	0x3d542f7d	0.0518031
88	0x3d32b8a9	0.043633137
89	0x3e6fc474	0.23414785
90	0xbe903223	-0.2816325
91	0x3da2c2ac	0.07947287
92	0xbe7832a8	-0.24238074
93	0xbea7f7d5	-0.32806268
94	0xbe5c0672	-0.21486834
95	0xbe14ef63	-0.14544444
96	0xbd4f3c45	-0.050594587
97	0xbc3fd2cd	-0.011707974
98	0x3eb2a07b	0.34888062
99	0x3c669f49	0.0140760625
100	0x3df18b21	0.11794115
101	0xbe2fadc3	-0.17156129
102	0x3de89273	0.11356058
103	0xbc57be28	-0.013167895
104	0xbe680586	-0.22658357
105	0xbcc8d0bc	-0.024513595
106	0xbe44a8f3	-0.19205074
107	0x3e3ba6db	0.18325369
108	0x3cf00dfd	0.029303545
109	0x3caeff5b	0.021361997
110	0xbe56a166	-0.20960006
111	0xbd7ca1f3	-0.061677884
112	0x3e0ccca5	0.1374994
113	0x3eb60c1f	0.35556123
114	0xbe56d114	-0.20978194
115	0x3df30174	0.118655115
116	0xbe85000e	-0.25976604
117	0xbdd1a6e6	-0.102369115
118	0xbe629c5e	-0.22129962
119	0xbc98f51d	-0.018671567
120	0xbdec011d	-0.1152365
121	0x3dc12bb7	0.09432166
122	0x3e63f828	0.22262633
123	0xbf443308	-0.7664037
124	0xba729486	-0.0009253699
125	0x3ec0ca99	0.3765457
126	0xbd4aba4e	-0.04949408
127	0x3cd7f761	0.026363077
128	0xbecc7a82	-0.39937216
129	0xbc53caba	-0.012926752
130	0x3e45d763	0.19320445
131	0xbe1fada1	-0.15593578
132	0x3e30ccc8	0.17265618
133	0x3dec0864	0.11525038
134	0xbe4bb6fd	-0.19894023
135	0x3ea8cb4c	0.32967603
136	0xbc7ed0e2	-0.015552731
137	0xbe2d3ffb	-0.16918938
138	0xbe49888c	-0.19680995
139	0x3c277751	0.010221318
140	0x3e2e4be7	0.17021142
141	0x3d4f6d54	0.050641373
142	0x3e0ac8f0	0.13553214
143	0xbe1c3464	-0.1525436
144	0x3d2ce611	0.042211596
145	0xbdbed9a8	-0.093188584
146	0x3e59d025	0.21270807
147	0x3adbb6df	0.0016762874
148	0x3e2ac6c1	0.16677381
149	0xbeabd41f	-0.33560273
150	0x3ebd8a71	0.37019685
151	0xbd4d588c	-0.050133273
152	0x3ea18e3e	0.31553835
153	0x3d36a75b	0.044593196
154	0xbd317208	-0.04332164
155	0xbc15a744	-0.0091341175
156	0xbd680703	-0.056647312
157	0x3d8598c0	0.065232754
158	0xbd15eb85	-0.036601562
159	0xbc630451	-0.01385601
160	0x3e829f04	0.25511944
161	0xbcf11e48	-0.029433385
162	0x3d9dd688	0.07706934
163	0xbcbaa8fc	-0.022785656
164	0xbda27977	-0.07933324
165	0x3c3e53ce	0.01161666
166	0x3eb3e874	0.35138285
167	0x3d59ab8d	0.05314212
168	0xbd754940	-0.05988431
169	0x3d981dbb	0.07427546
170	0x3e295b7c	0.16538805
171	0xbebd9064	-0.37024224
172	0x3d58426f	0.05279773
173	0xbeb24b8c	-0.34823263
174	0x3dff05ef	0.124523036
175	0x3ea396e3	0.31951055
176	0x3ea66703	0.32500467
177	0xbe18d7cb	-0.14926068
178	0xbd96fde3	-0.07372644
179	0xbbe7f373	-0.007078582
180	0xbd97bd7b	-0.074091874
181	0xbd6fb82b	-0.058525246
182	0xbec23e3a	-0.379381
183	0x3e97835c	0.29592407
184	0xbe242f49	-0.16033663
185	0x3e8a46e6	0.27007216
186	0x3d9ae576	0.075632975
187	0xbf0c9bed	-0.54925424
188	0xbd155d8a	-0.03646616
189	0x3e518b41	0.20463277
190	0xbe37e1d3	-0.17957239
191	0xbe376ba4	-0.17912155
192	0x3d9edb39	0.07756657
193	0x3e9b7a7d	0.3036689
194	0xbf07e3fe	-0.53082263
195	0xbea389ac	-0.31940973
196	0x3f18cee0	0.59690666
197	0x3e917231	0.28407434
198	0xbdfeea19	-0.12446994
199	0x3b9eb158	0.0048429184
200	0x3e0d28f8	0.1378516
201	0x3d6e2e2e	0.05814951
202	0xbdf9a712	-0.12190069
203	0x3f1e751f	0.6189746
204	0xbeac172e	-0.33611435
205	0x3eb63534	0.35587466
206	0x3def6ab7	0.11690276
207	0x3e411cb9	0.18858613
208	0xbd01f50b	-0.03172783
209	0xbd8468f3	-0.0646533
210	0xbf078aa8	-0.5294595
211	0xbd9869ea	-0.074420765
212	0xbe8375fd	-0.25675955
213	0x3ef0ac42	0.47006422
214	0x3f14f984	0.5819323
215	0xbe056ba9	-0.1302935
216	0x3dbd7b08	0.09251982
217	0xbce1df7b	-0.027572384
218	0xbe36b3d1	-0.17842032
219	0x3e109163	0.1411796
220	0xbecafe74	-0.39647257
221	0xbd506527	-0.050877716
222	0xbb3fcecd	-0.002926755
223	0x3e8f0957	0.27936813
224	0x3ca6b037	0.020347698
225	0xbb84cfa3	-0.0040530725
226	0x3e3c20c4	0.18371874
227	0xbd8d0401	-0.06885529
228	0xbdaee4d6	-0.08539741
229	0xbb0cee3e	-0.0021504308
230	0xbdffb238	-0.124851644
231	0xbce55459	-0.027994322
232	0x3db85acf	0.09001695
233	0xbf0e1ffb	-0.5551755
234	0x3ed4c7cd	0.41558686
235	0x3e9ad263	0.30238637
236	0xbde36a0a	-0.1110421
237	0x3d196cbb	0.03745721
238	0x3e70de56	0.23522314
239	0x3e6e9d94	0.23302299
240	0x3dfcb302	0.123388305
241	0x3e073039	0.13201989
242	0xbe0c1959	-0.13681544
243	0x3e560a5e	0.20902392
244	0x3e089632	0.13338545
245	0x3d9957ea	0.074874714
246	0xbd7683da	-0.060184337
247	0xbdcf418e	-0.101199254
248	0xbf053228	-0.5202966
249	0xbb8f29f8	-0.0043690167
250	0x3dc2302d	0.09481845
251	0x3e8a2d57	0.26987717
252	0xbec2819c	-0.3798951
253	0xbe94fd54	-0.29099524
254	0xbbd6ecd1	-0.0065589924
255	0x3c9b6e2e	0.018973436

core.features.layer1.ds_conv.spatial_conv.weight f4 [32, 1, 9, 9]
0	0x3e3609fa	0.17777243
1	0x3c4e94bd	0.012608704
2	0x3d19c043	0.03753687
3	0x3cedc00d	0.029022241
4	0x3cc2a1ac	0.023758732
5	0xbc4f9bbe	-0.012671409
6	0xbd5606ff	-0.052252766
7	0xbdbc865e	-0.09205316
8	0xbd7007fe	-0.058601372
9	0xbc8e4b52	-0.0173699
10	0xbd959a81	-0.0730486
11	0xbc4557c3	-0.01204485
12	0xbcfe721f	-0.031060277
13	0xbcdaa152	-0.026688252
14	0x3bff4a56	0.007790844
15	0x3ccb9589	0.024851577
16	0x3a859938	0.0010192757
17	0xbc5e1ed3	-0.013557154
18	0xbdd7f2bf	-0.10544347
19	0xbe28aef0	-0.16472983
20	0xbd69314d	-0.056931783
21	0xbd9ced18	-0.076624095
22	0xbdc0c146	-0.09411864
23	0x3cbfc21b	0.023407986
24	0xbc0ceadc	-0.008600917
25	0xbe248bc4	-0.16068941
26	0xbe73afbc	-0.23797506
27	0xbd61b1ae	-0.05510109
28	0xbda22e84	-0.079190284
29	0x3babab9a	0.0052389624
30	0xbd222714	-0.03958805
31	0x3c806ea9	0.015677767
32	0x3d4dec94	0.050274447
33	0xbdeb7461	-0.11496807
34	0xbe6e7887	-0.23288165
35	0xbe2624db	-0.16224997
36	0xbc406733	-0.011743355
37	0xbd3917a5	-0.045188565
38	0xbb229b60	-0.002481185
39	0xbdf961fb	-0.121768914
40	0xbe78022a	-0.24219576
41	0xbe7c210e	-0.24621984
42	0xbe8f3ed5	-0.27977625
43	0xbe825687	-0.2545664
44	0xbe3dc089	-0.18530478
45	0xbdfe1d5f	-0.12407946
46	0x3babf2f0	0.0052474663
47	0x3e40b503	0.1881905
48	0x3cefe1e2	0.029282514
49	0xbe5b11e6	-0.21393546
50	0xbdc86249	-0.097843714
51	0x3d8bd67c	0.06828019
52	0xbd4b3a1a	-0.049615957
53	0xbe76d8ab	-0.2410609
54	0xbd901419	-0.07035083
55	0x3d03ad74	0.03214784
56	0x3e2a1467	0.16609345
57	0xbd9bd76d	-0.076094486
58	0xbe52da78	-0.20591152
59	0xbbdc13a3	-0.006716208
60	0x3e37a9cb	0.17935865
61	0x3d82e29e	0.0639088
62	0xbe626f15	-0.22112687
63	0x3e0c809d	0.13720937
64	0x3db41fe0	0.08795142
65	0x3d2ad73d	0.041709173
66	0xbd391200	-0.04518318
67	0xbd9dbdaf	-0.07702195
68	0xbd054a45	-0.032541532
69	0x3e1a4521	0.15065433
70	0x3db712f7	0.08939164
71	0xbcb962d7	-0.022630138
72	0xbcd39442	-0.02582753
73	0x3b6b16aa	0.0035871663
74	0x3d035c8f	0.032070693
75	0x3e612771	0.21987702
76	0x3e391c2b	0.18077151
77	0x3d954595	0.07288662
78	0x3c8a4113	0.016876733
79	0x3cf944a3	0.030428236
80	0x3d22b00f	0.039718684
81	0x3df37d96	0.11889188
82	0xbbca8f71	-0.0061816503
83	0xbd51e6f2	-0.051245637
84	0xbcfa907c	-0.030586474
85	0x3d19440f	0.03741842
86	0xbc103a32	-0.008802937
87	0xbca50602	-0.020144466
88	0xbcb6817c	-0.02227854
89	0xbdeb73bc	-0.11496684
90	0x3d46adfe	0.048505776
91	0xbc90a36c	-0.01765605
92	0xbd95f040	-0.07321215
93	0xbd611d99	-0.054959867
94	0x3c41eb0f	0.0118358275
95	0x3c3ae3d7	0.01140686
96	0x3c40c239	0.011765056
97	0xbddee47e	-0.10883425
98	0xbe7253b5	-0.23664744
99	0x3dea641e	0.11444877
100	0x3d947d36	0.072504446
101	0xbd69a0b7	-0.057038035
102	0xbdd8f93c	-0.10594413
103	0xbd9e9d88	-0.077448905
104	0xbe2763ff	-0.16346739
105	0xbddabc13	-0.106804036
106	0xbdac64b6	-0.084176466
107	0xbdfb8dfc	-0.12282941
108	0x3e680a22	0.22660115
109	0x3d6eb382	0.05827666
110	0x3ace7627	0.0015751765
111	0xbcdd33a2	-0.02700216
112	0x3dd4fc60	0.10399699
113	0x3da032fd	0.07822225
114	0xbdcd3ab4	-0.10020962
115	0xbe1cec76	-0.15324578
116	0xbdef7ef2	-0.11694135
117	0x3e67aca2	0.22624448
118	0x3e257312	0.16157177
119	0x3d928007	0.071533255
120	0x3c01708f	0.007900371
121	0x3e73e246	0.23816785
122	0x3eabbf3b	0.33544335
123	0x3e411cc9	0.18858637
124	0xbd7312ac	-0.05934398
125	0xbe49886c	-0.19680947
126	0xbb9202c7	-0.0044558975
127	0xbab48a26	-0.0013774082
128	0x3d5cee6f	0.053938325
129	0xbd85d3a6	-0.06534509
130	0xbc037a5c	-0.008024778
131	0x3dbd856d	0.092539646
132	0x3dfdb8ac	0.12388739
133	0xbddfcf2e	-0.10928188
134	0xbea13594	-0.3148619
135	0xbca20ded	-0.019782031
136	0xbcb8d57a	-0.022562731
137	0x3d8cc3a3	0.06873252
138	0x3d91076e	0.07081495
139	0xbcf11c94	-0.029432572
140	0xbd0be636	-0.034155093
141	0x3db7b3ee	0.08969866
142	0x3d13479e	0.03595697
143	0xbde73d01	-0.112909324
144	0x3d0b124b	0.033952992
145	0xbdf37ae7	-0.11888676
146	0xbd14e50d	-0.036351252
147	0x3da13a50	0.0787245
148	0x3d6d7926	0.057976864
149	0xbcc993f4	-0.024606682
150	0x3dd5bfc3	0.10436966
151	0x3e1757c2	0.1477957
152	0xbc74747e	-0.014920352
153	0x3e67e7b7	0.22646986
154	0x3c55c6f9	0.013047927
155	0xbd2e107b	-0.042496186
156	0x3ce7165e	0.028208908
157	0xbd05276d	-0.032508302
158	0xbdac8b41	-0.08424998
159	0x3d01f84f	0.031730946
160	0x3dc33e3d	0.095333554
161	0x3c0e17b7	0.008672646
162	0x3d4ea7cc	0.050452992
163	0xbd3a537c	-0.045489773
164	0x3c9587fe	0.018253323
165	0xbc9c10c5	-0.019050965
166	0xbd3d012f	-0.046143707
167	0x3d8c50f4	0.06851378
168	0x3da57538	0.08078998
169	0xbd1ec5aa	-0.038762726
170	0xbe34120c	-0.1758501
171	0x3dc22add	0.09480832
172	0x3cea3997	0.028591914
173	0x3cb415e8	0.021983102
174	0xbc08c924	-0.008348737
175	0xbc8318e9	-0.016003089
176	0xbcfd6069	-0.030929761
177	0x3b5e9558	0.0033963528
178	0xbdc7bf87	-0.09753328
179	0xbe64df1a	-0.22350731
180	0x3e379805	0.17929085
181	0x3da9a20c	0.08282861
182	0x3d1b3182	0.03788901
183	0xbd933d71	-0.071894534
184	0xbe3ff18c	-0.18744487
185	0xbdd17c47	-0.10228782
186	0xbc5969f0	-0.013269886
187	0xbcf5c2cb	-0.030000111
188	0xbde8535a	-0.11344023
189	0x3df1b862	0.11802746
190	0x3dfdfd35	0.12401811
191	0x3d0fe083	0.03512622
192	0xbd792a3e	-0.0608313
193	0xbe76e39b	-0.24110262
194	0xbe0127e6	-0.12612876
195	0xbd8d2cb0	-0.06893289
196	0xbe00edef	-0.12590764
197	0xbddb7ff1	-0.10717762
198	0x3d34c100	0.04412937
199	0xbca48271	-0.02008173
200	0xbd879e2b	-0.06621965
201	0xbe3ce9dd	-0.18448587
202	0xbe4e1730	-0.20126033
203	0xbe1371df	-0.14398907
204	0xbdbd8957	-0.09254711
205	0xbe2134d2	-0.15742806
206	0xbe163885	-0.14669998
207	0x3d1890fa	0.037247635
208	0xbd58ce35	-0.05293103
209	0xbd4bcc9f	-0.04975569
210	0xbe0044ce	-0.12526247
211	0xbe160a0a	-0.14652267
212	0xbd991908	-0.074754775
213	0xbdb9e40c	-0.090766996
214	0xbdc6c20d	-0.09704981
215	0xbdea816b	-0.11450466
216	0x3dd8fabc	0.10594699
217	0xbba3802d	-0.004989645
218	0xbcde5215	-0.02713875
219	0xbdc01253	-0.09378495
220	0xbdd9d00d	-0.10635386
221	0x3ba323ad	0.004978618
222	0x3cda1361	0.026620569
223	0x3d0b4e36	0.034010135
224	0xbd9e9e9f	-0.07745098
225	0x3e04ca8a	0.12967888
226	0xbd217a6f	-0.039423402
227	0x3a98db0f	0.0011661964
228	0xbd9fe348	-0.07807022
229	0xbd85cee3	-0.06533601
230	0x3cbbc903	0.022922998
231	0x3dce56c3	0.10075142
232	0x3dc01f81	0.09381009
233	0xbd805606	-0.06266408
234	0x3dac3654	0.084088
235	0xbc4dce9b	-0.012561466
236	0xbdf2ee0b	-0.11861809
237	0xbe3c9830	-0.1841743
238	0xbe2955b6	-0.16536602
239	0xbcded311	-0.027200254
240	0x3d47efc8	0.048812658
241	0x3ccbd9ab	0.024884066
242	0xbdb8b319	-0.09018535
243	0xbdd43887	-0.10362344
244	0xbc865821	-0.016399445
245	0xbe2be29e	-0.16785666
246	0xbe412db6	-0.18865094
247	0xbe1bd97d	-0.15219684
248	0xbdfb0faa	-0.12258847
249	0xbdde2b0d	-0.10848055
250	0x3c4f837c	0.012665626
251	0x3df56842	0.11982776
252	0xbdf0b293	-0.1175281
253	0xbca1764b	-0.019709727
254	0xbd80114a	-0.062532976
255	0xbe55ae36	-0.20867237

core.features.layer1.ds_conv.out_depth_conv.weight f4 [32, 32, 1, 1]
0	0x3d89c90b	0.06727799
1	0x3de3eeea	0.111295536
2	0xbcf27519	-0.029596852
3	0x3d0d953b	0.034566145
4	0xbe56773b	-0.2094392
5	0x3d945a79	0.07243819
6	0x3ae69766	0.0017592728
7	0x3e44ca1d	0.19217725
8	0x3de8b331	0.11362303
9	0xbd9502b9	-0.0727591
10	0xbe8a2374	-0.26980174
11	0xbdbd36ca	-0.09238966
12	0xbdec7a69	-0.115467854
13	0xbc1fab84	-0.009745482
14	0xbe1a9204	-0.15094763
15	0xbdaf8f25	-0.085722245
16	0x3ef9f8aa	0.48822528
17	0xb9bd33d7	-0.00036087513
18	0x3d960141	0.07324458
19	0x3e629696	0.22127756
20	0xbd356c6c	-0.044292852
21	0xbdd01154	-0.10159555
22	0xbe68a032	-0.2271736
23	0xbe2274c1	-0.1586485
24	0x3da5369e	0.08067058
25	0xbeb22e44	-0.34800923
26	0x3c85415f	0.016266523
27	0xbdb98137	-0.09057849
28	0xbe495404	-0.19660956
29	0x3e3587f0	0.17727637
30	0xbe16f738	-0.14742744
31	0x3ecc50e2	0.3990546
32	0xbde4848f	-0.11158096
33	0xbda363db	-0.0797803
34	0xbe983f3d	-0.29735747
35	0x3e49d540	0.19710255
36	0xbd19438e	-0.03741794
37	0xbe441fdd	-0.1915278
38	0xbc7f0af8	-0.01556658
39	0x3d9cc628	0.07654983
40	0x3e9fcbea	0.31210262
41	0x3e1dd478	0.15413082
42	0xbeb2e4f2	-0.34940296
43	0xbe00ec4f	-0.12590145
44	0x3dac212c	0.084047645
45	0x3e39eb07	0.18156062
46	0x3cc1be6c	0.02365037
47	0xbe41c80d	-0.1892397
48	0xbe9c341f	-0.30508515
49	0xbe66a134	-0.22522432
50	0xbebf6f8b	-0.37389788
51	0x3dde8bd8	0.10866517
52	0x3d54da0c	0.05196576
53	0x39d1bb85	0.000400033
54	0x3bb7da3f	0.0056107338
55	0x3e2ae2db	0.16688101
56	0x3eb72a71	0.35774568
57	0xbe0e9a31	-0.13926007
58	0x3e2c1ad7	0.16807114
59	0xbdb9dcaa	-0.090752915
60	0x3de7e320	0.113226175
61	0x3e76e4f3	0.24110775
62	0x3e4114dc	0.18855613
63	0xbdefbfef	-0.1170653
64	0x3df37e33	0.11889305
65	0xbed1bce0	-0.40964413
66	0x3d74895c	0.05970131
67	0x3f1256f2	0.5716392
68	0xbd98f156	-0.07467906
69	0x3eae0a17	0.33992073
70	0x3e97f7b9	0.29681185
71	0xbe8e5e78	-0.2780645
72	0x3e5ab334	0.21357423
73	0x3daaa514	0.083322674
74	0xbda44b51	-0.08022178
75	0x3f0ef7c2	0.558468
76	0x3dc0c3dc	0.09412357
77	0xbc997f78	-0.01873754
78	0xbea7b85b	-0.3275784
79	0x3d3f01df	0.046632644
80	0xbe08a6f4	-0.13344938
81	0x3dbb0177	0.09131139
82	0x3cd313c3	0.025766259
83	0xbe170816	-0.14749178
84	0x3f56e62a	0.8394495
85	0xbe0d5c0e	-0.13804647
86	0x3d20ab83	0.039226066
87	0xbe06a125	-0.1314741
88	0xbb8174bf	-0.003950685
89	0xbdd48bd7	-0.10378235
90	0x3f3eb411	0.7449351
91	0x390cd64a	0.0001343127
92	0xbdbc10b3	-0.091828726
93	0x3e00a7e8	0.12564051
94	0x3e194ad9	0.14969958
95	0xbd4a05e5	-0.049322028
96	0xbe5b4cb6	-0.21415982
97	0xbe69199d	-0.22763677
98	0x3a9ed730	0.0012118574
99	0x3e2a4a09	0.16629805
100	0x3e88ea5d	0.26741305
101	0xbe8b77a5	-0.2723972
102	0xbc43049e	-0.011902956
103	0xbf0a9251	-0.5412951
104	0x3eea7d2d	0.45798627
105	0x3aa0f09b	0.0012278737
106	0xbe2ce117	-0.1688274
107	0x3d77d19e	0.06050264
108	0xbe47311f	-0.19452332
109	0xbf5fcaa8	-0.87418604
110	0xbe614535	-0.21999057
111	0xbe07f183	-0.13275723
112	0x3d61412a	0.054993786
113	0x3dfc6db2	0.1232561
114	0x3e238f4c	0.15972632
115	0xbe07634d	-0.13221474
116	0xbd8a6652	-0.06757797
117	0x3d296309	0.041354213
118	0x3e724aea	0.2366139
119	0xbd551728	-0.052024037
120	0xbe0a3751	-0.13497664
121	0xbd3c989d	-0.04604398
122	0x3cdfb571	0.027308198
123	0xba9682cc	-0.0011483072
124	0x3e14c8ad	0.14529677
125	0x3d4c58e1	0.04988945
126	0xbd0105e3	-0.031499755
127	0xbd8d2f42	-0.06893779
128	0x3e145c6e	0.14488384
129	0x3ec108ad	0.37701932
130	0xbd5cdf07	-0.053923633
131	0xbe27507a	-0.16339293
132	0xbeb1516c	-0.34632432
133	0x3e13cc9b	0.1443352
134	0x3d3e089a	0.04639492
135	0x3e92ae3c	0.28648555
136	0xbec5bdfc	-0.3862151
137	0x3e0b974f	0.13631938
138	0x3ec3693e	0.3816623
139	0xbf2bd5c9	-0.67123085
140	0x3de96867	0.11396866
141	0x3ea4a9a8	0.32160687
142	0xbe132f35	-0.14373477
143	0xbba0faf6	-0.0049127294
144	0xbda4625b	-0.08026572
145	0x3cd4332a	0.025903303
146	0xbeb14fd8	-0.34631228
147	0xbdf73e57	-0.12072437
148	0x3dbc03cd	0.091804124
149	0xbe30d9eb	-0.17270629
150	0xbdc45248	-0.095860064
151	0xbd698c40	-0.05701852
152	0x3f2b786f	0.6698064
153	0xbde5263d	-0.11188934
154	0x3ddac415	0.10681931
155	0x3db5f81e	0.08885215
156	0xbc367c03	-0.011137965
157	0x3ed7e060	0.42163372
158	0xbe2a8a11	-0.1665423
159	0x3d550987	0.05201104
160	0x3e6d0c1b	0.23149149
161	0xbe153810	-0.14572167
162	0xbf150b88	-0.5822072
163	0x3d423023	0.047409188
164	0xbec185eb	-0.37797484
165	0xbd97c024	-0.07409695
166	0x3f0eeb28	0.5582757
167	0xbd0a2d7f	-0.033734795
168	0x3e460673	0.19338398
169	0x3d1d667f	0.038427826
170	0xbe9c94b5	-0.30582204
171	0xbd4a255c	-0.049352035
172	0x3e18cf59	0.14922847
173	0x3e3fc15e	0.18726107
174	0xbe9ef416	-0.31045598
175	0xbe8c790f	-0.2743611
176	0x3e2969ab	0.16544215
177	0xbe16f827	-0.147431
178	0xbd550aef	-0.05201238
179	0x3d383f63	0.044982325
180	0x3eaad603	0.33366403
181	0xbf22c581	-0.6358262
182	0xbe40ca8e	-0.18827268
183	0xbdbd6d16	-0.09249322
184	0xbcd5271a	-0.026019622
185	0xbf04c587	-0.518639
186	0xbe0f65b6	-0.14003643
187	0x3e2d63bf	0.16932581
188	0xbda332bd	-0.07968662
189	0xbe5153e6	-0.20442161
190	0x3e28767d	0.1645145
191	0x3dda9212	0.10672392
192	0x3d506ad2	0.05088312
193	0xbe5be9bc	-0.21475881
194	0xbd5ce718	-0.053931326
195	0x3d44b0e7	0.04802027
196	0xbe231f53	-0.15929918
197	0xbeada18e	-0.3391232
198	0xbeb36ee6	-0.35045546
199	0xbdf577bf	-0.119857304
200	0x3ce0b9d2	0.027432356
201	0x3ee9591e	0.45575804
202	0x3c76c3da	0.015061343
203	0xbee4c770	-0.4468341
204	0x3e837581	0.25675586
205	0x3dcaa218	0.09894198
206	0xbdb77631	-0.0895809
207	0xbefb707f	-0.49109265
208	0xbe18fb55	-0.14939626
209	0xbd52d28c	-0.051470324
210	0xbdef65dd	-0.11689351
211	0xbe08c3ee	-0.13355991
212	0xbe36e6ff	-0.17861556
213	0xbe6bedf4	-0.2303999
214	0xbe910d81	-0.28330615
215	0xbdda7ca9	-0.10668308
216	0x3d9c90e4	0.07644823
217	0x3d9fa0da	0.07794352
218	0xbe937663	-0.2880126
219	0x3e05366b	0.1300904
220	0xbe67c410	-0.22633386
221	0x3c449b48	0.011999913
222	0x3db90440	0.09034014
223	0x3e0e580a	0.13900772
224	0xbf28c327	-0.6592278
225	0xbe8ad5d8	-0.27116275
226	0xbe95e455	-0.29275766
227	0xbebdb55d	-0.37052432
228	0x3e6c76cc	0.23092192
229	0x3dc2e035	0.0951542
230	0xbce67aa5	-0.028134653
231	0x3e73d28e	0.23810789
232	0xbdae2753	-0.08503594
233	0xbd6885d2	-0.056768246
234	0xbe9b0c2e	-0.3028273
235	0x3e8ffe1a	0.28123552
236	0x3d09567d	0.033529747
237	0xbe98d0d8	-0.29846835
238	0x3f11d6be	0.56968296
239	0xbe0eff0b	-0.13964479
240	0x3dfdbb47	0.12389236
241	0xbe5b1db8	-0.21398056
242	0x3dc68a95	0.09694401
243	0x3e3c174e	0.18368265
244	0xbeaba97c	-0.33527744
245	0xbd9efa08	-0.077625334
246	0x3d502363	0.050814997
247	0x3de00eab	0.10940298
248	0xbe42aef6	-0.19012055
249	0xbcc1012f	-0.023560135
250	0x3eb31635	0.3497788
251	0x3dbedafd	0.093191124
252	0xbd68170b	-0.0566626
253	0xbd12eef7	-0.035872426
254	0xbd2c7ff5	-0.042114217
255	0x3d786d91	0.060651366

core.features.layer1.norm.weight f4 [32]
0	0x3f4c6e11	0.7985545
1	0x3f649328	0.8928704
2	0x40134684	2.301179
3	0x401c0dc0	2.4383392
4	0x3fdf3f95	1.7441279
5	0x3f8d0dee	1.1019876
6	0x3f88236a	1.0635808
7	0x3f565980	0.83730316
8	0x3fbc8327	1.4727525
9	0x3f67ec7c	0.9059522
10	0x3f648a93	0.8927395
11	0x3f3bf334	0.73417974
12	0x3f2fedb8	0.68722105
13	0x400311b2	2.047955
14	0x3f608f91	0.87719065
15	0x3f6e2061	0.93018156
16	0x3f67f0d7	0.9060187
17	0x3f6b0c78	0.918159
18	0x3f5aa38a	0.8540579
19	0x3f432ac5	0.76237136
20	0x3f340dff	0.70333856
21	0x3f7c47a2	0.98546803
22	0x3fb958c6	1.4480217
23	0x3f4a6c52	0.79071534
24	0x3f840edb	1.0317034
25	0x3f9786a2	1.1837962
26	0x3f5c82ea	0.8613726
27	0x3f708ef8	0.93968153
28	0x3f5928f7	0.8482813
29	0x3f9cdb41	1.2254411
30	0x3faad032	1.3344786
31	0x40002791	2.002415

core.features.layer1.norm.bias f4 [32]
0	0xbdc18d3c	-0.094507664
1	0x3e5e773d	0.21725173
2	0xbf7124ab	-0.94196576
3	0xbf8c3111	-1.0952474
4	0xbf2e6e3d	-0.6813696
5	0x3e409f1c	0.18810695
6	0x3d89ad10	0.06722462
7	0xbf19142e	-0.59796417
8	0xbd520020	-0.05126965
9	0xbe807944	-0.25092518
10	0xbeb5f244	-0.35536397
11	0xbdb7b91d	-0.089708544
12	0x3f89b653	1.0758766
13	0xbf2fde8f	-0.6869897
14	0xbe09543a	-0.13411036
15	0xbfc9c2a3	-1.5762523
16	0xbdc82196	-0.09772031
17	0xbe5d9ea2	-0.21642545
18	0xbf20da64	-0.6283324
19	0xbf2ed3e9	-0.682921
20	0x3ece694d	0.40314713
21	0xbe69cb4a	-0.22831455
22	0xbec394ff	-0.38199612
23	0x3e757fa1	0.23974468
24	0xbebf6531	-0.3738189
25	0xbf5a6133	-0.85304564
26	0xbf31453e	-0.6924628
27	0xbedfd364	-0.43715966
28	0xbf181979	-0.5941387
29	0xbf17edea	-0.59347403
30	0xbf0a20da	-0.5395638
31	0xbf395b50	-0.72404957

core.features.layer1.norm.running_mean f4 [32]
0	0xc01eeb8e	-2.483127
1	0xbe7f2724	-0.24917275
2	0xbf6d89e9	-0.9278856
3	0xbfa49dd1	-1.2860662
4	0xbe54a454	-0.20765811
5	0xbfea92a9	-1.8326007
6	0xbeaa9200	-0.33314514
7	0x3fa245de	1.2677572
8	0x3f1560ae	0.58350646
9	0xbfbfefa4	-1.4995008
10	0x3f338a6a	0.7013308
11	0xc00c8051	-2.1953318
12	0xbcf08eec	-0.029365025
13	0xbeef93f3	-0.46792564
14	0x3e9bf7ae	0.30462402
15	0xbfecea0f	-1.8508929
16	0xbc0f7495	-0.008755823
17	0xbedddbef	-0.4333186
18	0xbfc8a47c	-1.5675197
19	0xbf971be8	-1.1805391
20	0x407490fc	3.8213491
21	0x3e27cdfa	0.16387168
22	0xbf6de263	-0.92923564
23	0x3e6aba2e	0.22922584
24	0xc037003f	-2.85939
25	0xc03cf563	-2.9524772
26	0xbecc2b42	-0.39876753
27	0x3fa231af	1.2671412
28	0xbfb634a6	-1.4234817
29	0xbfa68670	-1.3009777
30	0x3f23278c	0.6373222
31	0xbf490b66	-0.7853302

core.features.layer1.norm.running_var f4 [32]
0	0x40b25c2e	5.5737524
1	0x407e1d67	3.9705446
2	0x42296ad5	42.35433
3	0x41fa93e9	31.322222
4	0x41d77fa8	26.937332
5	0x4196044f	18.752104
6	0x415472d6	13.278036
7	0x41831e46	16.389782
8	0x4206f159	33.73569
9	0x41288744	10.533024
10	0x4143a5a8	12.227943
11	0x41118e06	9.097174
12	0x40f4b1c2	7.646699
13	0x42483b00	50.057617
14	0x413d6b3d	11.838681
15	0x40d77730	6.7332993
16	0x4109fe6b	8.624614
17	0x4140e05d	12.054776
18	0x413faa31	11.979051
19	0x419e15d8	19.760666
20	0x412938a0	10.576324
21	0x41472b34	12.448048
22	0x41c4aae9	24.583452
23	0x40ceaa31	6.4582753
24	0x418ccca4	17.599922
25	0x41b83c73	23.029516
26	0x411af355	9.684407
27	0x4091b0dd	4.5528398
28	0x412c458c	10.766979
29	0x41282bc4	10.510685
30	0x419b6596	19.424603
31	0x422301f0	40.751892

core.features.layer1.seg_ex_block.se.1.weight f4 [2, 32]
0	0xbd0a49dc	-0.033761844
1	0xbd5a1de9	-0.05325118
2	0xbf1343ae	-0.57525146
3	0x3cfdf7b6	0.031001907
4	0x3e310d5d	0.17290254
5	0x3e8e0b40	0.27742958
6	0x3dfa1bcc	0.12212333
7	0x3e32fad5	0.17478497
8	0xbe8d0778	-0.2754476
9	0x3ea490d9	0.3214176
10	0x3e571f3f	0.21008013
11	0xbdc63c21	-0.096794374
12	0x3e84273c	0.25811183
13	0xbebd95b4	-0.37028277
14	0x3e44b878	0.19210994
15	0xbdef55ad	-0.11686263
16	0x3e8af5c2	0.27140623
17	0x3e992661	0.29912093
18	0x3d8555c3	0.065104984
19	0x3e4cbdf4	0.19994336
20	0x3d1d058a	0.03833536
21	0x3edf4f0e	0.43615
22	0x3d72d145	0.059281606
23	0x3eb98502	0.3623429
24	0xbe07651c	-0.13222164
25	0x3e4380a7	0.19092046
26	0xbe067153	-0.13129167
27	0x3eb25550	0.34830713
28	0x3e27a6ce	0.16372225
29	0xbd4d0160	-0.05005014
30	0x3f0640d8	0.52442694
31	0xbf21cc78	-0.6320262
32	0x3e032dc3	0.12810425
33	0x3e28246f	0.16420148
34	0xbf57af3f	-0.8425178
35	0xbed7b2c5	-0.42128578
36	0xbeff32da	-0.49843484
37	0xbdd6e7b8	-0.104934156
38	0x3e949d0c	0.29026067
39	0xbe07eb4a	-0.1327335
40	0xbe1a4e25	-0.15068872
41	0xbd5bc6a1	-0.053656224
42	0xbd55f5a9	-0.052236233
43	0x3e993304	0.29921734
44	0x3dcd2e8f	0.10018646
45	0xbee382ff	-0.4443588
46	0xbdb38943	-0.08766415
47	0x3d89034c	0.06690082
48	0xbdfe8bc8	-0.12429005
49	0xbd74a1b0	-0.05972451
50	0x3e9637d9	0.29339483
51	0xbeb287d2	-0.34869248
52	0xbccd7e38	-0.0250846
53	0xbe18900d	-0.14898701
54	0xbdd457eb	-0.103683315
55	0x3d899a68	0.06718904
56	0x3e881f18	0.26586223
57	0x3e1bf581	0.15230371
58	0xbd6a1eb7	-0.0571582
59	0xbda2fe13	-0.07958617
60	0x3e2ae463	0.16688685
61	0x3e757bdf	0.23973034
62	0x3d124238	0.035707682
63	0xbd8f119f	-0.06985783

core.features.layer1.seg_ex_block.se.1.bias f4 [2]
0	0x3e5ee638	0.21767509
1	0x3e75882b	0.23977725

core.features.layer1.seg_ex_block.se.3.weight f4 [32, 2]
0	0xbdd15c8a	-0.102227286
1	0x3ef1f358	0.4725597
2	0xbf10b4b4	-0.5652573
3	0x3e9112bb	0.28334603
4	0x3ee190e9	0.4405587
5	0x3f2b6206	0.66946447
6	0xbe6614ec	-0.22468919
7	0x3f695965	0.9115203
8	0xbefdc776	-0.4956624
9	0x3f3ef512	0.745927
10	0xbf1fe66e	-0.6246098
11	0xbeacf324	-0.33779252
12	0xbf0d9c47	-0.55316585
13	0x3eb60974	0.35554087
14	0xbf259bf4	-0.6469109
15	0x3f4b5fdd	0.7944315
16	0x3e9ca825	0.30597034
17	0x3f5e7770	0.86901
18	0x3eaa69bd	0.33283797
19	0x3ecff358	0.40615344
20	0xbe2259d4	-0.15854579
21	0x3ee03959	0.43793753
22	0xbeaa9795	-0.33318773
23	0x3e9251bc	0.28577983
24	0xbf1a209f	-0.60206026
25	0xbf3ab3fa	-0.7293087
26	0x3ed766f6	0.4207074
27	0x3f35e44a	0.71051466
28	0x3d0ed70a	0.034873046
29	0x3eb596dc	0.3546666
30	0xbecb1cc8	-0.39670396
31	0x3f138257	0.5762076
32	0xbea86913	-0.32892665
33	0xbd130b06	-0.035899185
34	0x3dc3e07e	0.09564303
35	0x3d6bbe54	0.057554558
36	0x3f4881cf	0.7832307
37	0x3f15e075	0.5854562
38	0x3f7a96f6	0.978866
39	0xbe729aec	-0.2369191
40	0xbe21b0b0	-0.15790057
41	0x3da14c6a	0.07875903
42	0xbf0957b0	-0.53649426
43	0x3ebd7c32	0.37008816
44	0xbed3d2bd	-0.41371718
45	0x3f063926	0.5243095
46	0xbdb9d681	-0.090741165
47	0x3ed61a2e	0.4181685
48	0xbee3d934	-0.4450165
49	0x3e7987d6	0.24368224
50	0xbe8e09e9	-0.27741936
51	0x3f1a21b3	0.6020767
52	0xbe98abf2	-0.29818684
53	0x3f01334d	0.50468904
54	0xbf00a629	-0.5025354
55	0x3e57c13f	0.21069811
56	0xbe4ba5b6	-0.19887432
57	0xbd89a6c2	-0.0672126
58	0x3ecf1f92	0.40453774
59	0x3df4e5e7	0.11957913
60	0xbe736299	-0.23768081
61	0x3ea23bb1	0.31686166
62	0x3e52b069	0.20575108
63	0x3f5d8e11	0.865449

core.features.layer1.seg_ex_block.se.3.bias f4 [32]
0	0x3e3eea1b	0.18643992
1	0xbd230c2a	-0.039806522
2	0xbeba5c44	-0.36398518
3	0x3ea70c26	0.32626456
4	0xbe382c65	-0.17985685
5	0x3e2bfc5f	0.1679549
6	0xbe08e732	-0.13369444
7	0xbe5f2f29	-0.21795334
8	0xbef060d2	-0.46948868
9	0xbebae5be	-0.36503404
10	0xbe331532	-0.17488554
11	0x3e9f0ade	0.31062979
12	0xbee98900	-0.45612335
13	0xbe184327	-0.14869367
14	0x3efd0102	0.4941483
15	0x3e73e47d	0.2381763
16	0xbebbdf91	-0.36694005
17	0x3e9b6d7c	0.30356967
18	0x3ea554a5	0.3229114
19	0x3e34c8a6	0.17654666
20	0x3e21152d	0.15730734
21	0xbd9f6b34	-0.07784119
22	0xbd02e636	-0.031957828
23	0xbe6aad9a	-0.22917786
24	0x3e949262	0.2901793
25	0x3efec2b4	0.49757922
26	0x3d1d37e6	0.038383387
27	0xbf149bc1	-0.5805016
28	0x3cbd5492	0.023111615
29	0xbeb8a49c	-0.36063087
30	0xbf079d2d	-0.52974206
31	0x3e0ee1d7	0.13953339

core.features.layer2.ds_conv.in_depth_conv.weight f4 [32, 32, 1, 1]
0	0x3ebe71fe	0.37196344
1	0xbe579b54	-0.21055347
2	0x3e4254bb	0.18977635
3	0x3ea6462e	0.32475418
4	0x3f049b6f	0.5179967
5	0xbcd4625d	-0.02592581
6	0xbdee772c	-0.11643824
7	0x3d933208	0.07187277
8	0x3db19a0f	0.086719625
9	0x3e836aed	0.25667515
10	0x3cede1ad	0.029038275
11	0x3dfec382	0.12439634
12	0x3d7d3fd9	0.061828468
13	0xbd8f9d36	-0.070124075
14	0xbe661edc	-0.2247271
15	0xbd2b1efb	-0.041777592
16	0xbd8c4ab3	-0.06850185
17	0xbe7b1478	-0.24519527
18	0xbee06574	-0.43827403
19	0xbdb1945b	-0.08670875
20	0xbe89c4a4	-0.26907837
21	0xbe2daf5e	-0.16961429
22	0xbe18318b	-0.14862649
23	0x3dac4ced	0.0841311
24	0xbe6d255b	-0.23158781
25	0x3cb77c02	0.022397999
26	0xbd9b53de	-0.07584356
27	0x3ae9b2fa	0.0017829828
28	0xbe72b00c	-0.23699969
29	0xbe49c2fc	-0.19703287
30	0x3e29658f	0.16542648
31	0x3db59122	0.088655725
32	0x3eaa4397	0.33254692
33	0x3c267354	0.010159332
34	0xbd1581ff	-0.036500927
35	0x3e88d40a	0.26724273
36	0x3f128e2a	0.57248175
37	0xbe3e2b66	-0.18571243
38	0x3cb4ff20	0.02209431
39	0xbdf62237	-0.12018245
40	0x3e4001b6	0.18750653
41	0x3d881646	0.06644873
42	0x3e264e34	0.1624077
43	0xbdbe8340	-0.09302378
44	0xbcb929bd	-0.02260291
45	0xbdc4cdf0	-0.09609592
46	0xbd0b57f5	-0.03401943
47	0x3ee36a3c	0.44416988
48	0x3d9f5f38	0.077818334
49	0xbe810cce	-0.25205082
50	0xbee07127	-0.43836328
51	0xbe226da1	-0.15862133
52	0x3d9293ec	0.0715712
53	0x3e26a65a	0.16274396
54	0x3e35f9c7	0.17771064
55	0xbc4f389c	-0.012647774
56	0xbe524b5b	-0.20536558
57	0x3ec14d3b	0.37754235
58	0xbcdbe456	-0.026842277
59	0x3f044958	0.51674414
60	0x3e296e3b	0.16545956
61	0x3def0ec8	0.11672741
62	0x3ecdd040	0.40197945
63	0xbdaf09d6	-0.08546798
64	0x3e82f8ac	0.25580347
65	0x3eaae062	0.33374316
66	0xbeb46379	-0.35232142
67	0x3f1d6219	0.6147781
68	0xbe1271ae	-0.14301178
69	0x3d1ba7df	0.03800189
70	0xbd6bf302	-0.057604797
71	0xbe886637	-0.26640484
72	0xbd881208	-0.06644064
73	0xbde0fb6f	-0.10985457
74	0xbdcb5456	-0.09928195
75	0x3e272bde	0.16325328
76	0x3e496260	0.19666433
77	0xbde2e463	-0.110787176
78	0xbd9ecd41	-0.07753993
79	0xbdf39afa	-0.11894794
80	0x3e04184e	0.12899897
81	0xbd890f24	-0.06692341
82	0xbe1aa80e	-0.1510317
83	0x3e85a9cf	0.26106116
84	0x3e0ec626	0.13942775
85	0x3d226575	0.03964754
86	0xbe96ce6b	-0.2945436
87	0xbe62eeba	-0.2216138
88	0xbee60881	-0.44928363
89	0xbdcac04d	-0.0989996
90	0xbcd02478	-0.025408015
91	0xbedc1bd8	-0.42989993
92	0xbefe87d9	-0.4971302
93	0xbe19a5c2	-0.15004638
94	0x3de4a5b6	0.11164419
95	0x3dd1efd2	0.1025082
96	0x3d054364	0.03253497
97	0xbe27cf60	-0.16387701
98	0xbe1f3b7d	-0.15550037
99	0x3f214fa0	0.63012123
100	0x3ed2630f	0.410912
101	0xbeb88b2a	-0.36043674
102	0xbc5e64ee	-0.013573868
103	0x3dc2e5fa	0.09516521
104	0x3e81b53d	0.25333586
105	0xbe844199	-0.25831297
106	0xbe87c32f	-0.265161
107	0x3ddbc777	0.10731404
108	0x3c372745	0.011178796
109	0x3ce8aa06	0.028401386
110	0xbc1c4c4e	-0.009539677
111	0xbd9906a6	-0.07471971
112	0xbf0a28ce	-0.53968513
113	0xbe5088bb	-0.20364659
114	0xbe8b96ed	-0.27263585
115	0xbeee1a6f	-0.46504542
116	0x3dae5e05	0.085140266
117	0x3cc6cef4	0.024268605
118	0x3e163f7a	0.14672652
119	0xbe088ab9	-0.13334168
120	0xbe5bd354	-0.21467334
121	0xbe5f9ae4	-0.2183643
122	0xbc9ec9b8	-0.019383296
123	0x3d8202a6	0.063481614
124	0x3f2054cf	0.6262941
125	0xbcf72cc6	-0.030172717
126	0xbd08f2ad	-0.03343456
127	0x3f02224d	0.5083359
128	0x3e0c5eab	0.13707988
129	0x3da22026	0.07916288
130	0xbe52a932	-0.20572355
131	0xbea68fcf	-0.32531592
132	0x3e71168d	0.23543759
133	0x3e11a590	0.14223313
134	0x3e345779	0.17611493
135	0xbdce1d46	-0.10064177
136	0xbdbe28dc	-0.09285137
137	0x3e091a8a	0.1338903
138	0x3de8d64e	0.113690004
139	0x3e559346	0.20856962
140	0x3ead14a9	0.33804825
141	0x3e23aab3	0.15983085
142	0x3e0a5aa9	0.13511147
143	0x3e9bab3f	0.30404088
144	0x3ecdb0bd	0.40173903
145	0xbc6a7ef4	-0.014312495
146	0xbcb19004	-0.021675117
147	0x3e9f91ed	0.3116602
148	0x3c03a083	0.008033874
149	0x3e47fd58	0.19530237
150	0x3d41d93b	0.047326308
151	0xbe96bc6b	-0.29440627
152	0xbed41206	-0.4142
153	0xbf4622d1	-0.77396876
154	0x3ed67236	0.4188401
155	0x3e5626c7	0.2091323
156	0xbea92d36	-0.33042306
157	0x3ee3c134	0.4448334
158	0x3d52f366	0.051501654
159	0xbd964024	-0.073364526
160	0xbec03c9a	-0.37546235
161	0xbef50b51	-0.47860196
162	0x3dd5023e	0.10400818
163	0xbe93a31c	-0.2883538
164	0x3eb99e2b	0.36253485
165	0x3e2cdf9c	0.16882175
166	0x3e688ea7	0.22710668
167	0xbe859d87	-0.26096746
168	0x3e0b9747	0.13631926
169	0x3dddd939	0.108324476
170	0x3e224118	0.15845144
171	0x3ec0c6d6	0.376517
172	0x3d6f9d74	0.05849977
173	0xbd592efe	-0.05302333
174	0x3e1b142c	0.15144414
175	0x3e5bd6fd	0.2146873
176	0xbe8c2fe5	-0.2738029
177	0x3ed1c124	0.40967667
178	0x3d1a1423	0.03761686
179	0x3dd679be	0.10472439
180	0xbe116d4f	-0.14201854
181	0x3e0da607	0.13832866
182	0x3e9915cb	0.2989944
183	0xbec164ac	-0.3777212
184	0xbe885953	-0.2663065
185	0xbeb9e30e	-0.3630604
186	0x3f09fe79	0.5390392
187	0x3e35fcd1	0.17772223
188	0xbe560165	-0.2089897
189	0xbdc075d2	-0.093974724
190	0x3e1425c6	0.14467534
191	0x3ddff66e	0.109356746
192	0xbb7de8a1	-0.0038743394
193	0x3f086f89	0.5329519
194	0x3e6385f7	0.22219072
195	0x3c79d149	0.015247651
196	0xbdf0b357	-0.11752956
197	0xbe76ee07	-0.24114238
198	0x3e82d613	0.2555395
199	0xbd2d4ea2	-0.04231132
200	0x3e33b2f3	0.17548732
201	0x3e46bb12	0.19407299
202	0x3de8ebe1	0.11373115
203	0xbe5da139	-0.21643533
204	0xbd77fdbd	-0.060544718
205	0xbe286578	-0.16444957
206	0xbc7f1c58	-0.0155707225
207	0x3e20e8b5	0.1571377
208	0xbd12c0ae	-0.035828285
209	0x3c56a3e8	0.013100602
210	0x3dc7d825	0.09758023
211	0x3ee46201	0.4460602
212	0x3e9c84ef	0.3057017
213	0xbe563ba7	-0.20921193
214	0x3e8266e7	0.25469133
215	0x3f0a3630	0.53988934
216	0x3e8d3734	0.2758118
217	0xbe007eb8	-0.1254834
218	0xbe1a1d14	-0.15050155
219	0x3e51ba3b	0.20481198
220	0x3e06e821	0.13174488
221	0xbe285d46	-0.16441831
222	0x3df72382	0.120673195
223	0x3d60c4d9	0.05487523
224	0xbe2295c7	-0.15877448
225	0x3e5d751e	0.21626708
226	0xbd46ee78	-0.048567265
227	0x3e7652a2	0.2405496
228	0x3d333e4b	0.04376058
229	0xbe4a0ed2	-0.19732216
230	0xbe7be726	-0.24599895
231	0xbe03c7a8	-0.12869132
232	0xbdece2df	-0.1156671
233	0xbe13086a	-0.14358678
234	0xbe7bf130	-0.24603724
235	0xbea8a937	-0.329416
236	0xbdd313dd	-0.10306523
237	0x3dc88dbd	0.097926594
238	0x3de3613c	0.1110253
239	0xbe3e4139	-0.18579568
240	0xbf27bd99	-0.6552368
241	0x3e937da6	0.288068
242	0xbe8815fe	-0.2657928
243	0x3d02b6d7	0.03191265
244	0xbee13da5	-0.43992344
245	0xbc99a5ac	-0.018755756
246	0x3d71791f	0.0589534
247	0x3eb9a223	0.36256513
248	0x3e14150a	0.14461151
249	0xbe11f4b6	-0.14253506
250	0x3d1aabd1	0.037761513
251	0xbeb86394	-0.36013472
252	0xbdaf7e64	-0.08569029
253	0x3e7c76ba	0.24654666
254	0xbe551d8b	-0.20812051
255	0x3e7bfa2c	0.24607152
