nnvision/data/model_weights/v1_data_driven/sota_cnn_ensemble_model_7.pth.tar (torch, 309331 bytes, 30 tensors)

core.features.layer0.conv.weight f4 [32, 1, 24, 24]
00000000: eec6 5cbd fd3c 45bd 0d51 16bd af1d 86bc
00000010: d99b 67bb 0c07 0f3b 102c 6d3b 82b2 393b
00000020: e8f3 0d3c b180 3b3c aee8 923c ba32 f83c
00000030: 485b 343d 9e7f 4b3d a2ec 4c3d 8de5 3b3d
00000040: aba0 293d 6e2d 143d 043a 073d df21 e03c
00000050: fd15 0a3d 9363 2d3d 21e1 653d 1a21 4c3d
00000060: 74d7 35bd 527d febc 2fa9 a4bc edb5 943b
00000070: 0a12 9e3c a079 e83c 2e00 053d cce7 133d
00000080: c2ff 403d 8c54 633d ad09 853d 680e a83d
00000090: b095 bd3d 1ab2 b23d 4fe2 903d 690f 533d
000000a0: 5a9e 203d 5b39 063d ddae 033d d6c3 e73c
000000b0: eefe 123d f7c1 363d 7b60 783d 6aca 613d
000000c0: 11b7 0ebd 6a5c c7bc 0ec1 83bc 7784 3f3c
000000d0: 9798 013d 8b06 3c3d 4278 6e3d 6792 8a3d
000000e0: d1c8 b83d 134d d63d d3ac e73d 8832 023e
000000f0: 97d4 023e 6406 da3d 07ac 863d 1ecf e23c
00000100: 81cb 0b3c 512c 313c 4fac 9c3c 4609 ca3c
00000110: 07b0 093d 88b8 2c3d e1f0 693d eb2d 553d
00000120: cfbe 1abd 4bd3 c9bc 3093 65bc 9b37 a33c
00000130: 7b98 213d bdab 593d 165d 8b3d a453 b43d
00000140: 0e46 fd3d dd1d 173e 0ab6 1b3e 6823 233e
00000150: a766 1c3e 9230 f83d 8c55 813d 6b0f 183c
00000160: 1535 49bc c9f0 71ba 6003 7a3c 9431 d03c
00000170: 0c24 0a3d da49 293d 0ca6 6c3d fcaa 603d
00000180: 1687 11bd 476c bebc aae6 64bc a126 a83c
00000190: 287e 2c3d a006 653d a635 983d 852f cb3d
000001a0: d9d2 0d3e 818d 273e 4424 213e 3cad 1f3e
000001b0: 0b08 123e 3bb3 e63d 595b 4a3d 6169 fcbb
000001c0: 8bc7 f0bc 5826 1abc 5e6f 5b3c fbf7 fe3c
000001d0: 8bcc 323d 4b67 5f3d f1cb 8b3d 076b 823d
000001e0: 189b 94bc e323 e6bb 3216 6fbb 6ad1 a73c
000001f0: 5f41 103d 0f22 483d c47e 893d 8810 bb3d
00000200: 7029 fa3d 4ec6 133e ba3e 0b3e 36f5 093e
00000210: ebd3 003e 7a30 da3d 634f 593d b2b6 583b
00000220: bad5 95bc b82b a13b 410c 023d a503 663d
00000230: 9033 913d b16c a33d 3c24 b73d 837b a63d
00000240: 7a5f 0ebb c907 cc3b 1734 8d3b 012b b23c
00000250: 6ea1 133d ebb4 533d 34cb 953d 4b61 bc3d
00000260: 35bc db3d ff2e fa3d 5f97 de3d 1e7f de3d
00000270: b959 c63d 9bd6 b13d 38e3 3a3d cfb7 583c
00000280: 6acf 9d3a 8265 0f3d 8474 923d 10ff cc3d
00000290: fea5 e63d 9c31 ee3d 3417 f83d 637b dc3d
000002a0: 0403 0e3c 9122 8b3c 3a9e 7b3c 710d cf3c
000002b0: b2e9 0d3d 68a2 383d 2c64 803d 6148 a83d
000002c0: ea0e ba3d 8ed4 ca3d cbdf a53d 4a69 9f3d
000002d0: 70d0 823d 28b2 663d e50f d63c d412 4f3c
000002e0: 80bf 7b3c 955a 823d 2bcf dd3d 80e9 0c3e
000002f0: e156 123e ba27 0d3e ee79 103e ada9 003e
00000300: 30b8 c43c 2203 ef3c ea6f a53c ec60 d73c
00000310: 6420 0d3d 1c8b 2a3d 52b1 673d c456 983d
00000320: 717c a83d 2a6c b63d f619 883d 961f 813d
00000330: 711f 343d 1815 073d 0289 433b c21f 7c39
00000340: 9769 943c fd93 a63d d68a 0a3e 1854 293e
00000350: 93d3 2b3e 3e6f 233e d255 293e f3a7 173e
00000360: 3e46 033d 3c66 143d 2ca2 c63c 8844 c33c
00000370: 0cf9 c73c 9a02 d93c bce2 1b3d e473 673d
00000380: 3c66 8c3d f763 9a3d bc92 4e3d 1664 3a3d
00000390: 73d9 bb3c 1a1b eb3b c72e cabc 2fa1 ccbc
000003a0: ca5d 0b3b 0b42 943d ac57 053e 7ab8 213e
000003b0: d28d 273e 2c4e 223e 01e3 2e3e 0596 1b3e
000003c0: 7480 0a3d dd9f 0a3d d986 b53c 682a 873c
000003d0: ca84 3d3c 4c6f 003c 610b 7c3c 6554 073d
000003e0: 23f9 393d 40ca 4f3d 1195 f93c 70ee ff3c
000003f0: 12e7 1c3c c6d6 ccbb c53f 20bd 41cb 21bd
-0.05390065 -0.048153866 -0.03669839 -0.016371576 -0.0035340695 0.0021824269 0.0036189593 0.0028335159
0.008664109 0.011444257 0.017933216 0.030297626 0.044032365 0.049682252 0.050030358 0.045873214
0.04141299 0.036176138 0.033014312 0.027359901 0.033712376 0.04233129 0.056122903 0.049836256
-0.044394925 -0.031065617 -0.020100204 0.004538289 0.019295711 0.028378308 0.032470874 0.03610973
0.04711891 0.055500552 0.06495986 0.08205873 0.09257066 0.087253764 0.07074415 0.05152837
0.039213516 0.032769542 0.032149184 0.028291624 0.03588765 0.044618573 0.060638886 0.055124678
-0.034842554 -0.024336059 -0.016083267 0.011689297 0.03163966 0.045904677 0.058220156 0.06766205
0.09022678 0.104639195 0.113122605 0.12714589 0.12776409 0.1064575 0.0657578 0.027686652
0.008532406 0.0108137885 0.019125132 0.024662625 0.03361514 0.04216817 0.057114486 0.052045744
-0.037779626 -0.024636885 -0.014012143 0.019923976 0.039452057 0.053142298 0.06804864 0.08805016
0.123668775 0.14757486 0.15206161 0.15931475 0.15273534 0.12118639 0.06315145 0.00928102
-0.012280722 -0.00092293 0.015259594 0.025414266 0.033725783 0.041330196 0.057775542 0.054850563
-0.03552922 -0.02324499 -0.01397101 0.020526232 0.0421125 0.05591452 0.074321076 0.09921173
0.13849963 0.16362573 0.1573649 0.15593427 0.1426088 0.11264654 0.049403522 -0.007702992
-0.029392025 -0.009408556 0.013393251 0.031124106 0.0436521 0.054541867 0.06826008 0.0636807
-0.01814036 -0.007023321 -0.0036481735 0.020485599 0.035218593 0.048860606 0.06713632 0.091340125
0.12214935 0.14431116 0.13598147 0.13472447 0.1258084 0.106537774 0.053054225 0.003306788
-0.01829039 0.0049185418 0.031749967 0.05615582 0.07089913 0.079797156 0.08942458 0.08129027
-0.002172439 0.006226514 0.004309188 0.021749021 0.036042623 0.05168621 0.073141485 0.09198245
0.10729257 0.12215995 0.108687155 0.108640894 0.09685082 0.08683511 0.04562685 0.013227417
0.0012039964 0.035008915 0.0715113 0.10009587 0.11262129 0.11630556 0.12113801 0.10765722
0.008667711 0.016984256 0.015357548 0.025274964 0.034646697 0.045076758 0.06269106 0.0821693
0.09084876 0.09903823 0.08099326 0.07783754 0.063874125 0.056322247 0.026130626 0.012638766
0.015365481 0.063649334 0.1083053 0.13760948 0.14290954 0.13784686 0.14109012 0.12564726
0.024013609 0.029176299 0.020194966 0.026291333 0.03445472 0.04163657 0.05656559 0.07438424
0.0822686 0.089073494 0.06645577 0.06304853 0.043975297 0.0329791 0.0029836302 0.00024044423
0.018116755 0.08133695 0.13529524 0.16535985 0.16779928 0.15960404 0.16536644 0.14810161
0.03204941 0.03623031 0.024247251 0.02383639 0.024410747 0.026490498 0.038058028 0.056507006
0.06855437 0.07538598 0.050432906 0.045505606 0.022930836 0.0071748616 -0.024680508 -0.024979202
0.002126562 0.07239159 0.13021725 0.15793028 0.16362694 0.15850133 0.17078783 0.15193947
0.03381391 0.033843864 0.022159027 0.016499713 0.011567304 0.007839035 0.015383572 0.03303947
0.04540361 0.05072999 0.030466588 0.031241626 0.009576576 -0.006251189 -0.039123315 -0.03950048

core.features.layer0.norm.weight f4 [32]
00000000: f7bf f23e d1ce 913f 8a64 2e3f ab52 003f
00000010: 6581 4b3f 7ee5 223f d9f2 523f f8b3 963f
00000020: 809b 413f 5a3e 6b3f 4197 313f 83fd 9c3f
00000030: c6e7 4b3f 7469 373f 9e28 9b3f a2a7 833f
00000040: 7801 1040 61c1 b93f 0d03 383f 8ed4 2f3f
00000050: fbf2 023f 423d c83f f146 863f c470 513f
00000060: 13b6 3640 145d 643f cd3e 9d3f 54b7 a83f
00000070: e3e5 683f 7062 aa3f 9873 213f 2449 3c3f
0.47412083 1.139124 0.6812216 0.5012614 0.79494315 0.6363143 0.82401806 1.1773672
0.756279 0.91892016 0.6937142 1.2264866 0.79650533 0.71645284 1.212177 1.0285532
2.2500896 1.451214 0.71879655 0.6868371 0.5115201 1.5643694 1.04904 0.8181269
2.854863 0.89204526 1.228479 1.3180947 0.9097578 1.3311291 0.6306701 0.73549104

core.features.layer0.norm.bias f4 [32]
00000000: 263b ee3d d521 d13e 4327 9f3e 4ee0 8bbe
00000010: f835 363d 1ce9 99bc 3cea dfbe 474c 353f
00000020: 0fac a33e e4a6 023f d538 20bf 496a ee3d
00000030: dd15 eabd fd25 d33c 90d8 82be 3513 3f3f
00000040: fa1b 8ebf d4fb c9be 20ec cbbe c15a 053e
00000050: f9e7 95be 7097 07be 81e8 06bf 553d 9d3e
00000060: ac97 b2bf 6bc9 d03e e9df 033e 3bf8 213f
00000070: f327 7ebf 9c26 debe 5bb0 8739 9c8f 5abf
0.116323754 0.40846124 0.31084642 -0.27319568 0.044485062 -0.018787913 -0.43733394 0.70819515
0.31967208 0.51035905 -0.6258672 0.11641366 -0.11429951 0.02577495 -0.2555585 0.7463868
-1.1102288 -0.39449942 -0.39828587 0.13022901 -0.29278544 -0.13241363 -0.5269852 0.30710855
-1.3952537 0.4077867 0.12878384 0.63269395 -0.9927971 -0.43388832 0.00025880602 -0.8537538

core.features.layer0.norm.running_mean f4 [32]
00000000: 5523 8a3e 1c32 a3bd 3a92 703d e362 f33c
00000010: 575a 2dbe 02e9 3c3d 2d11 f1bd 7a62 a83e
00000020: 3561 1f3e d3ab 8cbd 7c50 323e bf13 08be
00000030: b404 553d 8c87 2bbe b614 f0be 8d56 35bc
00000040: 2227 bfba 17cc 07bd a105 c5bc 490a fabe
00000050: b9d9 5bbd c3de ac3d 021a 3e3c a909 3b3e
00000060: 8c99 c4b9 86fa 313e 438d 0c3f 69b1 6ebc
00000070: 025c 6abd c835 0ebf f1c6 24be 148a 85bd
0.2698008 -0.07968542 0.058733203 0.029710239 -0.16928993 0.04612065 -0.11770854 0.32887632
0.15564425 -0.0686871 0.17413515 -0.13288783 0.05200644 -0.16750926 -0.468908 -0.011067999
-0.0014583806 -0.03315362 -0.024050536 -0.48835972 -0.053674433 0.08440926 0.01160288 0.18265404
-0.00037498435 0.17380723 0.5490305 -0.014568665 -0.05721665 -0.55550814 -0.16091515 -0.06520477

core.features.layer0.norm.running_var f4 [32]
00000000: d8f4 5b43 1ba3 8f42 9fe2 4642 04c5 3242
00000010: 3193 5943 1adf bf42 b8e3 4143 4fca b143
00000020: f120 fe42 f200 2544 c441 1c43 851d 4e43
00000030: adbe 9942 a78a 5043 1ff0 3a43 37a3 4143
00000040: 018f 8041 d989 5d42 4272 1f43 92c4 8443
00000050: a712 0043 468b 8a42 6f40 9542 ae80 f242
00000060: 457e 2941 7741 0243 7f3a a343 b33f 8241
00000070: 1805 a642 7141 9943 97cd 0343 fd07 1843
219.95642 71.818565 49.72131 44.692398 217.57497 95.935745 193.88953 355.58054
127.06434 660.0148 156.2569 206.11531 76.87241 208.54161 186.93797 193.63756
16.069826 55.384617 159.44632 265.5357 128.07286 69.27202 74.62585 121.25133
10.5933275 130.25572 326.457 16.281103 83.00995 306.51126 131.80309 152.0312

core.features.layer1.ds_conv.in_depth_conv.weight f4 [32, 32, 1, 1]
00000000: b5ed 163c 5dc3 21be ceee a5be 7be6 99bc
00000010: 6785 ea3d a53c a5bd ea33 483d f554 ef3d
00000020: 0947 97bd e6e2 263e ac2b 16be add6 993e
00000030: 96b7 383e 7801 5a3d acda cc3e a741 b2bd
00000040: 4bea 283e e7e6 3ebe a3aa a5be 998d 583e
00000050: c353 27bd 45c1 f63e 2698 17be 567d 8a3d
00000060: 4ffa 3dbe e915 febd 3737 463e 6dfc c7bd
00000070: 8c49 0cbd 5540 393e ec36 12bd 31ba ad3c
00000080: 8c55 243d eb8e 273f 6c1c e3be 3265 5c3e
00000090: 54ad f9bd 2df7 0b3e 3e6c 2e3d b53a 643f
000000a0: f656 5a3e f9b7 9cbd d17b 403e aec0 9cbe
000000b0: 16ab 51be a13d 2abe 2674 f33e 4118 dbbd
000000c0: 1676 ae3b aa7a 553f 4e7a d23d 5fc6 08bf
000000d0: cbb5 6d3e 973f e6be 6381 633f d6ce 11bf
000000e0: 4b26 c43c 9220 b73e a775 36be 37c1 7f3f
000000f0: 8218 17bf 2413 ac3c 5393 373d 93ef 8c3c
00000100: b419 1b3e 71bd 59bb a356 803e 8529 713d
00000110: 24b7 3bbd e844 1ebe 68f1 7fbe 3e3e 383e
00000120: 8131 67bd feea 29be cadf ae3c 13c7 35be
00000130: b489 92bd d7c6 893d 4ade f4bd 8599 073d
00000140: f633 7bbe 966d 3cbc a863 4fbe 4e6e 3f3e
00000150: b860 1ebd d917 4ebd 0b9c 13bd 40e6 8dbe
00000160: 9a17 efbe 4004 e73b ab3e 7cbe 0fc9 afbd
00000170: 563e 87be f388 913d 082b 08bc 3d11 e2be
00000180: 477a 143e ccc3 4dbd d901 863e 49f8 713d
00000190: 0848 a8be d8d8 503d aeea 80be a9fe df3c
000001a0: e2eb df3b ebc8 f33d 20ee 973c 8a13 0aba
000001b0: 5595 e5bd cfdc 083e 9f9d 843e 0774 e8bd
000001c0: c50a fabe 8b04 013e fce6 b33c a391 32bd
000001d0: 010e 7dbe 6628 f3bc 85b7 08bc 289d d43c
000001e0: fafa 413f 88c6 4ebd 1c00 f83d 22c5 36be
000001f0: b9c8 06be 4841 ea3d 4d91 bcbd a2cc a33d
00000200: b16c 02be 0653 92bd 4d32 afbd 7d69 703d
00000210: af97 a3bc 7b6d a5be 05cc 893e 7418 3c3e
00000220: 7f4b f93d 4581 3bbe af93 5a3e fff6 5ebe
00000230: 5dcd 7f3d 60d8 07be c6ee fd3d 67ef 903d
00000240: b477 84be ef2d 5bbe 68cd 8c3e 56fe b9bb
00000250: 7988 32be 8219 e9be 08b9 f63d fb51 f03d
00000260: 0df2 22be 80f4 023e 4e70 f63b 45b5 393c
00000270: 6256 c13a 8337 1a3f 4fc9 203d 1199 1d3e
00000280: c710 913d dfa7 0e3d 8bd0 973c 2cb8 443d
00000290: 623d cc3c 7b34 5db9 9d5f ce3c d13c 02bd
000002a0: ef5f 0a3e 14e4 763d 0948 a33e 3290 83be
000002b0: dca4 813c 8915 e7bc 5071 7bbe bbe0 8d3d
000002c0: 0ddd 8f3d f903 48bc d672 81be af17 91bd
000002d0: 4056 83bd f326 343e b27f b53d f7b1 32bd
000002e0: eaf9 093f dbfc 56be 46df 393f 801f 173e
000002f0: b064 1cbe 051a 303e 3a37 0a3d dcec 51be
00000300: ecb2 223e 25ba e73e 3976 9cbe c654 89bd
00000310: e9fa 26be dd0a 57be 6701 d33e 0372 ab3e
00000320: 9c68 863e 2ce8 debe aba8 4abc b790 03bf
00000330: 3874 ed3d bcec 033e e42f e83d c62f 153f
00000340: 3c9e 8c3d fabc 073e a1d5 703c c3c7 89bd
00000350: b8da c9bd 6698 ac3d 5231 d63e 6ddb 93be
00000360: 9c67 ad3d e36a 773e d259 c3be 1756 853e
00000370: ea38 c4bb ae1a 523e f7f9 48be e7ff 77bb
00000380: 8cd5 2dbd c617 433e 9d0f 0ebe 03af fc3d
00000390: 9caa 3b3d 9b65 a1bd 0ba8 e63c c728 56be
000003a0: aa00 3dbd 3b71 e9bc 3f05 4bbe 2cf8 3dbe
000003b0: 5da9 c5be a05e c63d 4050 143d cbdf 243e
000003c0: 4761 df3d 7bb3 a3be d4be c83d 215a 303e
000003d0: 1241 b3bd 85be b9be af21 dbbe 7486 43be
000003e0: 6f96 a23e 2068 9f3d 5c43 1ebe c9e5 32be
000003f0: 30c3 aa3d 1eda 6dbe b104 873b 8f85 f2bc
0.009211947 -0.15797181 -0.32408756 -0.01878666 0.11451226 -0.08068208 0.048877634 0.11686126
-0.07386596 0.16297492 -0.14665097 0.30046597 0.18038782 0.053224057 0.40010583 -0.087039284
0.16495626 -0.1864277 -0.32356748 0.21147765 -0.040851366 0.48194328 -0.14804134 0.06762187
-0.18552516 -0.12406523 0.19357 -0.09764943 -0.034249827 0.18090947 -0.03569691 0.021206947
0.040120646 0.6545245 -0.44357622 0.21522978 -0.12191263 0.13668509 0.042583697 0.8915208
0.21322235 -0.076522775 0.18797232 -0.30615753 -0.2047542 -0.16625072 0.47549552 -0.106979854
0.0053241355 0.83390296 0.10277234 -0.5342769 0.2321388 -0.4497039 0.88869303 -0.5695623
0.02394404 0.35767037 -0.17818318 0.999042 -0.5902177 0.02100522 0.044818234 0.017204082
0.15146524 -0.0033224488 0.250661 0.058877487 -0.045828953 -0.15455973 -0.24994433 0.17992494
-0.056443695 -0.16593549 0.021346945 -0.17751722 -0.07155171 0.06727379 -0.11956461 0.033105392
-0.2453154 -0.011500737 -0.2025286 0.18694422 -0.038666457 -0.05031571 -0.036037486 -0.2771473
-0.46697694 0.007050067 -0.24633281 -0.08583271 -0.26414746 0.07106199 -0.008311041 -0.44153777
0.1449977 -0.050235555 0.26173285 0.059074674 -0.32867455 0.05098805 -0.25179046 0.027343111
0.0068335393 0.119035564 0.018546164 -0.0005267194 -0.112101234 0.13365482 0.25901505 -0.113502555
-0.48836342 0.1259939 0.021960728 -0.04359592 -0.24712373 -0.02968235 -0.008344536 0.025953844
0.75773585 -0.050482303 0.12109396 -0.17848638 -0.13162507 0.11438233 -0.092074014 0.07998015
-0.12736775 -0.07144742 -0.08554516 0.05869435 -0.01996979 -0.3231009 0.26913467 0.18368703
0.12172603 -0.18311031 0.213454 -0.21773909 0.06245171 -0.13266134 0.12399058 0.070769124
-0.25872576 -0.21404241 0.27500463 -0.005676071 -0.17434873 -0.45527273 0.12047011 0.117343865
-0.15912648 0.12788582 0.007520712 0.011334722 0.0014750476 0.60240954 0.039254483 0.15390421
0.07083278 0.034828063 0.018532058 0.048027202 0.024931613 -0.00021095753 0.025192076 -0.03179628
0.13513158 0.060276106 0.31890896 -0.2569595 0.015825681 -0.028208511 -0.24554944 0.069276296
0.07024584 -0.012207978 -0.25282925 -0.070845954 -0.06412935 0.17592983 0.088622466 -0.04362675
0.53896964 -0.20994894 0.72606313 0.1475811 -0.15272784 0.17197426 0.033744074 -0.20500511
0.15888566 0.45259205 -0.30558947 -0.067056224 -0.16306652 -0.21000238 0.41212007 0.33485422
0.26251686 -0.43536508 -0.012369315 -0.5139269 0.115944326 0.12883276 0.113372594 0.5827602
0.06866118 0.13255683 0.014699371 -0.06727555 -0.098561704 0.08427505 0.41834503 -0.28878346
0.084670275 0.24161868 -0.38154465 0.26042244 -0.00598823 0.2051799 -0.19626604 -0.0037841739
-0.042439982 0.19052038 -0.13873143 0.12338068 0.045817003 -0.07880708 0.028156301 -0.20913993
-0.04614321 -0.028496375 -0.1982622 -0.18551701 -0.38605776 0.09686017 0.036209345 0.16100995
0.10907226 -0.3197287 0.098020226 0.17221881 -0.087526456 -0.36278167 -0.42799136 -0.19094259
0.31755397 0.07783532 -0.15455383 -0.17470469 0.0833801 -0.23227736 0.0041204323 -0.029604701

core.features.layer1.ds_conv.spatial_conv.weight f4 [32, 1, 9, 9]
00000000: 858c 9abe 65ee a8bd dd97 2a3d 230d ae3b
00000010: 7b46 8dbd 45c7 d6bd c460 0cbd 6262 f2bd
00000020: 4fae 99be 1b52 43bd 6e79 d23d d0d8 e43d
00000030: 96c2 303d 9a2e 9b3c 525e 943c 4ef3 c13d
00000040: 6f38 bb3d 5fde f9bc 445c 9fbc 2fe6 b53d
00000050: f984 0b3e 12fd 953d cd93 60bd dc9d 343d
00000060: 2d86 8f3d 839d 5b3d 0833 c3bd 17c7 3f3d
00000070: 7089 a93d 978f d13d 8407 7e3d 0f4f 06bc
00000080: e17f 7b3b 0b7e 39bd 65d7 d1bd 4105 9fbe
00000090: 37bc 873d 8a69 5e3d bb04 833c 4421 e2bd
000000a0: 7c0a cabd b701 a9bd 6971 a0bd db9d f3bd
000000b0: 4a66 99be 7111 92ba f2b3 96bd 0742 40be
000000c0: 86cf 56be 644f 52be 24dc 2dbe 3ca4 c6bc
000000d0: 4b20 adbc 434e 1bbe edcc d2bd 2864 30be
000000e0: c146 36be a8d8 4abe 5417 7dbe 21ff cabd
000000f0: 08de a53c f818 db3d ce78 cf3d fd12 07be
00000100: 7362 01be 31cd dfbd 53bc b8bd b910 65bd
00000110: ee04 99bc 3968 223d 094f 143e baf2 4d3d
00000120: 0386 86be 4645 15be 818e a4bd 1d90 883d
00000130: 361f 973d 4dcf 903d 0f36 4c3d 1549 103d
00000140: 5f1c 86bd 919d f2bc 6a49 a4ba 3c31 813d
00000150: 351d 3b3d b806 bbbb 1551 7b3d b41f d7bd
00000160: a1b7 88bd abb4 f33d a45f b8bd a5c2 adbd
00000170: d42f 9cbc b5fb 12bd 11be b6bd ba1d cf3d
00000180: e5ee 163e 607f 9f3c 0e2d 5d3c b987 cf3d
00000190: 9d5c b3bb 8f4c fb3d f66e cb3d 9498 b7bd
000001a0: 753c f5bd 3d99 103d 980d a53d 1611 f6bc
000001b0: a48c f03d 781a 81bd ce19 08be efe1 a9bd
000001c0: 282b 5c3e 45ad 5a3e 0059 b4bc 1a08 86bd
000001d0: 9daf af3c fb43 dd3b 60c0 97bd 8a8e bbbe
000001e0: dc16 59bf 5781 f0be 3a27 9a3e 56fd b93e
000001f0: 1f5b 2e3d 72ca ad3d c1d9 3a3d 3c83 553e
00000200: dbb0 9d3e 7223 dcbe d487 73bf 8c55 09bf
00000210: cd11 443d 2e9b 123e bfb6 14bd e062 013e
00000220: 0ff9 4c3e 7650 0e3f 3b0e 403f de9b 493e
00000230: 9e29 c7be 1d26 9ebe 52b3 063d 2e99 6abd
00000240: dbc5 b73c d4dc ebbd 70f4 6ebe ec5d 523e
00000250: 85ed 373f 22fc 9e3e 0408 40be a53e c6bd
00000260: 2705 71bd 3b61 18be a1af 2ebe 34f0 b0be
00000270: 99bb 42be 960f b23e aed4 f13e 61fe 733d
00000280: c4b6 e1bd 1113 73be 3620 19be d961 e6bd
00000290: be7d 1abe 0b32 79bd aac5 f33c c897 b33d
000002a0: a684 153d 3049 023d 7f79 8a3d d233 94bd
000002b0: 538a aa3d a08b 513e 0b26 8a3e 2a1d 573e
000002c0: 976e 4e3d 5603 d6bd 2356 f0bd 8601 b0bd
000002d0: 022f 0d3d 1e67 633e d1ca ae3e 4861 a33e
000002e0: 5dd9 443e 1784 ea3c 7e53 b1bd 43e5 93bd
000002f0: 1b29 03bd 8e2d 173d 42ff 303e f244 7f3e
00000300: 13ad 993e a3a0 5c3e dbfd e53d 6713 7f3d
00000310: 74c9 5f3d 75c0 d63d 1b01 0fbd 4e18 2e3d
00000320: 1a68 de3d 9161 353e eba5 273e def9 0e3e
00000330: 98f5 753d e103 573d b336 c93d c6fb a6bd
00000340: 4633 043c 3434 433d e505 8b3d b69c d33d
00000350: 97d3 583d 3799 8b3d f5b0 92bb 96e5 afbc
00000360: 886b b1bd 2f3e 1fbd d047 d53d be30 4c3d
00000370: ab68 04bd 44f7 72bd fc2a 7abd cab4 39bd
00000380: 6444 0bbd e153 c2bd 4cbb 4d3d 9ed1 a43d
00000390: bb84 8a3d 35df 923d 15a6 9d3c 3a50 5fbd
000003a0: 0afc 5dbc 6690 37bd c3a3 1abe 6ee2 f8bc
000003b0: 226e 3abb 4cb0 22bd 8a2e 82bc 402d b9bc
000003c0: 2d1b 873d bff0 7d3d e715 773d 7900 b63d
000003d0: 0a7d 483d bf7d 893d 6c75 a03d 3c8b 493e
000003e0: dcf7 3e3e ffae 5a3d 5cc1 973c 827e babd
000003f0: 0e31 0fbe 9e56 0dbe f2f2 6abd 7c53 06bd
-0.30185333 -0.08248595 0.041648734 0.0053116246 -0.06898209 -0.104872264 -0.03427197 -0.11835171
-0.300158 -0.047685724 0.10277067 0.11174166 0.04315432 0.01894312 0.018111382 0.09470235
0.09141623 -0.030501543 -0.019453175 0.08881795 0.13624944 0.0732366 -0.054828454 0.04409586
0.07008014 0.05361701 -0.09531218 0.046820726 0.08278167 0.10232466 0.062018886 -0.00819756
0.0038375782 -0.04528622 -0.10246161 -0.31058696 0.06627696 0.05429987 0.015993467 -0.11041501
-0.09865281 -0.0825228 -0.07834131 -0.11895343 -0.29960853 -0.0011144114 -0.073585406 -0.18775187
-0.20977601 -0.20538098 -0.16978508 -0.024248235 -0.021133563 -0.15166573 -0.10292993 -0.17225707
-0.17800428 -0.1980921 -0.2471593 -0.09911943 0.020247474 0.10698122 0.101304635 -0.13190837
-0.12635212 -0.10927809 -0.09020295 -0.05592415 -0.018679108 0.039650176 0.14483275 0.05028031
-0.26274118 -0.14577207 -0.08034993 0.066681124 0.07379 0.070707895 0.04985624 0.035225946
-0.0654838 -0.02961615 -0.0012534086 0.06308219 0.04568215 -0.005707588 0.061356623 -0.10504094
-0.066756494 0.11899694 -0.09002617 -0.08484391 -0.019065775 -0.035884578 -0.08922971 0.10113092
0.14739569 0.019469917 0.013499511 0.10133309 -0.005473687 0.12270462 0.099332735 -0.08964649
-0.11974422 0.03530239 0.080592334 -0.030037444 0.11745575 -0.06303877 -0.13291094 -0.082950465
0.21500838 0.2135516 -0.022015095 -0.06544514 0.021446044 0.0067524887 -0.074097395 -0.36632186
-0.84800506 -0.46973678 0.30108052 0.36326092 0.04256737 0.08485879 0.045617823 0.20850843
0.30798993 -0.42995793 -0.9512913 -0.5364616 0.04786854 0.14317009 -0.036307093 0.12635374
0.20016883 0.55591524 0.75021714 0.19688365 -0.3889894 -0.30888453 0.032885857 -0.05727499
0.022433212 -0.11516729 -0.23335433 0.20543641 0.718468 0.31051737 -0.18753058 -0.09679917
-0.058842804 -0.1488084 -0.17059185 -0.3455826 -0.19016875 0.34777516 0.47232574 0.059568767
-0.11021188 -0.23737742 -0.14953694 -0.11249132 -0.1508703 -0.06083874 0.02975734 0.08769184
0.036503457 0.03180808 0.06761455 -0.072364464 0.083271645 0.20463419 0.2698215 0.21007219
0.050398435 -0.10449855 -0.11735179 -0.085940406 0.03446866 0.22207305 0.34139112 0.31910157
0.19223543 0.028627438 -0.08658503 -0.072214626 -0.032021623 0.03690868 0.17284873 0.24928644
0.30014858 0.21545653 0.1123006 0.062274363 0.05463548 0.10485927 -0.034913164 0.042503648
0.108596995 0.17713 0.16371886 0.13962504 0.06004867 0.052493934 0.09824886 -0.08153491
0.008068865 0.047657207 0.06788234 0.103326246 0.052936163 0.06816333 -0.0044766613 -0.02147178
-0.08663088 -0.038877662 0.10414088 0.04985117 -0.03232638 -0.059317842 -0.06107615 -0.04533843
-0.03400077 -0.09488655 0.05022745 0.08047794 0.067635976 0.071714796 0.019244233 -0.05451987
-0.01354886 -0.044815443 -0.15101533 -0.030381408 -0.0028446992 -0.03971891 -0.015891332 -0.022604585
0.0659698 0.06199717 0.060323622 0.08886809 0.04894737 0.06713437 0.078348964 0.1968202
0.18649238 0.053389546 0.018524818 -0.09106161 -0.13983557 -0.13802573 -0.057360597 -0.03279446

core.features.layer1.ds_conv.out_depth_conv.weight f4 [32, 32, 1, 1]
00000000: c7fb 3a3f 1662 7cbe ac76 95bc 59c8 053e
00000010: 54e6 70bd d47c 753d f8a5 f1bd b786 503e
00000020: ba74 98be f20f a33e 192d 53be 9a01 ab3d
00000030: 81e6 8c3e 00f5 8e3e f901 84be d29e 24be
00000040: 97e9 67be a347 653f 002a bfbd 0935 a23d
00000050: 60d6 423e 630b 7abe a606 9bbe a9c7 273e
00000060: c704 023f 97aa 9abd 10c5 0fbf 1a76 f93e
00000070: b137 a8bd d09e 97be 3b2e 4fbe f495 083e
00000080: 0af0 913e 0aa4 633e 07bb 72bc f31a c73c
00000090: 1a83 8cbe 9683 843e 47b1 afbd 98b6 163e
000000a0: 861a e4bd 9c57 ce3d 5ab6 5c38 3f63 303e
000000b0: acdb 28bf a108 533e 67da 843f b034 a5be
000000c0: b452 5a3b 20e9 173e 8819 56be 1eb4 e53d
000000d0: 4385 7b3e 6bfd e2be 8858 cb3e f95b 8bbe
000000e0: 467b e53d 5ba4 62bd 5b68 d63d 8ef9 7f3d
000000f0: 9eff 50bd 4698 97be c42d edbb 32a0 683e
00000100: b75c b0be f459 313d f090 c63e df9a ec3d
00000110: eec0 80be 82a4 383e 2d79 b7be a468 a73e
00000120: bb67 633e 5230 ea3c c43d 113f 7cb4 313e
00000130: 568a 4abe 6404 d53d 9a19 48be b710 0a3e
00000140: 66b0 84bd 4d46 823d 5282 5ebd 5597 153e
00000150: 67fc 63be 6f51 6ebd 1d88 5dbe 0410 873d
00000160: e297 e7bd e043 0cbe f8a9 613e 18ff 96be
00000170: be1d c13d 4dc9 0fbe fbfd 803e d09d f3bd
00000180: d1b3 943e b85d c2bd 8904 0dbf efe9 e63d
00000190: 8bcf 803e ead8 e0bd c6a1 583d c1c6 ff3b
000001a0: 69d3 a3be 54f8 3abe bdd1 1ebe c542 1b3e
000001b0: e89b 063c 8b8e 853d bc6d 513c 7cac 08be
000001c0: 8648 27bd 7f32 c73e 1f9e e8bd e99d fc3d
000001d0: cb32 e7bb 714f 143e a86e e0bd 9a8a 48bd
000001e0: 431b d6be 3c41 843e 4398 d2bd f109 8c3e
000001f0: 3877 1cbe 7550 b83d 1985 3dbe d3f0 50bd
00000200: c36a 723d 46b9 2b3e f074 143e 4622 dd3e
00000210: c13e bd3d 3959 f63c c924 923e 24f7 7c3d
00000220: 1cf9 7bbd 8142 66bc 7ba6 e93d 0299 783e
00000230: edc2 8abe fb8d 0ebe 2434 02be aa8a 0c3d
00000240: 420a 89be 2355 c0be 183b 433e f92e 4a3e
00000250: 79d8 b6bd 9fcf d0bd f72a 2a3e 65b4 4fbd
00000260: 1a8a d23e d1c9 4d3e 880e 11bb 2719 9f3e
00000270: 7600 2e3e 6588 503d 15fa 89be 740d cfbe
00000280: 1483 8e3d 49c2 e9be 61cc 213e d813 73bd
00000290: e463 ff3d 5456 37be b810 cc3d 7c7c 87be
000002a0: da5e 173e 9935 543c 17e3 d73b d2b5 1f3d
000002b0: c5d6 b53e b1a6 a93b 5cd3 82bf b778 c03d
000002c0: 4b26 89bc d070 393e f5d0 013d 3b16 a4be
000002d0: fb1a e9be bd2a 423e 40d0 8dbd ceff 2b3e
000002e0: d0ad 1a3d 9955 33be 2031 4fbd f902 e3ba
000002f0: c517 0fbd b5db 843c dbb5 9c3d 206a 51bd
00000300: 287f c23e ecd1 373e dfec 693e 4acb 873e
00000310: a487 163e 6547 fb3c 9dc8 95bd f11f dabd
00000320: 49d5 ec3e b28c a9be 3055 d93d 9745 973b
00000330: 4780 1c3e 09e7 dcbe bba5 04bd 6930 70be
00000340: 5ed4 47bd 108b 1fbf 100f babe 930b d3bd
00000350: f061 be3d 66ab 50bd 81f5 02be 2f81 d8be
00000360: 50cb 363e 4e0a bdbd d187 5b3d 9a40 b9bd
00000370: bdc0 b83d b7c9 a93d c0cc 82be e49e 44be
00000380: 39c6 2a3e ce25 9b3e f157 e03e 0358 c63e
00000390: 8951 9c3d 550c 83be d341 fdbd 5c16 d9bd
000003a0: d8b7 acbe d8df 0bbf 4b1d 323c cdb8 a13e
000003b0: 88ca c7bc eb8e 39bd 95ec 143e e46e cdbe
000003c0: 015b 293e 20d0 cc3d 90fd a3be 68d3 ea3e
000003d0: d1ce 313e a650 1f3d 13c9 5b3e f5a6 d73d
000003e0: c4a5 d53e d125 f13e e762 163e f151 e9bd
000003f0: f180 c9bd 2f6b 01be 4253 a1bd 5e8c cabd
0.7304043 -0.24646792 -0.018245064 0.13064708 -0.058813408 0.0599335 -0.11799234 0.2036389
-0.29776555 0.31848103 -0.20622672 0.08349915 0.2751961 0.27921295 -0.25782755 -0.1607621
-0.22647701 0.89562434 -0.09334183 0.07920272 0.1902709 -0.24418406 -0.3027851 0.16384758
0.5078854 -0.07552069 -0.5616007 0.48722917 -0.08213747 -0.29613352 -0.2023248 0.13338453
0.28503448 0.22230545 -0.014815099 0.024304843 -0.27443773 0.25881642 -0.08578735 0.14718091
-0.111378714 0.10075304 5.2621916e-05 0.1722536 -0.6596019 0.2060876 1.0379151 -0.3226676
0.0033313455 0.14835024 -0.20908177 0.11215995 0.24562554 -0.44333968 0.3971598 -0.27218607
0.11205153 -0.055332523 0.10469123 0.062493853 -0.051025026 -0.29608363 -0.0072381217 0.2271736
-0.34445736 0.043298677 0.38782454 0.11552977 -0.25147194 0.18031505 -0.35834637 0.32697022
0.22207539 0.028587494 0.5673487 0.17354006 -0.19779333 0.10401228 -0.19541016 0.13482939
-0.06478958 0.06361065 -0.054323502 0.1460851 -0.22264253 -0.05818313 -0.21633954 0.065948516
-0.11308266 -0.13697767 0.22037494 -0.29491496 0.09429501 -0.14041634 0.25193772 -0.11895335
0.2904344 -0.09490532 -0.55085045 0.11275088 0.25158343 -0.10978873 0.052888654 0.0078056757
-0.3199723 -0.18258792 -0.15509696 0.1516219 0.008215882 0.065213285 0.01278251 -0.13347048
-0.040840648 0.38905713 -0.11358284 0.123348065 -0.0070556155 0.1448343 -0.10958606 -0.048960306
-0.41817674 0.2583102 -0.10282948 0.27351335 -0.15279853 0.08999721 -0.18507804 -0.051010918
0.059183847 0.16769895 0.14497733 0.4319021 0.09240485 0.030071842 0.2854369 0.06175913
-0.061516866 -0.014053942 0.11408707 0.24277118 -0.27101842 -0.13921349 -0.12715203 0.034311928
-0.2676564 -0.37564954 0.19065511 0.19744481 -0.08928008 -0.101958506 0.16617952 -0.050709147
0.41120988 0.20096518 -0.0022133905 0.31073877 0.16992363 0.050911326 -0.2694861 -0.4043995
0.06958595 -0.4565604 0.1580062 -0.059345096 0.124702245 -0.17904025 0.09964126 -0.26462162
0.14782277 0.012952232 0.0065883505 0.038991757 0.3551542 0.005177342 -1.0220752 0.093980245
-0.016741892 0.18109441 0.031693418 -0.3204821 -0.45528397 0.18961616 -0.06924486 0.167968
0.037763417 -0.17513122 -0.05058396 -0.0017319612 -0.034934778 0.016218046 0.07651874 -0.0511266
0.37987638 0.17951173 0.22844265 0.26522285 0.1470018 0.030673692 -0.073136546 -0.106506236
0.46256474 -0.33115155 0.10611951 0.00461645 0.15283309 -0.43145016 -0.032384615 -0.23455967
-0.048786514 -0.6232157 -0.36339617 -0.10304942 0.09296024 -0.05094471 -0.12788965 -0.4228606
0.17850995 -0.09230481 0.05359632 -0.09045525 0.09021137 0.08290427 -0.25546837 -0.19201237
0.16677178 0.3030228 0.43817094 0.38739023 0.07632739 -0.25595346 -0.123660706 -0.10599968
-0.33734012 -0.54638433 0.010871242 0.31586304 -0.024388567 -0.045302313 0.14543374 -0.40123665
0.16538621 0.10000634 -0.3202939 0.45864415 0.1736405 0.03889527 0.21463422 0.105298914
0.41728032 0.47099164 0.14686166 -0.11392582 -0.09839047 -0.12638544 -0.07877208 -0.09890054

core.features.layer1.norm.weight f4 [32]
00000000: 11a3 6a3f 6e97 0040 a28d 723f e8ab 573f
00000010: 341f 513f 5b8b 1840 cc1a 563f ddfe 773f
00000020: 7f72 ec3f 713c 453f 44c0 b93f 1086 263f
00000030: f9e8 de3f e56e 753f 065a b03f 0e45 3c3f
00000040: 4bf8 633f 6f96 953f c672 6f3f 6bde 753f
00000050: f11c 663f 2837 8a3f 1ceb bc3f 090c 843f
00000060: 00c1 683f f14e 3b3f ed4b 0640 4a6f 803f
00000070: 5d7b 1b40 e7b6 a73f ee92 673f 3bb8 953f
0.9165507 2.0092425 0.94747365 0.84246683 0.8168824 2.3835056 0.8363464 0.96873266
1.8472441 0.7704535 1.45118 0.65048313 1.7414848 0.95872337 1.3777473 0.7354287
0.8905074 1.1686534 0.93534505 0.9604251 0.8988791 1.0798082 1.475925 1.0316173
0.90919495 0.7316733 2.0983841 1.0033963 2.4294045 1.3102692 0.9045857 1.1696848

core.features.layer1.norm.bias f4 [32]
00000000: 0713 1d3e b313 d9be 54bf 463f d18d 7cbf
00000010: 5aaa efbe d682 9fbe 8228 af3d 8aed 68be
00000020: 38e5 debe dd20 20be bc19 02bf 88da b43c
00000030: 3786 cabe ba7f dabe 888b 56bf cd02 59bf
00000040: b734 e83e b4dc c5be 7561 483d 54d0 81be
00000050: 9e29 c5be 8a38 05bf d213 88bf aedb c2be
00000060: 5ee4 88be 1f91 023f 9edd 61bf 9bbb 4f3f
00000070: b054 65bf 5c7c bfbc b86f 06bf c496 50bf
0.1533929 -0.42397842 0.77635694 -0.98653895 -0.46809655 -0.31154507 0.08552648 -0.22746864
-0.43534255 -0.15637536 -0.5082052 0.02207686 -0.39555523 -0.42675573 -0.8380666 -0.847699
0.45352718 -0.38644946 0.048921067 -0.25354254 -0.38508314 -0.52039397 -1.0631049 -0.38058227
-0.2673673 0.5100269 -0.88228786 0.8114564 -0.8958235 -0.023374729 -0.5251422 -0.8148005

core.features.layer1.norm.running_mean f4 [32]
00000000: 4053 44c0 cb24 a7bf 37fa f23f 4ba1 f1bf
00000010: 257b 68bf 811e 033f 5e02 a23f c11c 1a3f
00000020: ed6f a23d 6895 20c0 f095 02be 536b 993e
00000030: 0f06 b2be 4caa 0cc0 d508 ab3e 7f2c 79bf
00000040: bf5d 01be b139 40bf 2e71 89bf 2751 a3be
00000050: 2c89 3fbd a37a ddbf c8fb 41bf e95e a23e
00000060: a706 543f 2e4b 913e 624d fbbe 780e 723e
00000070: b370 82bf 4252 b33f 8446 a4bf 8dc7 cbbf
-3.0675812 -1.3058103 1.898261 -1.8877348 -0.90812904 0.5121842 1.2656972 0.60200125
0.079315044 -2.509119 -0.12752509 0.29964694 -0.34770247 -2.197894 0.33405176 -0.9733352
-0.12633418 -0.7508803 -1.0737665 -0.31897852 -0.046761677 -1.7303051 -0.7577481 0.31713036
0.8282265 0.2837767 -0.49082476 0.23638332 -1.0190643 1.4009478 -1.283402 -1.5920273

core.features.layer1.norm.running_var f4 [32]
00000000: 0d68 e241 cca5 9842 0d1f aa41 c989 1c41
00000010: dd81 4841 1497 8c42 dd50 9341 ae30 e041
00000020: ef39 4942 8def 7741 bfe2 0a42 ed03 6441
00000030: 6afb 4742 237a 2c41 3001 0842 a4d8 6641
00000040: 7423 4841 a4d7 ee41 bafe a341 96f1 3341
00000050: 73d1 9b41 3e35 f441 fda8 b941 98e9 3842
00000060: cb81 a041 dae2 9d41 4d97 4442 81d0 bf41
00000070: 44cc 8142 a766 aa41 0b55 1741 020b 1842
28.300806 76.32382 21.265162 9.783639 12.531705 70.295074 18.414484 28.02377
50.306576 15.495984 34.72143 14.250958 49.99552 10.779819 34.00116 14.427891
12.508656 29.855293 20.499378 11.246481 19.47727 30.525997 23.207514 46.22812
20.063375 19.735767 49.147755 23.976809 64.89896 21.300123 9.458262 38.01075

core.features.layer1.seg_ex_block.se.1.weight f4 [2, 32]
00000000: b5ec c43e e225 debd 840d f03d b223 30bf
00000010: 4f67 103e 96e8 92bd 80e2 d73d 5be6 363d
00000020: ed48 583e c5c1 74bd 1f52 113f 1baa a13e
00000030: 1d23 0cbe 325c 24be 7236 993e 17d5 1ebf
00000040: f36f 113f b070 61be 1c54 cf3d 3d91 c33e
00000050: 037d a13d 8170 a03e ba73 ef3e e16f 5dbe
00000060: 7a77 a8bd a398 2e3d 366a 053e 54b6 823e
00000070: 72ab 953e 0afe f93d ac64 bfbe eed3 7d3e
00000080: 5a7d 353e 494c 6cbe 2255 833d 64fc 733d
00000090: 44ad 303c 7b3a 00bf f786 b43d 75a0 543e
000000a0: 1072 5d3e 7721 cbbd d601 dcbd 5b70 0abc
000000b0: 0e7f c2bc be20 ee3a a56b e93d 963b 0ebc
000000c0: 7ce0 9e3e ea87 223e a0e0 193e 0451 a73d
000000d0: a081 afbe aa92 88bd ebbb 963d 36d8 1e3e
000000e0: 8781 52bd de6e 32bd c893 1cbf 421e 583e
000000f0: ea22 35be 7971 9e3c eace a23d 6350 843e
0.38461843 -0.10847069 0.11721328 -0.68804467 0.14101909 -0.071732685 0.10541248 0.044653278
0.21121569 -0.059755106 0.5676593 0.31575093 -0.1368527 -0.16050795 0.2992435 -0.620439
0.56811446 -0.22015643 0.101234645 0.38196746 0.07885172 0.31335834 0.4676798 -0.2162471
-0.08225913 0.042626034 0.13028798 0.2552973 0.29232365 0.12206657 -0.37381494 0.24787876
0.17723599 -0.23075975 0.06412722 0.05956687 0.010783497 -0.50089234 0.08814805 0.20764334
0.21625543 -0.09918492 -0.10742538 -0.008449639 -0.023742225 0.0018167717 0.11397485 -0.008681199
0.31030643 0.1587216 0.15027094 0.081697494 -0.34278584 -0.06668599 0.07360061 0.15512165
-0.05139306 -0.043562762 -0.61162996 0.21105292 -0.176891 0.019341217 0.07949622 0.2584258

core.features.layer1.seg_ex_block.se.1.bias f4 [2]
00000000: 4d26 f73e a4d3 953e
0.4827141 0.2926303

core.features.layer1.seg_ex_block.se.3.weight f4 [32, 2]
00000000: 85f3 b53e 46d4 91be 076a 83be 307b 463f
00000010: dbcc 35bf 3615 d13e 671e ccbe cfad 07be
00000020: 4a05 acbd 8b29 863d 1da0 d6be 4f12 3d3f
00000030: 4da0 4f3e ca15 18bf 16ca 76be 0226 1f3f
00000040: b35a 1cbf abf7 a23d 9ddf 63bd 2fd2 a8be
00000050: 6470 4fbe 49da 2a3f 4ae4 1fbd deb8 573e
00000060: 7e11 20bf edd3 283f 41cb 0ebf 36aa 0d3e
00000070: 57a9 09bf 9ab3 3dbe 3e7a b1be 3ee6 f23e
00000080: 8579 f5be 7ce4 06bf 4242 b53d d2f5 0b3f
00000090: b244 41be 2b44 1abf b719 68be 37de a23e
000000a0: 73d9 e5bd f4be ef3d 6787 583d 0c6b cb3e
000000b0: 1f57 1bbf aa9e 87be 3d26 3fbf 2bd7 f53e
000000c0: d7a4 e2be be05 e13e 23b5 82be 0073 0b3d
000000d0: 8f7e b5be 1490 563f 2035 3ebf 9c26 bfbe
000000e0: dc38 f7be 462e da3e 0423 1abf f9c3 58be
000000f0: 51d4 ccbd 7fcb 07be 36a8 8ebc ea2b 033c
0.35537353 -0.28482264 -0.2566683 0.7753172 -0.7101571 0.40836495 -0.39866945 -0.13249896
-0.08399446 0.065508924 -0.41919032 0.7385606 0.20275994 -0.5940825 -0.24100527 0.6216737
-0.61075896 0.07957395 -0.055633176 -0.32972857 -0.20257717 0.66739327 -0.039036073 0.21066615
-0.6252669 0.65948373 -0.5577889 0.13834462 -0.5377402 -0.18525544 -0.34663576 0.47441286
-0.47944275 -0.5269239 0.08850528 0.5467197 -0.18873861 -0.60260266 -0.2266606 0.3181016
-0.11223116 0.11706343 0.052863505 0.39730108 -0.6067981 -0.2648824 -0.7466772 0.48015723
-0.44266388 0.43949693 -0.2552882 0.03404522 -0.3544812 0.83813596 -0.7429981 -0.37334144
-0.48285568 0.4261343 -0.6020968 -0.21168508 -0.10001434 -0.13261221 -0.017414194 0.008006075

core.features.layer1.seg_ex_block.se.3.bias f4 [32]
00000000: 6ece 36be 0b3b c1be c4fa 4f3d f226 863e
00000010: fed1 c63e 3017 513e c00c 16bf c7ab c1be
00000020: d784 093f 9080 813e d192 22bf 3797 0f3e
00000030: 4e9f 2f3d 91ca 923d c0e7 2c3f 6eb2 4e3d
00000040: 17a7 ce3e 9747 56be ecd7 8cbe a068 65be
00000050: fffa 443c 685b 27bf b085 ac3e bae9 b33e
00000060: 9ddf 06bf 11fd cabe 7ce3 963e 3137 a5be
00000070: 3144 ec3e ee8e a23e 5eed 9f3d 15d3 933c
-0.17852184 -0.3774036 0.050776258 0.26201588 0.38832086 0.20419002 -0.58613205 -0.37826368
0.5371832 0.25293398 -0.63505274 0.14022528 0.042876534 0.07167543 0.6754112 0.050463133
0.40361854 -0.20925747 -0.27508485 -0.22403193 0.012022733 -0.6537385 0.33695745 0.35139257
-0.52684957 -0.396462 0.29470432 -0.3226867 0.46145776 0.31749672 0.07808946 0.018044988

core.features.layer2.ds_conv.in_depth_conv.weight f4 [32, 32, 1, 1]
00000000: 14ea aa3d 75f3 f83d 6d27 e9bd 6e73 163d
00000010: 1101 adbe 5270 8e3e 4452 d5bd 9b9a a1be
00000020: a4ce 703e 5604 533e e79b 513e 8cc1 20bd
00000030: c9ba 113e 92e2 023c 5911 883c a77a 98be
00000040: 799d fb3d 4e15 f63d 0130 17be 258b 1bbe
00000050: 7064 4bbe a7f0 463e aa84 2a3d 140b acbe
00000060: 6200 2abd ee9b f73e 5e5e 873d 069b 66be
00000070: 798d 383f ac16 99be b984 86be 05d1 8ebe
00000080: 531b 893e df0f f4be 1586 6b3d 136f 22be
00000090: c789 b4bc e259 28bf 6467 9dbe a638 23be
000000a0: 37c2 e5bd 45b6 01be 0327 14be 4076 09bc
000000b0: c638 3dbe c501 4fbd a015 533e 0a37 5ebd
000000c0: ff00 bd3e 595d bdbb b0ad f13d 84ac 27be
000000d0: 0a89 723d 80ef c33d cd42 5c3e e4f7 fa3d
000000e0: 53ac ac3d e8d3 4fbe 95ac aabe 2186 2a3e
000000f0: f09f 363e aaca 623d 15ec 543c 0b64 2c3b
00000100: d0e6 173d c69f 7abe 7257 aabc 24ee 163e
00000110: b335 213e 4445 9b3e 680a d4be ae52 473e
00000120: 92e2 ee3e 275a 08bd 0bee ec3d 7121 52be
00000130: a740 33be e526 9c3d f871 a43d 9207 5fbe
00000140: 0c5f 97be b80d f5bd 8d6a c53c 0e1e 183d
00000150: 0aa5 d93e c8d0 ed3d 5be1 4ebf 08eb 44be
00000160: fe23 2f3e 8fb6 65be a0ad c23d cc45 8f3e
00000170: a270 70bd bcf4 c8bb b834 2dbe 9cc5 1ebe
00000180: cdf0 fd3c 086b eb3d 66c2 4c3d 478f 37bd
00000190: 2d38 383e e336 e0be 121c 02be 0954 3e3e
000001a0: 4ff0 a63d de76 afbd cd9e aebe 23be 003f
000001b0: d854 253e 2ed4 0abe 7f86 a63e 921a 71be
000001c0: 7aa9 2dbe b114 453e e61a 94bc d0fa 6c3e
000001d0: 9180 4abd 2905 84bd 7fbf 833b 737d 6d3c
000001e0: 812f bcbd f6fa 133b 7d9e 783b 273d b63d
000001f0: 3505 03bf 08e4 42bd e2fb 8c3e f7b0 673d
00000200: 6599 c33e ae7c 533f 638d cc3d 7309 cb3e
00000210: 3554 9a3d d8c8 763e f4f5 093e 56d6 4ebc
00000220: 3ea3 dabd ac36 86be 84fe fcbd 1ec7 8dbd
00000230: 657f 1bbe 31eb f7be 9669 d73e 2b44 9ebc
00000240: e652 533e 58f4 613d 2f7c b5bd af87 ed3d
00000250: 1368 b83e 809d 953e db48 203d ce2e d8bd
00000260: 5c26 553e 7993 883e 9f20 e2bd b2b9 7d3c
00000270: b48f a3bd f510 083d 3b3a 4e3e 7102 e03e
00000280: 2494 2abe 85bf 26bf 88e7 44be b3bb 1c3c
00000290: 87e2 a3bd bf86 e13d 4b46 8ebd 6481 8c3e
000002a0: 4bde 093e ec8f 413e 38a1 89bc 6784 463e
000002b0: 01d1 3bbe 7996 91bd 962d 89be 8ec5 21be
000002c0: 328e 8b3d f4a9 c23e 4570 6bbe 6e8e 403e
000002d0: 1115 66be 6377 163f ec53 b2be d608 253d
000002e0: a0fa 2e3e f9fc c1be e987 c83d c63f dbbe
000002f0: bf3e 873d 0a31 d2bd 1559 2c3d 6a9c 693e
00000300: d505 6bbe b252 72be cebb 34be 1a47 3abf
00000310: 46e1 3dbe 3c66 c13e 3be4 19bd c2db 023f
00000320: 43e0 373e d189 d03e 02d1 2cbe 8b61 64be
00000330: 19a3 a33e b7a9 863e c5c6 a9be 6d10 86be
00000340: b39a 07bc 6745 613e a293 cebc 902e 753d
00000350: 08e6 a23d 34ef f9bd 27be 08bf d729 11bd
00000360: df1e 0c3e df35 073e bad7 58be 27f0 d13d
00000370: 82e6 57be 575e 8bbe a320 9b3e 6056 b3be
00000380: 73bf 7fbe afdf 253c 25e6 a63e faf7 783c
00000390: 7232 0dbd 306c 8cbb 90ab febd 4825 793c
000003a0: fb09 e73d e1be 7b3c 6fe3 ce3e d398 b13e
000003b0: 256f 2cbe f359 fcbe 2593 243e e651 943e
000003c0: 692b 84be 3e98 9e3d 8474 34be 225c d8bd
000003d0: d480 86bc e0ce c93d 613c 173f 5778 a13e
000003e0: 0b75 0cbb 5081 2fbe 1f39 96be c9e7 d7bd
000003f0: 5bed 533e 190a 5d3e 86b1 9b3e 1d88 bf3d
0.08345428 0.12155811 -0.11384473 0.036731176 -0.33789876 0.2782007 -0.104160815 -0.31563267
0.23516327 0.20607123 0.20469628 -0.03924708 0.14231409 0.007988589 0.016609835 -0.29781076
0.12285895 0.12015782 -0.14764406 -0.15189798 -0.19862533 0.19427739 0.041630425 -0.33602202
-0.04150427 0.48361152 0.06609796 -0.22520074 0.7209087 -0.2990011 -0.26273134 -0.27893844
0.2677866 -0.4766836 0.057500917 -0.15862684 -0.022038354 -0.6576215 -0.30742943 -0.15939578
-0.11218684 -0.12667187 -0.14468007 -0.008390009 -0.18478689 -0.050538797 0.20613718 -0.054251708
0.36914822 -0.00577895 0.118007064 -0.16374403 0.059212722 0.095671654 0.21509857 0.12254313
0.08431306 -0.2029568 -0.33334795 0.16652729 0.17834449 0.055369057 0.0129957395 0.0026304747
0.037085354 -0.24475011 -0.02079365 0.14739281 0.15743141 0.30326283 -0.4141419 0.19465134
0.46657234 -0.0332891 0.115688406 -0.2052057 -0.17505132 0.07624606 0.0802955 -0.21780232
-0.29564703 -0.11965507 0.024098659 0.037138037 0.42508727 0.116120875 -0.80812615 -0.19230282
0.17103574 -0.22432922 0.095057726 0.27982938 -0.058701165 -0.0061326902 -0.16914642 -0.1550507
0.030998612 0.11495024 0.04999008 -0.044814374 0.1799018 -0.43791875 -0.1270602 0.18586744
0.08151304 -0.08567594 -0.3410553 0.50290126 0.16145647 -0.13557503 0.32524487 -0.23545292
-0.16959181 0.19246174 -0.018079232 0.23142552 -0.049439017 -0.06446297 0.004020631 0.014495241
-0.09188748 0.0022580004 0.0037936263 0.08898383 -0.5117982 -0.04758075 0.2753592 0.05656525
0.38202968 0.8261212 0.09987905 0.39655647 0.075355925 0.24100053 0.1347273 -0.012624344
-0.10675667 -0.26213586 -0.123532325 -0.06922744 -0.15185316 -0.48421624 0.42072743 -0.019319614
0.20637092 0.055164665 -0.08861577 0.11598145 0.36016902 0.29221725 0.03913198 -0.10555802
0.20815414 0.26675013 -0.11041378 0.015486168 -0.079863936 0.033219296 0.201394 0.43751863
-0.16658074 -0.65135986 -0.19228947 0.009566235 -0.08002191 0.11012029 -0.06947001 0.27442467
0.13463704 0.18902558 -0.016800508 0.19386445 -0.18341447 -0.071087785 -0.26792592 -0.15798017
0.06814231 0.3802029 -0.22992046 0.18804333 -0.22468974 0.5877592 -0.34829652 0.04029163
0.17087793 -0.37888315 0.09791548 -0.42822093 0.06603765 -0.1026326 0.042077143 0.22813573
-0.22951443 -0.23664358 -0.17649767 -0.7276474 -0.18542966 0.3777331 -0.037571173 0.51116574
0.17956643 0.40730146 -0.16876605 -0.22302835 0.3196037 0.26301357 -0.33159462 -0.26184407
-0.008276629 0.21999131 -0.025216881 0.05985886 0.07954031 -0.122038275 -0.5341515 -0.035440292
0.13683651 0.13204144 -0.21176043 0.102508835 -0.21084026 -0.27220413 0.30298337 -0.35026836
-0.24975376 0.010124131 0.3259746 0.015195841 -0.034471937 -0.004285358 -0.12435067 0.015206642
0.112812005 0.015365333 0.40407893 0.34686908 -0.16839273 -0.49287376 0.16071756 0.28968734
-0.2581437 0.07743882 -0.17622572 -0.10564448 -0.016418852 0.098539114 0.59076506 0.31537125
-0.0021432068 -0.17139173 -0.29340455 -0.105422564 0.20696013 0.21585883 0.30408877 0.093521334

core.features.layer2.ds_conv.spatial_conv.weight f4 [32, 1, 9, 9]
00000000: 7732 0d3b 202c 98bd c86a 51bd 64d6 b5bd
00000010: b1bf f6bd b076 91bd b16a 67bd ff12 c1bd
00000020: dee8 19be 875e 1d3d a96e 9abd 1539 0cbe
00000030: 0b40 b5bd 303e 8fbd c83d 01be 8f2a a8bd
00000040: 17ba 76bb e983 e6bc 3255 043c e875 0fbe
00000050: d80a 2ebe b7cb 4dbe 3db5 1cbe 1ca7 26be
00000060: 24ed d2bd 6fdc 75bd e734 7ebd 6c95 12be
00000070: 0cf9 b33b 5929 e6bd ff49 64be afb8 43be
00000080: 40e8 04be e787 d9bd aa8d ecbc d5b3 dcbd
00000090: aa26 f6bd 27fc edbb 55e4 dabd 6d60 44be
000000a0: 1a32 14be 0249 3ebe 27a7 9dbd eef5 d1bc
000000b0: d695 8fbd 585a 87bd 3f74 babd 0cae a9bd
000000c0: f874 debd 2fa9 d0bd 56ac b0bd 16c2 81bd
000000d0: 0119 2b3d 665a 0dbe d0d4 6ebd 74ad d4bd
000000e0: c33c 89bd fc6d 06be dbf1 d8bd 231c b2bd
000000f0: 7302 efbc 2f9e 763d 7768 c9bc dad3 47bd
00000100: dd7c 49bd bf3c 37bb 119e 12bc 2031 92bd
00000110: d5bc d83b dfe8 ae3c 2e1a c63c 9efd a7bb
00000120: cb1d 16be 85b1 c4bc 3527 a1bd b00a 95bd
00000130: b9ea 84bc 81b2 85bd 94e8 a8bd 4927 a93c
00000140: eb6c 62bd 7e02 84bd 2c4b 7c3d a6ab fa3c
00000150: faa4 a83d acc6 1b3e 2c8e f83d 3e0c fcbd
00000160: e99c 033d 6a02 363d 13b3 9f3d a444 5d3e
00000170: cd78 0e3e 2173 053d 9873 533e 5fab 963b
00000180: 5b85 bfbd 99d7 113d 8c4e 49bd 19bf 563d
00000190: ca1b 943e f925 a13e 15bd c53d 6c77 8b3e
000001a0: ecbc 113e 52b8 a53d bb38 a03d c6f7 3b3d
000001b0: af65 b63c 0a82 bf3d cb80 a63e 3bac a53e
000001c0: 0936 943e 61c7 243e 99ea 233e b4c2 523d
000001d0: 5cd7 e63d 68fa da3c b824 443d 503c 753e
000001e0: 5123 bc3e e322 753e 2950 283d d58f b93d
000001f0: 7435 723d 4f0a abbc bd95 2abd 9d87 063e
00000200: a07a 263e e108 8e3e c2eb 883e a7bb ff3d
00000210: 657d 723d 21ce 183e 0274 19bd 7623 04bd
00000220: ea5a 513c 9ac2 733d 576d 393e 29de dd3d
00000230: d700 ee3c 36e5 943a a479 c73d de33 19be
00000240: 4f86 bfbd d6ad 68bd 2377 2a3c 3b11 103d
00000250: 5fa7 31bc e055 a5bd 616b 5fbd f102 063d
00000260: 2e33 b1bd 3ed0 183e 8ba4 293d 651d 903d
00000270: 8287 9a3d 4512 1c3e e0bc 923c d756 273e
00000280: b7d9 e13d 067e d83d 748d abbd eed0 a0bd
00000290: c3ff 9cbd 1d18 2b3a 03fe fdbc 41e5 d6bd
000002a0: adff 88bd ce43 90bc 05c4 9dbe cd30 adbd
000002b0: 1ce2 35bd 150d 9fbd f0cf d5bd ff0e 3abe
000002c0: a2e4 8bbe 76af 54be dda9 1bbd 50e3 9fbd
000002d0: 125b 44bd 9a0d c8bd 85c5 74be 1801 d0be
000002e0: fcea c3be f0ea d5be cf5d 98be 0f60 53bd
000002f0: 6621 1f3d c787 293e 9ce9 033e 95b7 acbd
00000300: 825c 4fbe c41d 08be 79d4 23bd d85f 66bd
00000310: f1bd f93b 703d 583e 81a0 143e d1d1 8c3e
00000320: 2cf8 673e 8353 4a3e 2182 773e 4c9c 8d3e
00000330: d12a 4a3e aef2 3b3e 42da 3c3e e394 883d
00000340: 9487 0a3e 4068 823e 71af ae3e fcb9 cd3e
00000350: c57c 963e f65f 4e3e 23bb 753d 5674 b03d
00000360: cb30 55bd ebce 233d b616 263e dd6d 4c3e
00000370: 9545 6d3e 82b8 243e 3eb1 a83d 9cb7 80bc
00000380: 7d2e 983c 2e4d 303d 6732 333d d5b4 ab3d
00000390: acfd 2f3e d036 8d3d 7b39 b13d 6cb0 853d
000003a0: 9ad3 213d 895f 33bd 82fd f73d 3776 c63d
000003b0: 1db4 8d3d 6a7e 2d3e 1343 8d3d 7feb ad3d
000003c0: 0807 c43d 4664 8a3d 944f d4bd d03f 6f3e
000003d0: 8b7b 193e 5f9b 4f3d 652b 4b3d f663 f13d
000003e0: 206b 8dbc 25ae a43c 71b4 193e 17a0 683e
000003f0: fd9e 453e 5ea3 223e bf91 3bbd 8219 32bd
0.0021544972 -0.07430291 -0.051127225 -0.088787824 -0.12048281 -0.07102716 -0.056498233 -0.09427451
-0.15030238 0.038420226 -0.07540638 -0.1369365 -0.08850106 -0.06994283 -0.12621224 -0.082112424
-0.003764754 -0.028139072 0.008076953 -0.14009821 -0.16996324 -0.20097242 -0.15303512 -0.16274685
-0.10299137 -0.060024675 -0.06206217 -0.14314812 0.005492335 -0.11238355 -0.22293852 -0.1911342
-0.12979221 -0.106216244 -0.028876144 -0.10776488 -0.12019093 -0.007262725 -0.10688082 -0.19177409
-0.14472237 -0.18582538 -0.076978974 -0.025629964 -0.07011001 -0.066090286 -0.091042034 -0.0828515
-0.10862154 -0.10188519 -0.086266205 -0.06335847 0.041771892 -0.13804016 -0.058308423 -0.10384646
-0.067010425 -0.13127893 -0.10593005 -0.08696773 -0.029175973 0.06020945 -0.024585946 -0.04878602
-0.049191345 -0.0027959791 -0.008948819 -0.07138276 0.0066143074 0.021351276 0.024182405 -0.005126669
-0.14659803 -0.02401043 -0.07868806 -0.07277429 -0.016225206 -0.065281875 -0.08247486 0.020648615
-0.055279654 -0.06445788 0.061595127 0.030599426 0.08234592 0.15212506 0.12136492 -0.123070225
0.032132063 0.044435896 0.077978276 0.21608216 0.1391327 0.0325805 0.20649564 0.0045980657
-0.093516074 0.035606 -0.049147174 0.05242834 0.2892745 0.31474283 0.09655205 0.2723955
0.14232224 0.08091797 0.078233205 0.045890592 0.022265283 0.09350975 0.32520136 0.32357964
0.28947476 0.16091682 0.1600746 0.051455215 0.11271545 0.026730731 0.04788658 0.23948789
0.36745694 0.2393909 0.04109207 0.09060637 0.059133008 -0.020878939 -0.041646708 0.1313767
0.16257715 0.2774115 0.2674237 0.12486964 0.059201617 0.14922382 -0.03746415 -0.03226038
0.012778023 0.05951176 0.18108116 0.10833389 0.029053135 0.0011359814 0.09739998 -0.14961192
-0.09351789 -0.056806408 0.010404381 0.035172682 -0.010843127 -0.0807302 -0.054545764 0.03271765
-0.0865234 0.14923188 0.041416686 0.070368566 0.07545377 0.15241344 0.017912328 0.1634172
0.11027854 0.10570912 -0.083765894 -0.0785235 -0.0766597 0.00065267255 -0.031004911 -0.104929455
-0.06689391 -0.017610457 -0.30813614 -0.08456574 -0.044405088 -0.07766167 -0.104400516 -0.18169783
-0.2732287 -0.20770058 -0.03800379 -0.07807028 -0.047938414 -0.09768219 -0.23903473 -0.40625834
-0.38265216 -0.41780806 -0.2975907 -0.05160528 0.03885021 0.16555701 0.12882084 -0.08433453
-0.20250133 -0.13292605 -0.03999755 -0.056243747 0.0076215197 0.21117187 0.14514352 0.27503827
0.22653264 0.1975842 0.24170734 0.27658308 0.19742896 0.18354294 0.18442634 0.06669023
0.13528281 0.2547016 0.34118226 0.40180957 0.29392067 0.20153794 0.05999292 0.08615939
-0.052048486 0.039992254 0.16219601 0.19963785 0.23171075 0.16086009 0.08236931 -0.015712552
0.018576855 0.043042354 0.04374924 0.083841 0.17186612 0.0689522 0.08653542 0.065277904
0.03950844 -0.04379228 0.121089 0.096905164 0.069191195 0.16942754 0.06897559 0.08492183
0.095716536 0.06757407 -0.10366741 0.23364186 0.14988534 0.050685283 0.04960193 0.11786644
-0.017262995 0.02010257 0.15010239 0.2271732 0.1929893 0.15882632 -0.04579329 -0.043481357
