nnvision/data/model_weights/v1_data_driven/sota_cnn_ensemble_model_4.pth.tar (torch, 309331 bytes, 30 tensors)

core.features.layer0.conv.weight f4 [32, 1, 24, 24]
0	0xbd53d784	-0.051719204
1	0xbd383fe9	-0.044982824
2	0xbca08bea	-0.019597966
3	0x3c5ab633	0.013349104
4	0x3d2b3b6c	0.041804716
5	0x3d7dee2f	0.061994728
6	0x3d9eec80	0.077599525
7	0x3da42eef	0.080167644
8	0x3da6cade	0.081441626
9	0x3d96c1b3	0.07361164
10	0x3d2190dd	0.039444793
11	0x3a38b7f4	0.0007046454
12	0xbd79fb66	-0.061030768
13	0xbdf81820	-0.121139765
14	0xbe37cb12	-0.17948559
15	0xbe60d36c	-0.21955651
16	0xbe80bc1b	-0.25143513
17	0xbe8dd12d	-0.2769865
18	0xbe97bb5a	-0.29635125
19	0xbe96ff31	-0.2949157
20	0xbe7b874c	-0.2456333
21	0xbe4802f7	-0.19532381
22	0xbe211dda	-0.15734044
23	0xbe00156a	-0.12508169
24	0xbd8f7fba	-0.07006784
25	0xbd4ec440	-0.050480127
26	0xbc61bba8	-0.013777651
27	0x3ced9539	0.029001819
28	0x3d86fbf4	0.06591025
29	0x3dc54280	0.096318245
30	0x3df1e47c	0.11811158
31	0x3dfa2660	0.12214351
32	0x3dff44ff	0.12464332
33	0x3de67d67	0.11254387
34	0x3d945819	0.07243366
35	0x3ca55420	0.020181715
36	0xbd51df9e	-0.05123865
37	0xbe040987	-0.1289426
38	0xbe4cbc07	-0.19993602
39	0xbe7ece30	-0.24883342
40	0xbe91ea37	-0.28499004
41	0xbe9c5f9d	-0.30541697
42	0xbea24592	-0.31693703
43	0xbe9c4c6b	-0.30527052
44	0xbe6c73f8	-0.23091114
45	0xbe25a480	-0.16176033
46	0xbde0b10d	-0.1097127
47	0xbdb6af4c	-0.08920154
48	0xbdbfde82	-0.09368612
49	0xbd608e9d	-0.054823507
50	0xbaac29b5	-0.0013134988
51	0x3d3bca08	0.04584697
52	0x3da6968e	0.08134185
53	0x3de39a19	0.11113376
54	0x3e07e1a2	0.13269666
55	0x3e0cef91	0.13763262
56	0x3e11e6fa	0.14248267
57	0x3e080791	0.13284136
58	0x3dba96ad	0.091107704
59	0x3cfa897c	0.030583136
60	0xbd37677c	-0.044776425
61	0xbe033f60	-0.12817144
62	0xbe549a39	-0.20761956
63	0xbe869abb	-0.26289925
64	0xbe9ae9b9	-0.3025644
65	0xbea06015	-0.31323305
66	0xbe9f5b73	-0.31124458
67	0xbe8efaaf	-0.2792563
68	0xbe466834	-0.19375688
69	0xbdddcacf	-0.10829698
70	0xbd373c10	-0.044735014
71	0xbd08c506	-0.03339102
72	0xbdec1447	-0.11527305
73	0xbd82ed2e	-0.06392895
74	0x398ac5fc	0.0002646892
75	0x3d3825e9	0.04495803
76	0x3d9d7feb	0.07690414
77	0x3dc95d26	0.0983222
78	0x3df0d3bd	0.11759136
79	0x3df3d40d	0.1190568
80	0x3e059b37	0.13047491
81	0x3dff4401	0.124641426
82	0x3dbf118d	0.093295194
83	0x3ce61314	0.028085269
84	0xbd434f47	-0.047683027
85	0xbe0b0c3a	-0.13578883
86	0xbe65fd5a	-0.22459927
87	0xbe947d65	-0.29001918
88	0xbea654fd	-0.32486716
89	0xbea497c6	-0.32147044
90	0xbe93a6d9	-0.28838232
91	0xbe76d387	-0.24104129
92	0xbe1ae033	-0.15124588
93	0xbd97e072	-0.074158564
94	0xbcb504ae	-0.022096958
95	0xbcc9913f	-0.024605392
96	0xbde04350	-0.10950339
97	0xbd37ad02	-0.044842727
98	0x3caf0828	0.021366194
99	0x3d723516	0.059132658
100	0x3dad0148	0.0844751
101	0x3dbde471	0.09272087
102	0x3ddebd86	0.108759925
103	0x3de848fc	0.11342046
104	0x3e0668c4	0.13125902
105	0x3e057be3	0.1303554
106	0x3dd510dc	0.10403606
107	0x3d265ac2	0.040613897
108	0xbd212b4e	-0.03934794
109	0xbe0531b8	-0.13007247
110	0xbe6db43a	-0.23213282
111	0xbe981463	-0.29703054
112	0xbea492eb	-0.3214334
113	0xbe99286c	-0.29913652
114	0xbe7bc3d1	-0.24586417
115	0xbe3fe617	-0.18740116
116	0xbdcf3b34	-0.10118714
117	0xbd087bc9	-0.033321176
118	0xbaf3ed49	-0.0018610145
119	0xbcc6f2c2	-0.024285678
120	0xbde80d03	-0.11330607
121	0xbd3eb1cc	-0.04655628
122	0x3cac10e2	0.021004144
123	0x3d364629	0.044500504
124	0x3d690c82	0.056896694
125	0x3d63c2ee	0.05560582
126	0x3d9d062c	0.07667193
127	0x3dbb0a62	0.0913284
128	0x3df61113	0.120149754
129	0x3dfc4955	0.123186745
130	0x3dc6c2bc	0.097051114
131	0x3d23af69	0.039962206
132	0xbd28dadf	-0.041224357
133	0xbe0c2bd1	-0.1368859
134	0xbe739d34	-0.23790437
135	0xbe9a83aa	-0.30178577
136	0xbea09d9d	-0.3137025
137	0xbe9210ae	-0.2852835
138	0xbe656e79	-0.22405423
139	0xbe23d2b3	-0.15998344
140	0xbd9da3ea	-0.0769728
141	0xbcbafb49	-0.0228249
142	0xbc328cb8	-0.010897808
143	0xbd4146dd	-0.04718672
144	0xbdf63140	-0.120211124
145	0xbd31f760	-0.043448806
146	0x3cb43812	0.021999393
147	0x3d028c10	0.031871855
148	0x3d129da2	0.03579486
149	0x3ce100b4	0.027466156
150	0x3d559c3c	0.05215095
151	0x3d9a575a	0.07536192
152	0x3ddb69ad	0.107135154
153	0x3de5100c	0.11184701
154	0x3d987ea1	0.074460275
155	0x3c5ceba9	0.01348392
156	0xbd9fa737	-0.077955656
157	0xbe346479	-0.17616452
158	0xbe8af2bf	-0.27138326
159	0xbea831f2	-0.32850605
160	0xbea7593f	-0.32685277
161	0xbe92624a	-0.28590614
162	0xbe586c28	-0.21135008
163	0xbe12190e	-0.1426737
164	0xbd843267	-0.06454926
165	0xbcb623a3	-0.02223379
166	0xbccfb1c6	-0.025353324
167	0xbd8ba3ef	-0.06818377
168	0xbe109ea9	-0.14123024
169	0xbd8e4823	-0.06947353
170	0xbc4229f7	-0.0118508255
171	0xbb9ab225	-0.0047209435
172	0x3947980b	0.0001903476
173	0x3b0939a2	0.0020938893
174	0x3d0a2682	0.03372813
175	0x3d88708b	0.06662091
176	0x3dc3e2c0	0.095647335
177	0x3dc520da	0.096254066
178	0x3d4033fc	0.046924576
179	0xbccc0602	-0.024905208
180	0xbdfea588	-0.12433916
181	0xbe5f060e	-0.21779653
182	0xbe95ce0b	-0.2925876
183	0xbeac52f2	-0.33657032
184	0xbea23a96	-0.31685323
185	0xbe860f91	-0.2618375
186	0xbe397580	-0.18111229
187	0xbde98e5f	-0.11404108
188	0xbd46b4d7	-0.048512306
189	0xbccbd739	-0.0248829
190	0xbd0c4637	-0.03424665
191	0xbda1d1fb	-0.07901379
192	0xbe0e67ff	-0.13906859
193	0xbda94496	-0.08265035
194	0xbd03033f	-0.031985518
195	0xbcb5f8ab	-0.0222133
196	0xbbd9bc1c	-0.006644739
197	0x3c398cd4	0.01132508
198	0x3d3274ca	0.04356841
199	0x3d97e3c4	0.0741649
200	0x3da37968	0.07982141
201	0x3d5cdca9	0.053921375
202	0xbcc9701a	-0.024589587
203	0xbde1a267	-0.11017304
204	0xbe52a069	-0.20569004
205	0xbe9121d1	-0.28346112
206	0xbea30962	-0.31843096
207	0xbea66b4d	-0.3250374
208	0xbe8864c0	-0.26639366
209	0xbe4732a1	-0.19452907
210	0xbddada3e	-0.10686158
211	0xbd561ee4	-0.052275553
212	0xbc2cc6d8	-0.010545455
213	0xbc04e303	-0.008110764
214	0xbcf94b84	-0.030431516
215	0xbd99a73a	-0.07502599
216	0xbe193ceb	-0.14964645
217	0xbddc5c1a	-0.107597545
218	0xbd68d989	-0.056848083
219	0xbd09e668	-0.033667
220	0xbc0b4b6e	-0.008501871
221	0x3caca2af	0.021073667
222	0x3d352dfa	0.0442333
223	0x3d6908b4	0.056893066
224	0x3ce8d2b6	0.028420787
225	0xbcf1cab9	-0.029515611
226	0xbe0264e0	-0.12733793
227	0xbe529dc4	-0.20567995
228	0xbe89a121	-0.26880744
229	0xbe9ebf90	-0.31005526
230	0xbe9721bd	-0.29517928
231	0xbe874a62	-0.26423937
232	0xbe324560	-0.17409277
233	0xbdc8dd50	-0.09807837
234	0xbcdc36ee	-0.026881661
235	0x3b99b215	0.0046904185
236	0x3cb1ceab	0.021704992
237	0x3ad09547	0.0015913629
238	0xbce8c2ab	-0.028413137
239	0xbd8dc22f	-0.06921803
240	0xbe23951d	-0.15974851
241	0xbe06b62b	-0.13155429
242	0xbda3a50c	-0.079904646
243	0xbd2ee88c	-0.042702243
244	0xbc3b47a2	-0.011430653
245	0x3c717c42	0.014739098
246	0x3c40767a	0.011746997
247	0xbc1ebc0e	-0.00968839
248	0xbda0a1c8	-0.07843357
249	0xbe1d82e2	-0.15381959
250	0xbe768db7	-0.24077497
251	0xbe910fc3	-0.28332338
252	0xbe939af6	-0.28829163
253	0xbe8d5726	-0.2760555
254	0xbe542c98	-0.20720136
255	0xbe136b50	-0.14396405

core.features.layer0.norm.weight f4 [32]
0	0x3f6dde75	0.9291757
1	0x3fa6e5f8	1.3038931
2	0x3f610118	0.87892294
3	0x3f494853	0.78625983
4	0x3f465443	0.77472323
5	0x3f3583f8	0.70904493
6	0x40028a7a	2.039702
7	0x3f0e7ba6	0.5565742
8	0x3fcf8585	1.6212622
9	0x3f438c14	0.7638562
10	0x3f326148	0.6967969
11	0x403ca52a	2.9475808
12	0x403808ae	2.8755298
13	0x4040fa20	3.0152664
14	0x3f442941	0.7662545
15	0x3f1fefec	0.62475467
16	0x3fb5627b	1.4170679
17	0x3f3f2282	0.7466203
18	0x3f896e61	1.073681
19	0x3f167810	0.5877695
20	0x3f9433f3	1.1578354
21	0x3f4aac87	0.79169506
22	0x3f20df3a	0.62840617
23	0x3f743a60	0.95401573
24	0x3f47c0ea	0.7802874
25	0x3f46cac4	0.77653146
26	0x3f56c9f7	0.83901924
27	0x3f42b40b	0.76055974
28	0x3fc546f6	1.541228
29	0x3f6bf939	0.9217716
30	0x3f94f4a5	1.163716
31	0x3f748367	0.95513004

core.features.layer0.norm.bias f4 [32]
0	0xbe30672c	-0.17226857
1	0xbddfd286	-0.10928826
2	0x3e32b325	0.1745115
3	0xbee0ae70	-0.43883085
4	0x3e81cdd1	0.25352338
5	0xbccca7be	-0.02498233
6	0xbf7ccebf	-0.9875297
7	0xbdcdf885	-0.10057167
8	0xbf09581b	-0.53650063
9	0xbf93163d	-1.1491162
10	0x3eac7387	0.3368189
11	0xbfbcecf6	-1.4759815
12	0xbf915400	-1.135376
13	0xbfd17dcc	-1.6366515
14	0xbf8772ba	-1.0581887
15	0xbf068b2f	-0.5255613
16	0xbe87e948	-0.26545167
17	0xbe852ec0	-0.2601223
18	0xbd972c11	-0.07381452
19	0xbe757ec8	-0.23974144
20	0x3cdb4b9e	0.026769456
21	0x3e683fed	0.22680636
22	0xbf105ce4	-0.5639174
23	0xbf03798f	-0.5135736
24	0xbe354ff7	-0.17706285
25	0xbf6cb65b	-0.9246575
26	0xbfabd7a4	-1.3425183
27	0xbe04233a	-0.12904063
28	0xbf22d78e	-0.6361016
29	0x3e04c73f	0.12966631
30	0xbf06f392	-0.5271541
31	0xbf3f6e2d	-0.7477749

core.features.layer0.norm.running_mean f4 [32]
0	0xbf08b8ac	-0.53406787
1	0x3f9d953c	1.2311168
2	0x3d5311cf	0.051530655
3	0xbe81713f	-0.25281712
4	0xbf7321ff	-0.9497375
5	0xbeb78e55	-0.35850778
6	0xbcd39fcd	-0.025833035
7	0x3f50929f	0.81473726
8	0x3ebf07fa	0.37310773
9	0x3f64e23c	0.89407706
10	0xbe9cc9c1	-0.30622676
11	0x3ce6a779	0.028156029
12	0x3c1ad7e7	0.009450889
13	0x3d77d4cf	0.060505684
14	0x3fa5f9fc	1.2966914
15	0x3eb70fa5	0.35754123
16	0x3d8d9225	0.069126405
17	0x3ef8a74a	0.4856513
18	0x3eb04962	0.34430987
19	0x3f58e829	0.8472925
20	0x3cc3973e	0.023875829
21	0xbf43a937	-0.76430076
22	0xbede1bc1	-0.4338055
23	0xbc749f5b	-0.014930571
24	0xbf7fdc18	-0.9994521
25	0x3e494e54	0.19658786
26	0x3f47a7fb	0.7799069
27	0xbeabbbe5	-0.3354179
28	0x3e112e45	0.14177807
29	0xbe353ea2	-0.17699674
30	0x3b244ec1	0.0025071355
31	0x3edff691	0.43742803

core.features.layer0.norm.running_var f4 [32]
0	0x431f50f1	159.31618
1	0x43dbb2ac	439.39587
2	0x438162c6	258.77167
3	0x42e16611	112.69935
4	0x4402521f	521.28314
5	0x42b6ed39	91.463326
6	0x41fe54ee	31.79147
7	0x43c2221f	388.26657
8	0x437d25da	253.14786
9	0x4419f591	615.837
10	0x42e90aef	116.521355
11	0x41031e09	8.194833
12	0x4194edc3	18.616095
13	0x41763f7e	15.390501
14	0x447633ed	984.81134
15	0x428ed7ca	71.42146
16	0x4280d83d	64.42234
17	0x433ceeaf	188.93236
18	0x42d787c3	107.76516
19	0x43f47f15	488.99283
20	0x429e9146	79.28374
21	0x43796f85	249.43562
22	0x43970c42	302.09576
23	0x43838570	263.04248
24	0x43a026f0	320.3042
25	0x430aac5e	138.67331
26	0x43ba77ca	372.93585
27	0x43fab569	501.41727
28	0x41c44db8	24.537949
29	0x43cd6dbb	410.85727
30	0x43d07aae	416.95844
31	0x43a014f5	320.16373

core.features.layer1.ds_conv.in_depth_conv.weight f4 [32, 32, 1, 1]
0	0x3ef14f45	0.4713079
1	0xbe794d00	-0.2434578
2	0x3d3c41da	0.04596124
3	0x3d1be8e9	0.038063917
4	0xbde5b356	-0.11215846
5	0x3d243f53	0.040099453
6	0x3eb1df93	0.34740886
7	0xbdd685a6	-0.1047471
8	0xbe12b664	-0.14327389
9	0xbdf63120	-0.120210886
10	0xbd1439f4	-0.03618808
11	0xbdcfb047	-0.10141044
12	0x3f2f5c1d	0.6849993
13	0x3bcb55c5	0.006205293
14	0xbddbfb57	-0.10741299
15	0x3e1177eb	0.14205901
16	0xbc1279a6	-0.008940136
17	0x3cbb1f30	0.02284202
18	0x3e4ce4d6	0.20009169
19	0x3e41d307	0.18928157
20	0x3df5c295	0.12000004
21	0xbe4153a9	-0.1887957
22	0x3d2b405a	0.041809417
23	0xbd96c6d3	-0.073621415
24	0x3e364318	0.17799032
25	0xbe1534c8	-0.14570916
26	0xbdde13e3	-0.10843637
27	0x3db8cf37	0.09023898
28	0xbe709b6e	-0.23496792
29	0x3d91d99a	0.07121582
30	0xbeacb6af	-0.33733127
31	0xbdb4a27f	-0.08820056
32	0xbd46a5d6	-0.048497997
33	0xbe39a7d7	-0.18130432
34	0xbd8d8800	-0.069107056
35	0xbe3e3662	-0.18575433
36	0xbc5a17fa	-0.0133113805
37	0xbe07cb43	-0.13261132
38	0xbea7c675	-0.32768598
39	0xbdc903c0	-0.098151684
40	0x3f3b7621	0.73227125
41	0xbd9b2edb	-0.07577296
42	0xbdf7b922	-0.12095858
43	0x3ec869e6	0.39143294
44	0x3ed096b5	0.4073998
45	0xbf0c2fba	-0.54760325
46	0xbdbdf91e	-0.09276031
47	0x3d77b601	0.060476307
48	0xbcd0a13b	-0.025467506
49	0xbd3f8956	-0.046761833
50	0xbde610c9	-0.1123367
51	0x3dacb7d0	0.08433497
52	0x3e040e92	0.12896183
53	0xbd816d44	-0.06319669
54	0x3d459422	0.048236974
55	0x3d84caaf	0.06483971
56	0x3de65087	0.11245828
57	0xbcbd96fe	-0.023143288
58	0xbe2ba67c	-0.16762727
59	0xbce365df	-0.027758537
60	0x3e73584c	0.23764151
61	0x3d1aab90	0.03776127
62	0x3c8080a7	0.015686346
63	0x3e076674	0.13222677
64	0xbcce67db	-0.025196007
65	0xbed0bcd3	-0.4076906
66	0xbe0a8750	-0.1352818
67	0xbd914280	-0.07092762
68	0x3e2525bb	0.16127674
69	0xbb9c97d6	-0.0047788424
70	0xbf032bb1	-0.5123854
71	0x3e885f3b	0.26635155
72	0xbee53a03	-0.44770822
73	0x3eb0fb3e	0.34566683
74	0x3e26efa2	0.1630235
75	0xbe52503d	-0.20538421
76	0x3e41f160	0.18939734
77	0x3d9b3d8b	0.07580098
78	0x3e9f3960	0.3109846
79	0xbcf7cdea	-0.030249555
80	0xbd26f148	-0.040757447
81	0xbd4d5188	-0.050126582
82	0xbdbc9ae4	-0.092092305
83	0x3e193540	0.1496172
84	0xbd8085c4	-0.06275514
85	0xbe0f8912	-0.14017132
86	0xbe1898dd	-0.14902063
87	0xbe9ee397	-0.31033012
88	0xbf16eef4	-0.58958364
89	0xbb4f5fe8	-0.0031642858
90	0x3eabec0d	0.3357853
91	0xbd21c6e8	-0.039496332
92	0x3e9c6ca5	0.3055164
93	0x3e3300c5	0.17480762
94	0xbe61c738	-0.22048652
95	0xbe41b824	-0.189179
96	0x3d392977	0.04520556
97	0xbd3aec1c	-0.045635328
98	0xbe0c3410	-0.13691735
99	0x3d994f17	0.07485788
100	0xbe3b4766	-0.18288955
101	0xbe33502e	-0.17511055
102	0xbe95f3c3	-0.29287538
103	0xbe2d1fc3	-0.16906647
104	0xbeb0b1f0	-0.34510756
105	0xbe6b1fcc	-0.22961348
106	0x3bb8db2c	0.0056413617
107	0xbf4df9e9	-0.8045946
108	0xbe5c2f92	-0.21502522
109	0xbead73a5	-0.33877292
110	0xbe9aa87e	-0.30206674
111	0xbd0da94f	-0.034585293
112	0x3ded71d9	0.1159398
113	0x3cdaecd8	0.026724264
114	0x3e159ef1	0.14611413
115	0xbe69d300	-0.22834396
116	0x3d1656b2	0.036703773
117	0xbce61ef3	-0.02809093
118	0x3dd4f053	0.10397401
119	0xbd89f4bb	-0.06736132
120	0x3cfa8aef	0.030583827
121	0xbdcbbd0c	-0.09948167
122	0xbe588c8d	-0.21147366
123	0xbe4bec89	-0.1991445
124	0xbe12af85	-0.14324768
125	0xbe417a8d	-0.18894406
126	0x3e908b57	0.28231308
127	0x3dcd1225	0.100132264
128	0x3e900cca	0.28134757
129	0xbeca1f8e	-0.394772
130	0x3e8312f9	0.25600412
131	0xbdac3a62	-0.08409573
132	0x3e914465	0.28372493
133	0xbd03ba35	-0.032160003
134	0xbea3e698	-0.32011867
135	0xbd6f5e22	-0.05843938
136	0xbdbd8464	-0.09253767
137	0x3e84346c	0.25821245
138	0x3dbdd43e	0.092689976
139	0x3eced625	0.40397754
140	0xbe94fda6	-0.29099768
141	0x3d88f833	0.06687965
142	0x3e8a71fd	0.2704009
143	0x3ce76eca	0.02825107
144	0x3ecd6fd9	0.40124395
145	0xbea590fe	-0.32337183
146	0x3f0c39c3	0.5477564
147	0xbe13fd15	-0.14452012
148	0xbdd4c062	-0.103882566
149	0x3ee5cccc	0.4488281
150	0x3d89017c	0.06689736
151	0x3e1f4546	0.1555377
152	0xbe535987	-0.2063962
153	0x3ef108aa	0.47076923
154	0x3f4c9a47	0.7992291
155	0xbe30039c	-0.17188877
156	0xbdadb0d0	-0.0848099
157	0x3db90a50	0.0903517
158	0x3e7e34c3	0.24824814
159	0x3ed0825f	0.40724465
160	0x3e00b260	0.12568045
161	0x3e4c970b	0.19979493
162	0xbb91d7ae	-0.00445076
163	0xbe7eccae	-0.24882767
164	0xbdb3d229	-0.08780319
165	0x3e80c55e	0.2515058
166	0xbda7f9d7	-0.0820195
167	0xbd8f10fc	-0.069856614
168	0x3e084b6b	0.1331002
169	0x3deeb44a	0.11655481
170	0x3d3793fb	0.04481886
171	0xbc225ec0	-0.0099102855
172	0x3e8ee40c	0.2790836
173	0xbf25f2e7	-0.64823765
174	0x3df151c9	0.117831774
175	0x3dd23f7f	0.10266017
176	0xbe09e7c1	-0.13467313
177	0xbe3edd65	-0.18639143
178	0xbd6f6321	-0.058444146
179	0xbe47ece1	-0.19523956
180	0xbd730f40	-0.059340715
181	0xbdb7ab71	-0.08968247
182	0x3c063fca	0.008193919
183	0x3e5719f8	0.21006
184	0x3e880d4b	0.26572642
185	0x3e349138	0.17633522
186	0x3e4c801a	0.19970742
187	0x3ead4d39	0.3384798
188	0xbcc506af	-0.024051039
189	0xbde08c3f	-0.1096425
190	0x3e05dbb0	0.13072085
191	0x3cf1a7cc	0.029498957
192	0xbe4bb3a4	-0.19892746
193	0x3dc99560	0.09842944
194	0xbdaffa55	-0.08592669
195	0xbcbe5d87	-0.023237957
196	0xbe7bd7f0	-0.24594092
197	0xbdd07051	-0.10177673
198	0x3e317375	0.173292
199	0x3e4789ed	0.19486208
200	0xbef0831a	-0.46975023
201	0xbd6ef2e5	-0.05833711
202	0xbeaaf702	-0.33391577
203	0xbdb885f8	-0.090099275
204	0xbb8c10d8	-0.004274469
205	0x3e55d63c	0.20882505
206	0xbc71ce0f	-0.014758601
207	0xbdcbe260	-0.09955287
208	0xbe95e9c1	-0.29279903
209	0xbde86112	-0.1134664
210	0xbdb7d17f	-0.08975505
211	0xbb7c1bbb	-0.0038468677
212	0xbe5fc874	-0.2185381
213	0xbdc868f8	-0.09785646
214	0xbdd8932a	-0.10574944
215	0xbe6acde0	-0.22930098
216	0xbe3e81a8	-0.18604147
217	0x3d2436aa	0.040091194
218	0xbc8cdf46	-0.017196309
219	0xbb1a3df8	-0.0023535471
220	0xbe22d37c	-0.15900987
221	0xbd94a384	-0.07257751
222	0xbefeab67	-0.49740145
223	0xbeb879b5	-0.36030355
224	0xbe5f4ef3	-0.2180746
225	0x3c85d45f	0.016336618
226	0x3dc6e84b	0.09712275
227	0x3bf6f0f8	0.00753605
228	0xbcecbf29	-0.028899746
229	0x3df20242	0.11816837
230	0x3d71d38f	0.05903965
231	0xbe1c806a	-0.15283361
232	0xbe3e4031	-0.18579175
233	0x3ea494c8	0.3214476
234	0x3e3c7791	0.18404986
235	0x3ecbc971	0.39802125
236	0xbed8135b	-0.42202267
237	0xbcafbb19	-0.02145152
238	0x3ed7db1c	0.42159355
239	0x3e912856	0.28351086
240	0xbc0710d5	-0.008243759
241	0x3ec7ec74	0.39047587
242	0x3e0d138a	0.13776985
243	0xbd99a86f	-0.07502829
244	0xba9b7a2a	-0.0011861969
245	0xbdaf65b6	-0.08564322
246	0xbe59cf55	-0.21270497
247	0x3e0b621c	0.13611645
248	0xbe943b0a	-0.28951293
249	0xbea8bbaf	-0.3295569
250	0x3e966b2b	0.29378638
251	0x3e2bc8ab	0.16775768
252	0xbe16c613	-0.14723997
253	0xbe6eb0aa	-0.2330958
254	0x3df47a23	0.11937358
255	0x3ed91e21	0.424058

core.features.layer1.ds_conv.spatial_conv.weight f4 [32, 1, 9, 9]
0	0xbcd4ffec	-0.02600094
1	0xbe13cc86	-0.14433488
2	0xbe15f049	-0.14642443
3	0xbe329012	-0.17437771
4	0xbe409618	-0.18807256
5	0xbe009c2e	-0.12559578
6	0xbdc0b5ad	-0.09409652
7	0x3d3380ed	0.043824125
8	0x3e535a3a	0.20639887
9	0x3c9175e1	0.017756404
10	0xbdc7115e	-0.097201094
11	0xbd144a22	-0.03620351
12	0xbe4ca70f	-0.19985603
13	0xbe8f18b1	-0.27948526
14	0xbe6482ef	-0.22315572
15	0xbd005eb3	-0.031340312
16	0xb9550a4c	-0.00020317099
17	0x3e136af9	0.14396276
18	0x3da918fa	0.08256717
19	0xbd2c99bd	-0.042138804
20	0x3ded4eea	0.11587317
21	0x3d2ad39d	0.041705716
22	0xbdffd296	-0.12491338
23	0xbe3dfb1e	-0.18552825
24	0xbca2a7de	-0.019855436
25	0xbd5518b7	-0.052025523
26	0x3c167ebb	0.009185488
27	0x3dcecd39	0.10097737
28	0x3ca29b0b	0.01984932
29	0x3e541490	0.20710969
30	0x3ebe9b72	0.3722797
31	0x3e8ae17f	0.27125165
32	0x3e1d2f84	0.15350157
33	0x3dad2cbc	0.08455798
34	0xbdd7676c	-0.10517773
35	0xbdcfedce	-0.101527795
36	0xbbcdf63e	-0.006285458
37	0xbd9d5d92	-0.07683863
38	0x3c87e1c9	0.016587155
39	0x3ebc0d2d	0.36728802
40	0x3eeaae7b	0.45836243
41	0x3ebb08b1	0.3653007
42	0x3e8feb51	0.2810922
43	0xbb745b2b	-0.0037285786
44	0xbe109759	-0.14120235
45	0x3dc53992	0.09630121
46	0xbd4128be	-0.047157995
47	0xbdb07b22	-0.08617236
48	0x3e53596d	0.20639582
49	0x3ec46200	0.38356018
50	0x3ed2d74e	0.4117989
51	0x3ead48be	0.3384456
52	0x3dad6474	0.084664255
53	0xbd155f4d	-0.03646784
54	0x3e3d4459	0.18483104
55	0x3d2f4743	0.04279257
56	0xbdf50bb1	-0.119651206
57	0xbd0d3de6	-0.03448286
58	0x3dd8863b	0.105724774
59	0x3e5818e0	0.21103239
60	0x3e65070b	0.22365968
61	0x3cd96a82	0.026540045
62	0xbd73cd83	-0.059522163
63	0x3e289cf9	0.1646613
64	0x3dc6004f	0.096680276
65	0xbdda2020	-0.106506586
66	0xbddcecca	-0.107873514
67	0xbddc9d92	-0.10772242
68	0x3d1eca70	0.03876728
69	0x3e3a9011	0.1821902
70	0x3d9b2f2c	0.07577357
71	0x3d965111	0.07339681
72	0x3d815734	0.06315461
73	0x3e1dd533	0.1541336
74	0xbb467ec6	-0.0030287965
75	0xbd4a4557	-0.049382534
76	0xbdb3ed8f	-0.08785545
77	0x3b7cbf89	0.0038566312
78	0x3e2c6ed8	0.16839159
79	0x3e18d56f	0.14925168
80	0x3e687cf3	0.22703914
81	0xbb1372f0	-0.0022498928
82	0x3c777bc1	0.015105189
83	0xbdd2ffdd	-0.10302708
84	0xbe150e3b	-0.1455621
85	0xbe318710	-0.17336679
86	0xbe54c45b	-0.20778029
87	0xbe1145a2	-0.14186719
88	0xbd90524e	-0.070469484
89	0xbdaaca2c	-0.083393425
90	0x3b409de2	0.002939098
91	0x3cfd2787	0.030902637
92	0x3cc1c165	0.023651788
93	0xbcb8d045	-0.022560248
94	0xbe190ad7	-0.14945541
95	0xbe4ee1e7	-0.20203362
96	0xbcd3abb9	-0.02583872
97	0x3c9782e5	0.018495033
98	0xbd9032ba	-0.07040925
99	0x3ce6155d	0.028086359
100	0x3d80f40a	0.06296547
101	0x3c14efcd	0.009090376
102	0xbd0bd1df	-0.034135696
103	0xbd883c3a	-0.06652112
104	0xbe287565	-0.16451032
105	0xbe03826f	-0.12842725
106	0xbda20ab3	-0.07912197
107	0xbda3460a	-0.07972343
108	0x3d730e7b	0.05933998
109	0xbd6a8751	-0.057257954
110	0xbd87d13d	-0.06631706
111	0xbd14e7d0	-0.036353886
112	0xbd9ba568	-0.07599908
113	0xbdb2baf2	-0.08727063
114	0xbe0815d5	-0.13289578
115	0xbe26067f	-0.16213416
116	0xbdeca1d1	-0.115543015
117	0x3de7f99e	0.113269076
118	0x3d0bc4ff	0.034123417
119	0xbc1eb583	-0.00968683
120	0x3cb46563	0.022021001
121	0xbd3be280	-0.045870304
122	0xbccfd241	-0.025368812
123	0xbc70aa22	-0.014689
124	0xbe39674a	-0.18105808
125	0xbe48d805	-0.19613655
126	0x3d77b2e7	0.06047335
127	0x3c199487	0.009373791
128	0x3d8b9e2d	0.06817279
129	0x3ccfa2cb	0.02534618
130	0xbca73868	-0.020412639
131	0xbe1616c5	-0.14657123
132	0xbda84d4e	-0.0821787
133	0xbe1c879c	-0.15286106
134	0xbe3f48cd	-0.18680115
135	0x3b5b4742	0.003345922
136	0xbd06bb6e	-0.03289359
137	0xbd075c03	-0.033046734
138	0xbd5a9d66	-0.053372763
139	0xbd93f23e	-0.072239384
140	0xbe0c0586	-0.13673982
141	0xbe06d3d4	-0.13166744
142	0xbd7f46c0	-0.06232333
143	0xbdb65e28	-0.08904678
144	0xbce37077	-0.027763588
145	0xbd621ce3	-0.05520333
146	0xbd5da598	-0.054113
147	0xbd257c1f	-0.040401574
148	0x3c9c3aa5	0.019070933
149	0xbd092020	-0.033477902
150	0xbc7072ee	-0.014675839
151	0xbbc99cb9	-0.006152716
152	0xbba96eb9	-0.00517067
153	0xbc81b725	-0.0158344
154	0xbd2d2f40	-0.04228139
155	0xbb954985	-0.0045558834
156	0xbd82a2a0	-0.063786745
157	0x3c4bec1f	0.012446432
158	0xbd291fdc	-0.04129015
159	0x3c403f1d	0.011733797
160	0x3cdd33dd	0.02700227
161	0xbd5a39c1	-0.053277735
162	0xbd6b2a17	-0.057413187
163	0xbdea62df	-0.114446394
164	0xbe2fa749	-0.17153658
165	0xbe914018	-0.28369212
166	0xbeb75ad2	-0.35811478
167	0xbe66329d	-0.22480245
168	0xbdeda44e	-0.11603604
169	0x3c868538	0.016420946
170	0x3d63eb92	0.05564458
171	0xbde06a5f	-0.10957789
172	0xbdfb63a8	-0.12274867
173	0x3ca6b309	0.020349042
174	0x3cebd8c1	0.02878988
175	0x3c3c878f	0.011506929
176	0xba3afc05	-0.0007132891
177	0xbb37f321	-0.00280685
178	0x3d2acc1a	0.041698553
179	0x3e21a734	0.15786439
180	0xbd42e8fc	-0.047585472
181	0xbd3853c8	-0.045001775
182	0x3da67eeb	0.081296764
183	0x3e671d3f	0.2256975
184	0x3e6e5119	0.23273124
185	0x3e247cbd	0.16063209
186	0x3e128e3c	0.1431207
187	0x3d4e6bce	0.05039578
188	0x3e12af2d	0.14324637
189	0xbd34483f	-0.04401421
190	0xbbe414ac	-0.006960472
191	0xbc95ddc8	-0.01829423
192	0xbce2e1b3	-0.027695512
193	0xbd81b848	-0.06333977
194	0xbd45e421	-0.048313264
195	0xbd64476e	-0.055732183
196	0xbdad1c95	-0.08452717
197	0x3d85f762	0.06541325
198	0xbe95414c	-0.2915138
199	0xbdf2cdad	-0.11855636
200	0xbe145c95	-0.14488442
201	0xbea376df	-0.3192663
202	0xbed7abc9	-0.4212325
203	0xbeb17f2d	-0.3466734
204	0xbe8dcd96	-0.27695912
205	0xbe92b865	-0.28656307
206	0xbe147423	-0.14497428
207	0xbe92e489	-0.28689983
208	0xbd90b7e6	-0.07066326
209	0xbda02494	-0.07819477
210	0xbe28fea6	-0.1650339
211	0xbe85daaf	-0.26143405
212	0xbe9d0c28	-0.30673337
213	0xbe4f9bab	-0.20274226
214	0xbe455f04	-0.19274527
215	0xbd539c8d	-0.05166297
216	0xbe75565d	-0.23958726
217	0x3cc5274f	0.024066595
218	0x3d3a93c8	0.04555109
219	0xbd40aefd	-0.04704188
220	0xbde4bb3f	-0.11168527
221	0xbe108794	-0.14114219
222	0xbd2b6a97	-0.0418497
223	0xbd529338	-0.05140993
224	0xbd4200e4	-0.04736413
225	0xbe407049	-0.18792833
226	0x3da0deb5	0.07854978
227	0x3ddfa84c	0.10920772
228	0x3ca90c52	0.020635758
229	0xbb34d759	-0.0027594178
230	0x3dbdec9d	0.09273646
231	0x3c624265	0.013809775
232	0xbded84ce	-0.11597596
233	0xbe5f23b8	-0.2179097
234	0xbe69b527	-0.2282301
235	0x3bad5ebd	0.0052908347
236	0x3c35cf7c	0.011096831
237	0xbd36e574	-0.044652417
238	0xbce51bd5	-0.027967373
239	0x3d6dd41a	0.058063604
240	0x3ca0f730	0.019649118
241	0xbe174a84	-0.14774519
242	0xbeae6b61	-0.340663
243	0xbdfbc157	-0.12292736
244	0xbe0d2e69	-0.13787235
245	0xbe0fd34f	-0.14045452
246	0xbdd1e810	-0.102493405
247	0xbe0dc564	-0.1384483
248	0xbdf8a403	-0.12140658
249	0x3d303f4f	0.043029126
250	0x3d823df0	0.0635947
251	0xbd94c10c	-0.07263383
252	0x3df1c2a9	0.118047066
253	0x3cd927a1	0.026508154
254	0x3d034dc6	0.032056592
255	0x3debd6e5	0.11515597

core.features.layer1.ds_conv.out_depth_conv.weight f4 [32, 32, 1, 1]
0	0x3e057876	0.13034233
1	0x3deff034	0.11715737
2	0xbdcd7fdc	-0.10034153
3	0xbe0a2484	-0.13490492
4	0x3de56cd3	0.11202397
5	0x3e253668	0.16134036
6	0xbf0c5f83	-0.5483324
7	0x3f8dca44	1.1077352
8	0x3b5cee62	0.0033711423
9	0xbea1ad6c	-0.31577623
10	0xbeba4b97	-0.36385795
11	0xbe2d3602	-0.16915134
12	0xbdcdb55d	-0.10044358
13	0xbe98fadd	-0.29878893
14	0x3e0d3e21	0.13793232
15	0x3f193278	0.59842634
16	0x3d883d56	0.06652324
17	0xbe812df6	-0.25230378
18	0x3e64273f	0.22280596
19	0xbec40faf	-0.38293216
20	0x3d66ab6f	0.056315836
21	0xbe957f26	-0.2919857
22	0x3efde5a2	0.49589258
23	0xbec3729e	-0.38173383
24	0xbe0486c3	-0.12942033
25	0x3e012ad0	0.12613988
26	0x3dc93fee	0.09826647
27	0x3e8a6797	0.27032158
28	0xbea045c8	-0.3130324
29	0x3f03bed8	0.5146308
30	0xbe8ad187	-0.27112982
31	0xbeb82cbb	-0.35971627
32	0xbe44a89a	-0.19204941
33	0x3e3a96f6	0.1822165
34	0xbe1dfa1a	-0.15427437
35	0x3d77c76a	0.06049291
36	0x3edb33ce	0.4281296
37	0x3e227563	0.15865092
38	0x3e0e7bc0	0.13914394
39	0x3e0ab3c5	0.13545139
40	0x3e02b19b	0.12763064
41	0x3be6e1ed	0.0070459754
42	0xbeeb5987	-0.4596674
43	0xbe83b286	-0.2572214
44	0xbd144180	-0.03619528
45	0x3ed9c161	0.4253035
46	0x3f00dc5f	0.5033626
47	0x3ed976f4	0.42473567
48	0xbe7826f9	-0.24233617
49	0xbf190ab1	-0.5978194
50	0x3d9055b4	0.070475966
51	0xbdbc34c2	-0.0918975
52	0xbd284cbf	-0.041088816
53	0x3efb5bbd	0.49093428
54	0xbf09293f	-0.5357856
55	0xbd89883f	-0.0671544
56	0xbedded56	-0.43345135
57	0x3e749d59	0.23888148
58	0xbf2e750e	-0.6814736
59	0x3e6f1e6e	0.23351452
60	0xbdeec858	-0.11659306
61	0xbe10e229	-0.14148773
62	0x3f33073c	0.69932914
63	0xbe53f1fe	-0.20697781
64	0xbe9edfc8	-0.31030107
65	0x3dc160c7	0.09442287
66	0x3ae8a377	0.0017748912
67	0xba92a279	-0.0011187337
68	0x3e66fbf6	0.22557053
69	0xbebc7d95	-0.3681456
70	0x3dc08af8	0.09401506
71	0xbe815710	-0.25261736
72	0x3ed9de11	0.42552236
73	0xbe87c6f1	-0.26518968
74	0xbd919a03	-0.071094535
75	0x3e54b061	0.20770408
76	0xbd8b95b6	-0.068156645
77	0xbddd0b42	-0.10793163
78	0xbea8edda	-0.32993966
79	0xbdf87dc6	-0.121333644
80	0xbe11a2ec	-0.14222306
81	0x3ede7ac4	0.43453038
82	0x3e55ef1b	0.20891993
83	0xbeb4ae9c	-0.35289466
84	0xbef3107e	-0.4747352
85	0x3e9859eb	0.29756102
86	0xbeb78162	-0.358409
87	0xbd6ffddc	-0.05859171
88	0xbe7e6ca4	-0.2484613
89	0x3c7f3cda	0.015578473
90	0xbe0127c7	-0.1261283
91	0x3edfa347	0.43679258
92	0xbb8f2991	-0.004368969
93	0xbcef847b	-0.029237976
94	0x3e8a4978	0.27009177
95	0xbe6abfd3	-0.22924738
96	0xbe1e0bc6	-0.15434179
97	0x3da49ab5	0.080373205
98	0xbe8ad81c	-0.27118003
99	0xbcf9bd32	-0.030485723
100	0x3e88c020	0.2670908
101	0xbdecd610	-0.11564267
102	0x3d74dfa0	0.059783578
103	0x3e124239	0.14283074
104	0xbe8833ec	-0.26602113
105	0xbe89305a	-0.26794702
106	0x3e57c1fe	0.21070096
107	0xbe7cffb0	-0.24706912
108	0x3e06e61a	0.13173714
109	0xbed5b01a	-0.41735917
110	0x3ec09069	0.37610176
111	0x3e1f3617	0.15547977
112	0x3e8c3cdf	0.2739019
113	0x3d61df36	0.05514451
114	0x3eff5750	0.49871302
115	0x3d5cb55f	0.053883906
116	0xbeb27eab	-0.34862265
117	0x3e1d629e	0.1536965
118	0xbe996a54	-0.29963934
119	0x3e0ee0ac	0.13952893
120	0xbe5786ca	-0.21047512
121	0x3e588a32	0.21146467
122	0x3f3a43a6	0.72759473
123	0xbdb45ba5	-0.08806542
124	0xbe278e8a	-0.16362968
125	0x3e98c250	0.2983575
126	0xbea10e5a	-0.31456262
127	0xbe004a1b	-0.12528269
128	0xbe911e51	-0.28343442
129	0x3c94a4cb	0.018144986
130	0xbee0f024	-0.43933213
131	0xbdaa2db8	-0.083095014
132	0xbd89dfa2	-0.06732108
133	0xbd18ecc1	-0.03733516
134	0xbd36c255	-0.044618923
135	0x3df9843a	0.12183423
136	0xbda953c6	-0.08267932
137	0xbdb8a25e	-0.09015344
138	0x3e8c9e4a	0.27464515
139	0xbe302481	-0.17201425
140	0x3d5d25c7	0.053991105
141	0xbe4ba8e7	-0.1988865
142	0x3ec2d546	0.3805334
143	0xbdde01ac	-0.10840163
144	0x3e39850a	0.18117157
145	0x3e4db614	0.20088989
146	0xbec8efe9	-0.39245537
147	0x3d75775c	0.059928283
148	0x3e2984d7	0.1655458
149	0x3ee20cde	0.44150442
150	0xbec00854	-0.37506354
151	0xbd278214	-0.040895537
152	0x3f306bac	0.68914294
153	0x3e6539c4	0.22385317
154	0x3e45ba30	0.19309306
155	0xbc4e15ec	-0.012578469
156	0x3e9cd435	0.3063065
157	0x3eab8cc9	0.33505848
158	0xbd29b6c5	-0.04143407
159	0xbd145da8	-0.03622213
160	0xbe489267	-0.19587098
161	0x3e6b148c	0.22957057
162	0xbdbabe5b	-0.09118339
163	0xbd1c3043	-0.038131963
164	0x3dfe28e9	0.12410147
165	0x3f094bad	0.536311
166	0xbf190b2a	-0.5978266
167	0xbe58b2b4	-0.2116192
168	0xbe04554b	-0.12923162
169	0x3e13e484	0.1444264
170	0xbe670aee	-0.22562763
171	0xbeb3d0d4	-0.3512026
172	0xbe7cf41e	-0.24702498
173	0x3e0cd16d	0.13751765
174	0x3e79cc51	0.24394347
175	0xbc7cc1a6	-0.015427029
176	0xbd722050	-0.059112847
177	0x3e871e3b	0.26390252
178	0x3ecf7326	0.4051754
179	0xbd9290c2	-0.071565166
180	0xbe375c3c	-0.17906278
181	0x3e25183b	0.16122524
182	0xbd6f94e4	-0.058491603
183	0xbd5a090b	-0.05323128
184	0xbdf2e8d9	-0.118608184
185	0xbc89a615	-0.016802827
186	0x3d5142c2	0.051089056
187	0xbe3f92cd	-0.18708344
188	0xbd97ea6b	-0.074177586
189	0x3ddd71c1	0.108127125
190	0xbdaf4443	-0.08557942
191	0x3e81f12a	0.25379306
192	0xbe9f0e5c	-0.31065643
193	0xbe61cdce	-0.22051165
194	0xbdcd1257	-0.10013264
195	0x3e1a9e8c	0.15099543
196	0xbe05cf26	-0.13067302
197	0x3e3ba2a0	0.18323755
198	0x3e2c2356	0.16810355
199	0xbdce6e11	-0.10079587
200	0xbdb8ca68	-0.09022981
201	0xbefeec0e	-0.4978947
202	0x3dee0fbf	0.11624097
203	0xbe2e2b09	-0.17008604
204	0xbdd49b28	-0.10381156
205	0x3d8504df	0.0649507
206	0x3da0a808	0.078445494
207	0xbefd11e7	-0.4942772
208	0xbecbb013	-0.3978277
209	0x3d96ca3b	0.07362791
210	0x3e290fd9	0.16509952
211	0xbe04fa00	-0.12985992
212	0xbefea549	-0.49735478
213	0x3e7cd445	0.2469035
214	0xbf3fb2c0	-0.74882126
215	0xbc9edee9	-0.019393401
216	0xbecc78e9	-0.39935997
217	0x3cb2b881	0.021816494
218	0xbe20cc0e	-0.1570284
219	0xbdd0e8c9	-0.1020065
220	0x3eb5d405	0.3551332
221	0x3f003345	0.5007823
222	0x3e5fc5ee	0.21852848
223	0x3eeeb4ed	0.4662241
224	0xbd789c23	-0.06069578
225	0xbd93e5d3	-0.0722157
226	0x3d212d15	0.039349634
227	0xbe52e98f	-0.20596908
228	0x3ea6c6c5	0.32573524
229	0xbe1f84ed	-0.15578051
230	0xbe09b31f	-0.13447236
231	0x3dca27b2	0.098708525
232	0xbe651269	-0.22370304
233	0xbd85f2fb	-0.065404855
234	0x3dfdd4e0	0.12394118
235	0xbe5896dc	-0.21151298
236	0x3cc12413	0.023576772
237	0xbe89b863	-0.26898488
238	0x3f7d0145	0.9883006
239	0xbd81f93f	-0.06346368
240	0x3c457696	0.012052199
241	0xbf36321c	-0.7117021
242	0x3f114460	0.56744957
243	0xbed3aefa	-0.41344434
244	0x3e69ad34	0.22819978
245	0x3ed556d0	0.41667795
246	0xbf4024e5	-0.75056297
247	0x3cdc36a3	0.026881522
248	0xbe998482	-0.29983908
249	0xbf83354f	-1.0250643
250	0x3f215876	0.63025606
251	0xbd76480f	-0.060127314
252	0xbe169543	-0.14705376
253	0x3db39ccb	0.0877014
254	0xbea41a02	-0.32051092
255	0xbd958980	-0.07301617

core.features.layer1.norm.weight f4 [32]
0	0x3f1e67df	0.61877245
1	0x3fa44608	1.2833872
2	0x3f4aa8c7	0.79163784
3	0x3f6c887d	0.92395765
4	0x3f2802bc	0.6562917
5	0x3f4809ef	0.7814016
6	0x3f69df76	0.913566
7	0x3ff6d1db	1.9282793
8	0x3f40f237	0.7536959
9	0x3f8c5a23	1.0965008
10	0x3f51704e	0.8181199
11	0x3f86ce5f	1.053173
12	0x3f6ab1fd	0.9167784
13	0x3fe1e9bc	1.7649455
14	0x3f4241f4	0.75881886
15	0x3f8683aa	1.0508931
16	0x3f58406e	0.8447331
17	0x4020ce6f	2.5125997
18	0x3faeec2f	1.3665828
19	0x3f3f556d	0.74739724
20	0x3f9cdb24	1.2254376
21	0x3fb10579	1.3829795
22	0x3fce3a96	1.6111629
23	0x3f6f312e	0.9343442
24	0x3f46baf5	0.77629024
25	0x3f376145	0.71632797
26	0x3f1b0233	0.6055023
27	0x3f3718b0	0.71522045
28	0x3f39f113	0.72633475
29	0x3fb18ff1	1.3872052
30	0x3f0e6e8e	0.55637443
31	0x3f766d71	0.96260744

core.features.layer1.norm.bias f4 [32]
0	0xbf2fc19d	-0.68654805
1	0x3ef63978	0.4809072
2	0xbe2bc07c	-0.16772646
3	0xbf337cd5	-0.70112354
4	0x3e503839	0.20333947
5	0xbf338e18	-0.7013869
6	0xbecd1602	-0.40055853
7	0xbed1cffb	-0.4097899
8	0xbf238d2e	-0.638873
9	0xbe428cb5	-0.18998988
10	0xbe819109	-0.25305966
11	0xbf70c898	-0.9405608
12	0xbbfb8d7c	-0.0076767784
13	0xbf223ddd	-0.63375646
14	0xbd522e96	-0.05131396
15	0xbf22f555	-0.63655597
16	0xbe7b8f6d	-0.24566431
17	0xbf75d49b	-0.96027535
18	0x3e69f1cb	0.22846143
19	0xbdf96deb	-0.12179168
20	0xbf67cb7e	-0.9054488
21	0xbf8208de	-1.0158956
22	0xbf6fb874	-0.9364083
23	0xbf3f15cb	-0.7464263
24	0xbd5e0533	-0.054204177
25	0xbea64ba3	-0.3247958
26	0xbc1e7061	-0.009670348
27	0xbf1ef831	-0.6209746
28	0xbed48135	-0.41504827
29	0xbf4fbccf	-0.81147474
30	0x3f84fa11	1.0388814
31	0xbfcd220f	-1.6026019

core.features.layer1.norm.running_mean f4 [32]
0	0x40b6d64a	5.7136583
1	0x403122e8	2.7677555
2	0x3fc78ba4	1.558949
3	0x3e0612f0	0.13093162
4	0xc010c3e7	-2.261957
5	0xc0559244	-3.3370523
6	0xc00919bb	-2.1421955
7	0x3dd45e17	0.10369509
8	0xc056fddb	-3.359244
9	0x3fde8e9c	1.7387271
10	0x4023723b	2.553847
11	0xc03e0f41	-2.969681
12	0x40aa901a	5.3300905
13	0x403889ad	2.883403
14	0xbf91b9c1	-1.1384813
15	0x3f7f4414	0.99713254
16	0xc0dc814c	-6.8907833
17	0xbf4c9f1c	-0.7993028
18	0xbf87da80	-1.0613556
19	0xc09a27bc	-4.8173504
20	0xc026cf3e	-2.606399
21	0xc0a20b6f	-5.0638957
22	0xc01243d0	-2.285389
23	0xc009d410	-2.1535683
24	0x4003bc11	2.0583537
25	0xc107f47d	-8.4971895
26	0x40826d96	4.075877
27	0xbfaa0b61	-1.3284723
28	0xc0da662d	-6.8249726
29	0xc02bc089	-2.6836264
30	0xc08ca27c	-4.3948345
31	0xc0fe4b04	-7.946657

core.features.layer1.norm.running_var f4 [32]
0	0x428bf172	69.97157
1	0x42bb9881	93.79786
2	0x424d812a	51.376137
3	0x42acab58	86.334656
4	0x421fc403	39.941418
5	0x422da166	43.407616
6	0x428b41eb	69.628746
7	0x4395a25b	299.2684
8	0x4264217a	57.032692
9	0x42a43d6e	82.11998
10	0x4269dd87	58.466335
11	0x42810913	64.51772
12	0x42d79e3f	107.809074
13	0x432043a3	160.2642
14	0x421ac2b4	38.69014
15	0x42947e8e	74.24718
16	0x4209920d	34.392628
17	0x434a3efb	202.24602
18	0x428d6981	70.70606
19	0x41de7878	27.808823
20	0x42a979e9	84.738106
21	0x430d607e	141.37692
22	0x432e3181	174.19337
23	0x42177e25	37.873188
24	0x4230840b	44.12895
25	0x422a429f	42.56506
26	0x42669e6f	57.65472
27	0x4274d1bb	61.204815
28	0x42429ade	48.651237
29	0x42d59eb2	106.80995
30	0x42552fa5	53.296528
31	0x429a0d1c	77.025604

core.features.layer1.seg_ex_block.se.1.weight f4 [2, 32]
0	0xbf255c67	-0.6459412
1	0xbd785173	-0.06062455
2	0x3bc67241	0.0060561006
3	0xbe0f24fe	-0.13978955
4	0xbb662e52	-0.0035122824
5	0xbeff430f	-0.4985585
6	0x3ea98cba	0.33115178
7	0x3c862c83	0.016378647
8	0x3cca3e62	0.02468795
9	0xbf37dce0	-0.71821404
10	0x3e8ec8ae	0.2788748
11	0x3ebdcedf	0.37071893
12	0x3ec727d0	0.38897562
13	0x3ec3dee0	0.38255978
14	0x3c86e867	0.01646824
15	0x3a823e19	0.000993672
16	0xbe245678	-0.1604861
17	0xbdf00629	-0.11719925
18	0x3e3f27da	0.18667546
19	0x3dd56a51	0.10420669
20	0x3ebc2ebb	0.36754403
21	0xbe8dd2fd	-0.27700034
22	0xbe3787d5	-0.1792291
23	0x3e2e73a4	0.17036301
24	0xbd09df41	-0.033660177
25	0xbe6be183	-0.23035245
26	0x3e88a682	0.26689535
27	0xbe030a85	-0.12796982
28	0xbe9e7f56	-0.30956525
29	0x3e04eb9d	0.12980504
30	0x3d1792ae	0.03700512
31	0xbecddab5	-0.40205923
32	0x3e92b995	0.28657213
33	0xbd892b81	-0.06697751
34	0xbda41c47	-0.08013206
35	0xbf04531f	-0.5168933
36	0x3ee4cd5d	0.4468793
37	0x3de8f67e	0.1137514
38	0x3d585076	0.05281111
39	0x3d8bb9ba	0.06822534
40	0x3ead194c	0.33808362
41	0x3e1c074b	0.15237157
42	0x3db5a428	0.08869201
43	0x3ec0589a	0.37567598
44	0x3d46b11a	0.04850874
45	0x3d6214e9	0.055195723
46	0x3e2fb530	0.17158961
47	0xbd991bfa	-0.07476039
48	0x3eb5da33	0.35518035
49	0xbe2b183a	-0.1670846
50	0xbeb4a4c5	-0.3528196
51	0xbdc05fc6	-0.09393267
52	0x3f1c7d44	0.6112864
53	0xbeb09ad4	-0.34493124
54	0x3e498a0b	0.19681565
55	0x3f23556a	0.63802207
56	0x3eae951e	0.34098142
57	0x3e13ea7a	0.14444914
58	0xbe1233b5	-0.14277537
59	0x3e33ed12	0.17570904
60	0xbdfc1521	-0.123087175
61	0xbed6328f	-0.41835448
62	0x3f127fef	0.5722646
63	0xbf0b54b2	-0.5442611

core.features.layer1.seg_ex_block.se.1.bias f4 [2]
0	0x3ddaa9c3	0.10676911
1	0x3efdffa1	0.49609092

core.features.layer1.seg_ex_block.se.3.weight f4 [32, 2]
0	0x3f059c88	0.5219197
1	0xbf278bfb	-0.6544797
2	0xbf597e1b	-0.84958047
3	0x3e2899eb	0.16464965
4	0xbddbaa2c	-0.10725817
5	0x3ebe4e2f	0.37169024
6	0x3f322053	0.6958057
7	0xbe509a5b	-0.20371382
8	0x3e2c0c44	0.16801554
9	0xbaa5e5a7	-0.0012656943
10	0x3eae8dca	0.3409255
11	0x3f10562d	0.56381494
12	0xbe26585a	-0.16244641
13	0x3deab673	0.11460581
14	0x3e8a7280	0.27040482
15	0x3f0fdf48	0.56200075
16	0x3dcbf06c	0.09957966
17	0x3ebe5174	0.3717152
18	0x3d0593c2	0.032611616
19	0x3f3b0c13	0.730653
20	0x3ee4d5bb	0.44694313
21	0x3dbb68e4	0.09150866
22	0x3f34ef63	0.70677775
23	0x3e11d841	0.1424265
24	0xbebc3027	-0.36755487
25	0xbf1da6cc	-0.61582637
26	0x3ec73597	0.38908073
27	0x3f3af4a7	0.7302956
28	0x3eabb94f	0.33539817
29	0x3d012426	0.031528614
30	0x3ef066f2	0.4695354
31	0x3e901703	0.28142557
32	0x3d1dbaca	0.038508214
33	0x3ea7c99b	0.32771
34	0x3db72424	0.0894244
35	0x3f0e6072	0.55615914
36	0xbf44a811	-0.7681895
37	0xbe77ae49	-0.24187578
38	0x3f3e1665	0.7425292
39	0x3e778562	0.24171975
40	0xbe24a1eb	-0.16077392
41	0x3f2da3a4	0.6782782
42	0x3ea96a45	0.3308889
43	0x3f05a8bb	0.5221059
44	0x3ee68ebb	0.4503077
45	0x3ed3b312	0.41347557
46	0x3f026df6	0.5094904
47	0x3f050c40	0.51971817
48	0x3e0c9eb2	0.13732412
49	0x3c65aa37	0.014017633
50	0x3d537fde	0.051635616
51	0x3e9fc6b1	0.31206277
52	0x3eb44a76	0.3521306
53	0xbdeea8b2	-0.1165327
54	0x3f57def6	0.84324586
55	0x3eac9370	0.33706236
56	0x3ec62132	0.386972
57	0x3f162ac3	0.58659
58	0xbd6b9c07	-0.057521846
59	0x3ee10667	0.43950197
60	0x3f2c2384	0.6724169
61	0xbf49b653	-0.7879383
62	0xbf3a81ae	-0.72854125
63	0x3eb8dfcf	0.36108252

core.features.layer1.seg_ex_block.se.3.bias f4 [32]
0	0x3e2ce63d	0.16884704
1	0xbd13449a	-0.035954095
2	0xbe847a42	-0.25874525
3	0x3ea0091d	0.31256953
4	0xbf13cfe5	-0.57739097
5	0xbd657291	-0.056017462
6	0xbd3f96f9	-0.046774838
7	0xbef7ea02	-0.4842072
8	0x3e1a6ad5	0.15079816
9	0xbf10baf6	-0.5653528
10	0x3ea6f7bf	0.3261089
11	0xbd7bfc87	-0.061520126
12	0x3ec92612	0.39286858
13	0xbf2c08fb	-0.67201203
14	0x3dedac13	0.11605086
15	0xbeda9a76	-0.4269597
16	0xbe1eb594	-0.15498954
17	0xbe82e812	-0.2556768
18	0xbf14b809	-0.58093315
19	0xbf205cef	-0.62641805
20	0x3d636cf8	0.055523843
21	0xbf1b0870	-0.6055975
22	0xbe86565f	-0.2623777
23	0x3cbd4cc1	0.023107888
24	0xbef597d2	-0.47967392
25	0x3dc359d9	0.095386215
26	0xbe0a587e	-0.1351032
27	0xbe52e8ca	-0.20596614
28	0xbd7e31de	-0.062059276
29	0xbe8be7f3	-0.273254
30	0xbe4a796c	-0.19772881
31	0x3f0acaf4	0.5421593

core.features.layer2.ds_conv.in_depth_conv.weight f4 [32, 32, 1, 1]
0	0xbf0d22d9	-0.551313
1	0xbd80f530	-0.06296766
2	0xbdb647d9	-0.089004226
3	0xbeb90832	-0.36139065
4	0xbddfd3e2	-0.10929085
5	0xbeb5ab14	-0.35482085
6	0x3e566e78	0.20940578
7	0x3d765b23	0.06014551
8	0xbdca8ac6	-0.0988975
9	0xbe6a861b	-0.2290272
10	0x3db1d0d9	0.08682413
11	0xbf161968	-0.58632517
12	0x3e6a8c53	0.22905092
13	0x3e704ba5	0.23466356
14	0xbd15949b	-0.036518674
15	0xbed444f6	-0.41458863
16	0x3e4fe98d	0.20303936
17	0xbe092af1	-0.13395287
18	0xbe378e39	-0.17925347
19	0xbd45c9fa	-0.048288323
20	0x3ef9e097	0.4880416
21	0x3ea22593	0.31669292
22	0x3def1259	0.116734214
23	0xbe33f930	-0.17575526
24	0x3c981352	0.0185639
25	0xbe77c470	-0.24196029
26	0xbea7b657	-0.32756302
27	0xbeec3172	-0.46131474
28	0xbbaa651b	-0.005200041
29	0x3e5cf26e	0.21576855
30	0xbed49f07	-0.41527578
31	0x3de36601	0.1110344
32	0x3e704c59	0.23466624
33	0x3e3735a0	0.1789155
34	0xbe07314a	-0.13202396
35	0x3e1087a8	0.14114249
36	0xbe940f34	-0.2891785
37	0x3e40b3e9	0.1881863
38	0xbef26afa	-0.47347242
39	0xbd957e39	-0.07299466
40	0xbe03322d	-0.1281211
41	0x3cb6470e	0.022250678
42	0xbd686b18	-0.056742758
43	0x3de29878	0.11064237
44	0x3e26fb7b	0.1630687
45	0xbed5f277	-0.41786548
46	0x3ea14b32	0.31502682
47	0x3e0a1ebc	0.13488287
48	0xbd8f29e2	-0.069904104
49	0xbecd8900	-0.40143585
50	0x3e72be8d	0.23705502
51	0xbe102b9d	-0.14079137
52	0xbe00a3fb	-0.12562554
53	0xbdb50791	-0.08839334
54	0xbdfb563a	-0.12272306
55	0x3edb8573	0.4287525
56	0xbe1974f3	-0.14986019
57	0x3c7afc1c	0.015318897
58	0x3e6f62f8	0.23377597
59	0xbd51b173	-0.05119462
60	0xbe3b16c7	-0.18270408
61	0xbe6bdc5b	-0.23033278
62	0xbd88d877	-0.066819124
63	0x3e15e047	0.14636336
64	0x3e2d4310	0.16920114
65	0xbe98445e	-0.2973966
66	0xbcc9368b	-0.02456214
67	0x3e899669	0.26872566
68	0xbed84270	-0.42238188
69	0x3f5d8790	0.86534977
70	0xbcb7aab2	-0.022420261
71	0xbce54e50	-0.027991444
72	0xbd837040	-0.06417894
73	0xbe59dc60	-0.21275473
74	0x3d211aa1	0.039332036
75	0x3f13f899	0.57801205
76	0xbd45311f	-0.04814255
77	0x3dcbd299	0.09952278
78	0xbec65283	-0.38734826
79	0x3e4981ab	0.1967837
80	0x3e0ed952	0.13950089
81	0x3de1af05	0.110197105
82	0x3ea9af90	0.33141756
83	0xbe409c17	-0.18809544
84	0xbf47614d	-0.77882844
85	0xbe5507bf	-0.20803736
86	0x3f247822	0.6424581
87	0x3efb04e9	0.49027184
88	0x3dd5679c	0.104201525
89	0xbed7d3e0	-0.42153835
90	0xbd639c7d	-0.05556916
91	0xbe887cff	-0.26657864
92	0xbe940f67	-0.28918
93	0xbf738e62	-0.95139134
94	0x3ed63f97	0.4184539
95	0x3eada568	0.33915257
96	0x3eff9bfb	0.4992369
97	0x3e231e1d	0.15929456
98	0x3de24a3f	0.110493176
99	0xbeb14ceb	-0.34628996
100	0xbddd3eba	-0.1080298
101	0x3e80698d	0.2508053
102	0x3e76ce5c	0.24102157
103	0xbcfc66eb	-0.030810794
104	0x3e043ccf	0.12913822
105	0x3dda164d	0.10648785
106	0xbe47041e	-0.19435164
107	0xbc4328fe	-0.011911629
108	0x3e5cd4c3	0.21565537
109	0x3e805d25	0.25071064
110	0xbe1ca48a	-0.15297142
111	0x3e45b673	0.1930788
112	0x3e262f8c	0.16229075
113	0xbdaae9df	-0.083453886
114	0x3cc97837	0.024593456
115	0x3eae7bf9	0.3407896
116	0xbf0b6b87	-0.5446095
117	0x3ce1fbd5	0.027585903
118	0x3f1b36c5	0.60630447
119	0x3b8a86c5	0.0042274916
120	0x3d43a032	0.047760196
121	0x3db856fb	0.09000965
122	0x3db89c25	0.09014157
123	0xbc1a42e5	-0.009415363
124	0xbebd35a9	-0.36955002
125	0xbe79b0af	-0.24383806
126	0xbe5e1f0f	-0.21691535
127	0xbf1c843f	-0.6113929
128	0xbea6a33b	-0.3254641
129	0xbe1268e0	-0.14297819
130	0x3e53abc0	0.20670986
131	0xbdbd5048	-0.09243828
132	0x3eb5cc03	0.3550721
133	0xbf331cb2	-0.6996566
134	0x3c158f86	0.009128457
135	0xbf127dff	-0.57223505
136	0x3ee7a48a	0.4524272
137	0x3e11c3d6	0.14234862
138	0xbce81e45	-0.028334746
139	0x3e09acb3	0.13444786
140	0xbd149f59	-0.03628478
141	0x3ec18b0d	0.378014
142	0x3ebc4a76	0.3677556
143	0xbe072c1b	-0.13200419
144	0x3e706417	0.23475681
145	0x3dc488cf	0.09596407
146	0xbdff4cd6	-0.12465827
147	0x3d961c5c	0.07329628
148	0xbe0acaab	-0.13553874
149	0xbe082b71	-0.13297822
150	0xbe2b38b2	-0.16720846
151	0xbe566760	-0.20937872
152	0x3dfe05dd	0.12403462
153	0x3eb1f2f5	0.34755674
154	0x3e181240	0.14850712
155	0x3d79bb53	0.060969662
156	0x3bdfd4a0	0.006830767
157	0x3f7d04f6	0.98835695
158	0xbeb8f3fd	-0.36123648
159	0xbe72233a	-0.2364625
160	0x3e51bc28	0.20481932
161	0xbe1f3072	-0.15545824
162	0xbdc83d6f	-0.097773425
163	0xbe8b317d	-0.27186194
164	0x3e8704f0	0.26370955
165	0xbd5287a8	-0.051398903
166	0xbe0a3ab1	-0.13498951
167	0xbed0310f	-0.4066243
168	0x3debbd93	0.11510768
169	0x3cbba60c	0.022906326
170	0xbdfa78c3	-0.12230065
171	0x3d02853d	0.031865347
172	0xbccc22f2	-0.024919007
173	0xbe87a200	-0.26490784
174	0xbeb80f2c	-0.35949075
175	0xbdeb463d	-0.11488006
176	0x3ec26f88	0.37975717
177	0xbd88a674	-0.066723734
178	0xbd1714d4	-0.036885098
179	0x3d625d51	0.055264775
180	0xbe007789	-0.12545599
181	0xbdffc929	-0.1248954
182	0xbe633b97	-0.221907
183	0xbe93a3ce	-0.2883591
184	0x3ee9739a	0.4559601
185	0x3e882dc1	0.26597407
186	0xbe36a68a	-0.17836967
187	0xbddf94d4	-0.109170586
188	0xbd88ba39	-0.06676144
189	0x3c0f1378	0.008732669
190	0x3d90b5d8	0.07065934
191	0xbedbcbd5	-0.4292895
192	0x3d8eeff2	0.0697936
193	0xbf2aa141	-0.66652304
194	0x3e75ec9e	0.24016044
195	0xbe2e41e9	-0.1701733
196	0xbe7bdacb	-0.24595182
197	0x3be5a0cd	0.0070076943
198	0xbdbd2410	-0.09235394
199	0xbed8ba20	-0.42329502
200	0x3dd37006	0.10324101
201	0xbdf6d4f8	-0.12052339
202	0xbe3e23e7	-0.18568383
203	0xbe4bf23f	-0.19916628
204	0x3ddc20e2	0.107484594
205	0x3dde34ec	0.10849938
206	0x3eca7878	0.39545035
207	0xbea404eb	-0.32035002
208	0x3edc8e7f	0.43077466
209	0xbea71fbf	-0.32641408
210	0x3d905981	0.070483215
211	0xbd8a6941	-0.06758357
212	0x3df3dbee	0.11907183
213	0xbda991f0	-0.082797885
214	0x3e6119ab	0.21982448
215	0xbe16179b	-0.14657442
216	0x3e986ecd	0.29772034
217	0x3e62f80a	0.22164932
218	0xbc270442	-0.010193886
219	0xbeaaf960	-0.33393383
220	0xbdb17227	-0.08664351
221	0x3e8a4a28	0.27009702
222	0xbe28059c	-0.1640839
223	0x3ee24dd3	0.442
224	0x3e347e4a	0.176263
225	0xbd0084a1	-0.031376485
226	0x3c500884	0.012697343
227	0xbcfb22dc	-0.03065627
228	0xbd5a91d3	-0.053361725
229	0xbd71b638	-0.059011668
230	0x3d7a7dbf	0.061155077
231	0x3e29d6a1	0.1658578
232	0xbe87b2cd	-0.26503602
233	0xbd02f968	-0.031976134
234	0xbe1c58eb	-0.15268295
235	0xbefe7c12	-0.49704033
236	0xbe1cf70c	-0.15328616
237	0x3dc4421c	0.09582922
238	0xbe6b113c	-0.22955793
239	0xbe2590fa	-0.16168585
240	0x3e7c822a	0.24659029
241	0x3e86a864	0.26300347
242	0xbe9f89eb	-0.3115991
243	0x3d59beed	0.053160597
244	0xbe86b446	-0.26309413
245	0xbd9eaf41	-0.07748271
246	0x3f08fa0a	0.5350653
247	0xbeb72b9d	-0.35775462
248	0xbd40de96	-0.047087274
249	0x3e359dc1	0.1773596
250	0xbeb50810	-0.35357714
251	0xba129940	-0.0005592294
252	0xbd0b8cfd	-0.034070004
253	0xbe7b2c32	-0.24528578
254	0xbe74b647	-0.23897658
255	0x3e0cd8d9	0.13754596
