nnvision/data/model_weights/v1_data_driven/sota_cnn_ensemble_model_9.pth.tar (torch, 309331 bytes, 30 tensors)

core.features.layer0.conv.weight f4 [32, 1, 24, 24]
000000 d0 99 b5 bd 23 48 b0 bd eb 36 65 bd 7d 2d d4 bc
       -0.08867228 -0.08607509 -0.055960577 -0.025900597
000010 f0 39 b2 bc f8 ee c7 ba a0 f8 36 bc 88 d8 1b bc
       -0.021756142 -0.0015253713 -0.011167675 -0.009512074
000020 94 9e b3 bc 1b 02 d2 bc 31 13 0c bd 69 1e 2a bd
       -0.021926202 -0.02563577 -0.03419799 -0.041532908
000030 80 cf 66 bd c4 cf 8d bd 52 0f 83 bd 20 4d a4 bd
       -0.05635023 -0.06924394 -0.063994065 -0.08022523
000040 28 ca ba bd 32 96 ae bd 1d 5b 68 bd d5 ab e0 bc
       -0.091205895 -0.08524741 -0.056727517 -0.027425686
000050 a4 a4 cc bb 2e c3 93 3b c8 38 9f 38 e8 6c c4 36
       -0.0062452126 0.004509351 7.592287e-05 5.8539335e-06
000060 6e fc a4 bd be ac 9b bd 23 41 42 bd f5 78 a1 bc
       -0.0805596 -0.07601307 -0.0474254 -0.019710997
000070 43 21 30 bc b5 59 0c 3c 5d 4c 78 bb 5f 75 15 ba
       -0.010750118 0.00856631 -0.0037887313 -0.00057013886
000080 75 3a 6d bc 55 dc b3 bc 98 a4 06 bd b9 1f 09 bd
       -0.014479269 -0.021955648 -0.032871813 -0.03347752
000090 c3 81 2a bd ea 62 4f bd db d6 50 bd 9e 53 75 bd
       -0.041627657 -0.05063144 -0.050986152 -0.059894197
0000a0 23 cf 8b bd a1 ab 77 bd bb f1 16 bd 39 06 7b bc
       -0.068266176 -0.060466412 -0.036851626 -0.015321308
0000b0 14 c4 a6 bb 82 9c 60 3b 58 33 1c 3b 50 95 9e ba
       -0.0050892923 0.0034272973 0.0023834314 -0.0012098942
0000c0 0b 1f 9a bd dc 2c 81 bd 28 ec 15 bd 3e 9d 69 3a
       -0.07525452 -0.06307384 -0.03660217 0.00089116755
0000d0 25 7e 50 3c 1e 44 ae 3c 30 e4 01 3c 4e 03 33 3c
       0.012725388 0.021272715 0.007927939 0.010926081
0000e0 92 8f 99 ba b4 49 1e bc a1 92 a8 bc 88 9c c1 bc
       -0.0011715761 -0.009661127 -0.02057773 -0.02363421
0000f0 86 88 ff bc 90 24 1f bd fd df 2d bd ea 58 35 bd
       -0.03119303 -0.038853228 -0.04244994 -0.04427425
000100 50 83 28 bd 57 f2 02 bd e2 61 c4 bc 00 cd ac bb
       -0.041140854 -0.031969395 -0.023972455 -0.0052734613
000110 ef ac 86 bb 9b 2a 25 3b 58 04 8c bb 4a e3 ea bb
       -0.0041099708 0.0025202397 -0.0042729788 -0.0071682082
000120 c2 7d 86 bd 8d c0 46 bd a0 1d 0a bd cd 4c 07 bc
       -0.06566955 -0.048523474 -0.03371966 -0.008258057
000130 8d 10 59 3c d5 82 00 3d fa 59 f9 3c e2 f6 b9 3c
       0.013248575 0.03137477 0.030438412 0.02270073
000140 3c a9 04 3c 7e 39 6d 3b 8e 78 cb bb fc 63 2e bc
       0.008096989 0.0036197598 -0.0062094396 -0.010643955
000150 02 1e 52 bc a7 9d c9 bc b6 08 cb bc cd 69 07 bd
       -0.012824537 -0.024611307 -0.024784427 -0.033059884
000160 eb ec 0b bd 24 c7 c6 bc cf c4 82 bc c2 eb 55 3b
       -0.03416149 -0.02426488 -0.015962986 0.0032641743
000170 73 ea 5d 3b 74 6e 7b 3c 3f d3 49 3b f3 65 2a bb
       0.0033861666 0.015346158 0.0030796078 -0.0026000708
000180 6b 69 83 bd 5f f4 39 bd 61 c9 c8 bc 0b 46 b3 bb
       -0.06416591 -0.045399066 -0.024510087 -0.0054709963
000190 06 49 80 3c df 35 02 3d 59 b6 05 3d ed f8 a8 3c
       0.01565982 0.031789657 0.032644603 0.02062651
0001a0 01 f8 2b 3c 76 91 9d 3b cc 71 34 bb fc 22 99 39
       0.01049614 0.0048086 -0.0027533649 0.000292085
0001b0 b8 be 58 3b 42 e0 d5 ba 37 56 c6 bb 0b 65 b6 bc
       0.0033072662 -0.0016317444 -0.006052758 -0.022264978
0001c0 ab b2 55 bc 78 4d d5 bb a3 df bf bb a3 28 5c 3c
       -0.013043086 -0.006509479 -0.005855517 0.013437423
0001d0 ed 80 91 3c 79 1b b4 3c 8c d1 6a 3c c8 4c 09 3c
       0.017761672 0.021985756 0.014332186 0.0083801225
0001e0 4d e0 80 bd c5 30 64 bd 7c d7 f3 bc 2f 4f ec bb
       -0.06292782 -0.055710573 -0.029765837 -0.007211588
0001f0 90 3f aa 3c 83 ba 03 3d 27 4f ec 3c 9c 6c 6b 3c
       0.020782262 0.032160293 0.028846337 0.014369156
000200 84 f4 22 3c a5 b4 3b 3c 76 86 30 3c 45 2a 88 3c
       0.009945992 0.011456643 0.0107742455 0.016621718
000210 fd 8a 12 3c 3a ba 7b 3b ff 62 e9 b7 25 be 45 bc
       0.00894427 0.003841056 -2.7821863e-05 -0.01206926
000220 53 2c db 3b e7 9f 05 3b 12 ec 3f ba 81 97 ac 3c
       0.0066886335 0.0020389499 -0.0007321249 0.021068336
000230 fe d0 02 3d dd d4 c3 3c 65 69 b0 3c e6 09 18 3c
       0.03193759 0.023905212 0.021534631 0.009279704
000240 41 9e 81 bd 49 de 6e bd 0d 24 17 bd 3c b6 3a bc
       -0.06329013 -0.058317456 -0.036899615 -0.011395987
000250 65 e6 df 3c d3 f5 1f 3d 63 d3 f9 3c 11 9a c5 3c
       0.02733154 0.039052796 0.030496305 0.024121316
000260 75 a1 87 3c 9e 8c ac 3c eb 8c bb 3c 02 f6 c7 3c
       0.01655648 0.021063145 0.022894343 0.024409298
000270 6f 69 69 3c da ce f8 3b 55 51 0f 3c 2c 5a 35 bb
       0.014246329 0.007593018 0.008747418 -0.0027672155
000280 04 de da 3b 2c ef 40 39 27 83 f8 3b aa 0c 02 3d
       0.0066792984 0.00018399645 0.007583994 0.03175036
000290 19 3a 11 3d bf 94 d9 3c 8f fe b5 3c 8f 76 34 3c
       0.035455797 0.026560185 0.02221611 0.011014595
0002a0 ee f4 80 bd 1c d3 7b bd fc 20 34 bd b3 67 9d bc
       -0.06296717 -0.061480626 -0.04397677 -0.019214487
0002b0 69 cc 54 3c 41 a8 dc 3c e6 f3 c2 3c 23 75 a9 3c
       0.012988188 0.026935698 0.02379794 0.020685738
0002c0 ce ac ba 3c d5 63 f7 3c d0 65 bb 3c e3 ee cb 3c
       0.022787478 0.03019897 0.022875696 0.024894184
0002d0 7e fb 51 3c 38 10 09 bb d4 ad 3e 3c de c4 c6 3b
       0.012816308 -0.0020914208 0.011638124 0.006065949
0002e0 d9 f4 da 3b 0a 1c 10 39 b9 78 92 ba 56 f7 a0 3c
       0.00668202 0.00013743356 -0.0011174894 0.019649189
0002f0 84 ee 00 3d a0 78 17 3d 06 32 a7 3c 8e ca 8d 3b
       0.031477466 0.03698027 0.020409595 0.004327125
000300 5a 58 97 bd 90 b1 8d bd 86 9c 3b bd 93 40 89 bc
       -0.073898986 -0.06918633 -0.04580357 -0.016754424
000310 69 45 1e 3c 57 0d 81 3c 67 32 8d 3c 30 37 87 3c
       0.009660103 0.015753431 0.017235948 0.016505808
000320 74 d3 b6 3c 00 d3 00 3d 3b 59 b6 3c e6 3a 47 3c
       0.022317626 0.031451225 0.022259345 0.012160039
000330 ae be 62 bb 57 d9 c6 bc 01 42 3e bc b8 78 cb bb
       -0.0034598517 -0.024273558 -0.011612416 -0.006209459
000340 af 3b a1 3b 33 a2 b5 3b 18 c7 f6 b9 30 2b 2f 3c
       0.004920445 0.0055430173 -0.00047069113 0.010691449
000350 c9 ed a9 3c 33 42 16 3d 1d 0a bc 3c 9c ee 90 3c
       0.020743268 0.036684226 0.022954041 0.017691903
000360 08 c5 af bd 0f c5 98 bd 47 55 3e bd df e3 79 bc
       -0.085825026 -0.07459461 -0.046468046 -0.015252083
000370 ec 7b 7e 3b d8 b3 fa 3b c1 ff 80 3c 0f f8 7e 3c
       0.0038831187 0.0076508336 0.015746953 0.015562071
000380 15 1e 5a 3c 72 5f 8f 3c bf 3f 08 3c 0c 70 38 bc
       0.013312836 0.017501567 0.0083159795 -0.011257183
000390 ec d3 06 bd 54 ae 44 bd 01 1a c6 bc 20 90 22 bc
       -0.03291695 -0.048017815 -0.024182322 -0.009922057
0003a0 aa 3e 35 3c d4 af 81 3c 3f 05 c0 3b 6e 26 02 3c
       0.011062304 0.015830912 0.0058600004 0.007943733
0003b0 73 57 5c 3c 41 5a bb 3c 4c bb 4e 3c 32 29 54 3c
       0.013448584 0.022870185 0.012617897 0.012949275
0003c0 4f 83 92 bd 50 6e 78 bd fc 91 37 bd f7 a5 54 bc
       -0.071539514 -0.060652077 -0.044816956 -0.012979022
0003d0 8c 8e 3a 3b dd 8a 6d ba fa 2d 64 3b ae 37 00 3c
       0.0028466312 -0.0009061525 0.0034817443 0.007825775
0003e0 b5 b5 13 3c 81 24 ae 3b 07 43 80 bc 8a 87 30 bd
       0.00901549 0.00531441 -0.015656961 -0.04309801
0003f0 1f 95 95 bd 6c 02 ab bd 9d d2 4b bd cc 03 c5 bc
       -0.07303833 -0.08350071 -0.049761403 -0.024049662

core.features.layer0.norm.weight f4 [32]
000000 52 59 14 3f 44 31 3c 3f 3d 78 3b 3f 6c 7c 2f 40
       0.5794879 0.73512673 0.73230344 2.741969
000010 f2 48 21 3f 19 cf 95 3f 54 22 30 3f 7d 47 29 3f
       0.6300193 1.1703826 0.6880238 0.6612471
000020 33 77 66 3f aa 30 8a 3f 11 88 4e 3f 89 24 19 40
       0.90025634 1.0796101 0.8067637 2.392855
000030 26 7d 16 3f 42 93 41 3f 45 7b 35 3f c7 56 a7 3f
       0.5878471 0.7561532 0.7089122 1.3073357
000040 e6 c7 4a 3f 3d 84 41 3f 24 74 79 3f 9a 2f 1e 3f
       0.7921127 0.75592405 0.9744284 0.61791384
000050 4c 37 23 3f b8 cf 6f 3f 3b 0a 71 3f dc a1 1e 3f
       0.6375625 0.9367633 0.94156235 0.6196573
000060 1b f7 cb 3f 70 df 52 3f f7 a0 44 3f 16 42 7d 3f
       1.5934786 0.8237219 0.7680811 0.98928964
000070 fe 84 3f 3f d8 9d dc 3f df 04 b0 3f a8 6f 67 3f
       0.74812305 1.723567 1.3751487 0.9040475

core.features.layer0.norm.bias f4 [32]
000000 a6 67 49 bf 78 5f 3c be f0 36 ba be 03 12 b5 bf
       -0.7867378 -0.18395793 -0.3637004 -1.4146122
000010 98 4c 91 bd 68 b7 7b be 0e a8 a1 3e 00 05 99 bd
       -0.07094687 -0.24581683 0.31573528 -0.07471657
000020 dd 83 96 be 48 b2 13 3f 71 e6 a1 3e e9 7a 98 bf
       -0.2939748 0.5769391 0.31621125 -1.1912509
000030 6b 87 22 bf 30 e0 dd be d6 4d 8b be 62 70 55 be
       -0.6348788 -0.43335104 -0.27207822 -0.20843652
000040 47 e7 3a 3e d3 0d 66 be 5e d0 5f bd d9 32 e5 be
       0.18252288 -0.22466211 -0.054642074 -0.44765356
000050 65 6a a9 be e7 d5 c2 3e a7 1f 44 be 02 d7 bd be
       -0.33088985 0.3805382 -0.191527 -0.370781
000060 c1 fd ec bc 7a 0b ac be d3 7a b1 be cd cf fe 3e
       -0.028929593 -0.33602506 -0.3466402 0.49767914
000070 bf 1a 8f be 3a 80 b4 be 10 b6 dc 3d 37 e1 ab bf
       -0.27950093 -0.3525408 0.10776913 -1.3428105

core.features.layer0.norm.running_mean f4 [32]
000000 62 2f 39 be c3 54 59 bf 9d 24 9c 3e 20 66 5f bc
       -0.18084481 -0.8489496 0.30496684 -0.013635188
000010 fc a3 c4 bd 62 cf 01 bf 2e f8 91 3e 5e 37 dc 3e
       -0.0960159 -0.50707066 0.2850966 0.43010992
000020 54 01 2a 3f 48 c0 3c 3e 99 77 29 3e d6 18 6d bb
       0.66408277 0.18432724 0.16549529 -0.0036178133
000030 0b bd 84 bc 05 a7 68 bf d9 6e 2c be 65 b6 f0 bd
       -0.016203424 -0.9087985 -0.1683916 -0.11753539
000040 34 d6 b6 bd c1 1d 95 bd eb b5 7e 3e 54 dc 90 be
       -0.08927575 -0.07281066 0.24874084 -0.28293097
000050 da 52 24 bc 56 99 7a 3e 39 2b ec 3e 00 9e 41 bd
       -0.010029519 0.24472556 0.46126726 -0.04726982
000060 b2 7f 17 3d 41 d6 f9 3e 87 b2 9e 3e a9 9d 01 3f
       0.036987014 0.48796275 0.3099558 0.50631195
000070 33 a5 8e be 0d 72 71 be 1d e4 61 bd a2 77 ba be
       -0.27860412 -0.23578663 -0.055149186 -0.36419398

core.features.layer0.norm.running_var f4 [32]
000000 a7 dd 15 42 ae b6 a1 43 fc 08 14 43 87 79 40 41
       37.466457 323.4272 148.0351 12.02967
000010 f5 fc 6b 42 0a 74 dd 42 36 f4 10 43 65 81 bf 42
       58.99703 110.72664 144.95395 95.75272
000020 cc 16 23 43 1c 3b 00 43 f6 83 4b 43 ad 05 f7 40
       163.08905 128.2309 203.51547 7.719443
000030 f7 4d 74 42 10 40 9e 43 4e 1d 76 42 bb 6e 4c 42
       61.076138 316.5005 61.528618 51.108135
000040 c1 c6 4e 43 ad c6 25 42 5c b9 d1 42 33 3b c0 42
       206.77638 41.44402 104.86203 96.11562
000050 68 71 c7 42 9a 79 27 43 f9 c3 15 43 01 cc db 41
       99.7215 167.475 149.76552 27.474611
000060 ba 08 3f 42 52 5f 0c 43 7e 42 47 43 2b df e4 43
       47.758522 140.37234 199.25974 457.7435
000070 5a 70 81 42 b7 83 22 42 50 d6 48 42 97 2a 9b 43
       64.71944 40.628628 50.20929 310.33273

core.features.layer1.ds_conv.in_depth_conv.weight f4 [32, 32, 1, 1]
000000 17 fb 89 be e7 f0 89 bd 43 ec 9c bd 05 ee 78 3e
       -0.2694938 -0.067354016 -0.07662251 0.24309547
000010 5d c6 d9 bc 04 74 1b be 3d dc 9d bd 56 9f ba 3d
       -0.026583845 -0.15180975 -0.07708023 0.09112422
000020 ad 7d a4 3c ea 1f 34 be 2d 20 85 3d 33 2d e1 be
       0.020079458 -0.17590299 0.06500278 -0.43979797
000030 63 25 bb be 16 76 fb 3d 2a 57 d8 bd f7 24 0c bf
       -0.3655196 0.122783825 -0.105635 -0.54743904
000040 19 d4 6f 3d 2c d5 19 b9 e9 24 19 be b8 fb 40 3d
       0.05855188 -0.0001467063 -0.14955486 0.047115058
000050 db 6d 5b be bb 68 e7 be a7 f4 d2 bd e0 45 a1 3c
       -0.21428625 -0.4519709 -0.1030057 0.01968664
000060 3d ab 1f be 33 9c 66 be 45 07 34 3e 77 84 9b be
       -0.15592666 -0.22520523 0.17580898 -0.303745
000070 a1 92 8e 3e e5 7a 1f 3e 2f c8 51 be 7e db af be
       0.27846244 0.15574224 -0.2048652 -0.34347147
000080 00 52 fc 3b 36 1a 84 bc db d7 1a 3d 8a 42 76 be
       0.007700205 -0.01612578 0.037803512 -0.2404882
000090 8e 14 31 3e d9 96 f6 bd 70 4b 22 3d 90 65 c2 3d
       0.17292997 -0.12040491 0.039622724 0.09492028
0000a0 c1 82 87 be e4 e8 71 be fe 22 50 3e 14 99 fc 3e
       -0.26466945 -0.23623997 0.20325848 0.4933554
0000b0 b4 d4 8a 3d d2 d6 ba be 87 3d a7 3e d5 02 88 be
       0.06778851 -0.3649202 0.3266413 -0.2656466
0000c0 5f 17 23 be ba 4f 91 3d 50 8e b7 3d 3a f8 5e 3d
       -0.15926884 0.07095285 0.08962691 0.054435946
0000d0 71 6d 14 3d 6d 86 92 be f0 58 b1 be 47 98 bb bd
       0.036237184 -0.28618184 -0.34638166 -0.09159904
0000e0 15 6d 45 be 28 b5 92 3c 4a 0f 85 3e 63 33 cd 3d
       -0.19279893 0.017908648 0.25988227 0.10019567
0000f0 69 c1 cb 3d 73 d8 5d bd 7f 21 ca bc f0 c1 ff bc
       0.099489994 -0.0541615 -0.024674175 -0.031220406
000100 fe f9 43 3e b8 84 15 be b2 e7 4a be d9 e2 b2 3e
       0.19138333 -0.1460141 -0.19814947 0.34938696
000110 f7 5d 1b 3e e0 a9 c5 bd e1 d8 49 be c1 be f4 bd
       0.15172563 -0.09651542 -0.19711639 -0.11950446
000120 0c 5f 0b 3e d1 af 11 be 61 66 ec 3d 41 a2 65 3e
       0.13610476 -0.14227225 0.11542965 0.22425176
000130 c2 2f 55 be 34 b8 4a bd 7d 3c cf 3d 36 c7 68 bb
       -0.20819 -0.049492076 0.10118959 -0.003551913
000140 3a c8 15 3e f3 01 d4 3c f9 84 03 be 91 6a 9a 3d
       0.14627162 0.025879836 -0.12843694 0.07539857
000150 f5 8e d0 3d a3 bf 85 bd 0f ec 76 3e ae 91 27 3e
       0.10183517 -0.065306924 0.24113487 0.16364166
000160 a8 7d 32 bd 69 ee 5a bd c4 d2 69 be 1c 4d d4 3c
       -0.043576866 -0.053450022 -0.22834307 0.025915675
000170 6a fe 40 be 9d b0 b8 3e 71 e3 b3 bc f0 66 63 bd
       -0.18847051 0.36072245 -0.021959038 -0.05551809
000180 60 5f 99 bc bd 27 26 3d 7a 99 08 bc 63 0a f2 bb
       -0.018722236 0.04056524 -0.008337373 -0.007386492
000190 30 7b 3b 3d ed 1e 13 be 06 78 a8 bd 4d 36 de bd
       0.045771778 -0.14367266 -0.08226018 -0.10850201
0001a0 f6 29 3b be 01 ae aa 3d 7b a6 f0 3d e5 7e 0d 3f
       -0.18277726 0.0833397 0.11750504 0.5527175
0001b0 55 dd e6 bd a1 a5 76 3d f0 eb 82 3d ee 1a 04 be
       -0.112726845 0.06021655 0.06392658 -0.12900898
0001c0 ea f3 96 3c 64 dd 7f 3c 3a 4f 93 be 8c b1 75 be
       0.018426854 0.0156167485 -0.28771383 -0.2399351
0001d0 50 2c 28 3d 74 0c 69 be 20 65 03 be 70 41 92 3e
       0.041057885 -0.22758657 -0.12831545 0.2856555
0001e0 1f cc b3 be ca b5 08 3d db e1 18 3d 7e a0 95 bd
       -0.3511667 0.033376493 0.037324768 -0.07306002
0001f0 e2 dd 67 be 07 33 7b be be 47 80 bd 83 e1 ba be
       -0.22643235 -0.24531184 -0.06263684 -0.36500177
000200 3d 24 43 bd 1e 93 6f 3c 14 ba 1f 3e 5c 4d 1b 3d
       -0.04764198 0.014622478 0.15598327 0.037915573
000210 94 f1 30 3d c8 e3 30 3e 58 47 96 3d a6 20 b3 3d
       0.043199137 0.17274392 0.073378265 0.087464616
000220 1a 45 26 3d 2f ea ce 3d 90 20 14 be b7 ed 8c 3e
       0.040593244 0.10103261 -0.14465547 0.27525112
000230 24 35 a7 3d 59 54 3b bd 21 2e 2f 3e ef 3d 1b 3f
       0.08164433 -0.045734737 0.1710744 0.6064138
000240 91 6c 02 be 1d 62 aa 3c 54 f6 b4 be 5f 8b 06 be
       -0.12736727 0.020798737 -0.35344183 -0.13139103
000250 d5 99 03 3d ac 91 87 3c a6 d9 55 bd 41 f0 a9 bb
       0.032129128 0.016548954 -0.05220952 -0.005186111
000260 19 f4 33 be c1 d0 9c be 4d 50 7b be 82 73 7a 3e
       -0.17573585 -0.30628017 -0.24542351 0.24458125
000270 d6 ab a8 bd b0 08 8d 3e ee db d9 b9 1c 32 90 bd
       -0.082359 0.2754569 -0.00041553326 -0.070408076
000280 90 e1 4c be 17 46 d6 3e 1c b1 bb bb 86 06 a8 bb
       -0.2000792 0.4185035 -0.0057279 -0.005127731
000290 28 03 6d be e6 73 f2 3d fb 69 d7 be d8 81 f3 bc
       -0.23145735 0.11838512 -0.42073044 -0.029725
0002a0 2f 04 ff 3d bd 3f a8 3d 03 3b 46 be 14 27 95 bd
       0.1245197 0.08215282 -0.19358449 -0.07282844
0002b0 03 af fb bd bc de f1 bd 77 30 5a be 95 17 b1 3a
       -0.1228924 -0.11810061 -0.2130755 0.0013511056
0002c0 d8 34 30 bd 19 f4 70 bd 9d bf 69 3e 30 7a 90 ba
       -0.043019146 -0.05882654 0.22827001 -0.0011022743
0002d0 79 dc 03 be 55 91 2c 3e b7 58 55 3c 62 a2 0a be
       -0.12877072 0.16852315 0.01302164 -0.13538507
0002e0 6f 5c 84 be 4f dd 4f be 7b 52 99 3e 19 4a d8 bd
       -0.2585177 -0.20299266 0.2994574 -0.10561008
0002f0 d4 8f fe 3d b3 0e 72 3e 75 8e c2 3e 9c a9 53 3e
       0.12429777 0.2363842 0.3799931 0.2067017
000300 04 41 b2 3d 03 d6 50 be 32 d8 21 3e cb f0 24 bf
       0.08703807 -0.20394139 0.15805128 -0.6442992
000310 5a f5 85 be 9b 41 b5 bd 3d 25 3a be d8 80 0c be
       -0.2616375 -0.08850404 -0.18178268 -0.13721025
000320 ce 52 8d be 8b fe 30 3d 92 82 9f bd 28 1c 95 3d
       -0.27602237 0.0432115 -0.07788576 0.07280761
000330 2b 40 df bd ab 06 4a be 1b e4 64 bd 24 cb 03 3e
       -0.10900911 -0.19729106 -0.0558816 0.12870461
000340 99 83 59 3e c4 cb 9c be b5 50 19 3e 35 ed 9f bd
       0.21241607 -0.3062421 0.14972194 -0.078089155
000350 88 5a 45 be c0 5b c6 3d 6d 0b 35 3d a0 85 3f bd
       -0.19272816 0.09685469 0.04420035 -0.046758294
000360 8e bb e8 ba 65 4d 2b 3e 4c 56 c4 3d 36 cb 5a be
       -0.0017756091 0.16728742 0.09586772 -0.21366581
000370 11 5c 1f be 75 34 d2 bd 38 64 09 3e 2b bf ad be
       -0.15562464 -0.10263912 0.13417137 -0.33934912
000380 a2 1e b7 bd 52 e8 e7 3d 5b 07 83 3e e9 d8 7b 3e
       -0.089413896 0.113236085 0.2559155 0.24594463
000390 fa f9 1e be 51 1e 67 3d 19 4f 16 be 89 75 dd 3d
       -0.15525046 0.056425396 -0.14678611 0.10813434
0003a0 f9 ae 27 3e 79 79 cd 3c bc 76 04 bc b2 a5 71 be
       0.1637534 0.025082337 -0.008084949 -0.23598364
0003b0 ba f7 ba 3d 21 ae 6e be 51 15 56 3e e5 d8 89 3e
       0.09129281 -0.23308612 0.20906569 0.2692329
0003c0 a5 18 1b bb b2 be b8 3d 93 6d b0 3d 32 e4 09 bd
       -0.0023665812 0.09020747 0.086146496 -0.03366489
0003d0 a1 a9 22 3b 77 03 bb 3d 44 4b e2 3c 26 5e 1a bd
       0.0024820345 0.0913152 0.02762378 -0.037687443
0003e0 47 b9 80 be 83 64 a9 3e 90 fe 17 3e f2 21 6a be
       -0.25141355 0.33084497 0.14843202 -0.22864512
0003f0 7d c5 4f bd 5d 29 76 3e 1a 2f 3c 3d 1a fc 0c 3c
       -0.05072545 0.24039216 0.045943357 0.008605028

core.features.layer1.ds_conv.spatial_conv.weight f4 [32, 1, 9, 9]
000000 0c 37 ea bd f7 e5 ab bd 0e 0f 98 bd 31 fb c1 bd
       -0.114362806 -0.08393472 -0.074247465 -0.09471739
000010 33 95 96 bd d4 19 97 bd 43 3d 79 bd 19 13 0e be
       -0.07352676 -0.07377973 -0.06084944 -0.13874473
000020 0e 85 17 be 99 c9 7c 3d 8d 4f e3 3d 66 d7 0d 3e
       -0.1479685 0.061715696 0.110991575 0.13851699
000030 10 5d cc 3d 72 ad d9 3d e0 3f f8 3d 22 3a f5 3d
       0.09978688 0.10628785 0.12121558 0.119739786
000040 1a e7 42 3d de 37 5b bd b4 54 2d 3d 20 fd d2 3d
       0.047583677 -0.053520076 0.042317107 0.10302186
000050 97 21 10 3e 96 57 d7 3d 59 e9 9b 3d 47 80 a0 3d
       0.14075314 0.105147526 0.07612867 0.07836967
000060 9b 03 e7 3d 0b b1 65 3d 42 bd 09 bc 79 df 60 bd
       0.112799846 0.056077044 -0.008406939 -0.05490062
000070 ab cc 0d bd 4b b6 9d bd 19 8c 09 be 8b 0a db bd
       -0.034619015 -0.07700785 -0.1343235 -0.1069537
000080 c2 72 f2 bd c6 2b b8 bd 8d 18 1d 3b f9 93 fc bc
       -0.118382946 -0.08992724 0.0023970932 -0.030832278
000090 f7 71 d3 ba d9 a7 b7 bd 84 dc 57 be 40 a5 a9 be
       -0.0016131987 -0.08967561 -0.21080214 -0.33133888
0000a0 63 1f b4 be 6e e1 a6 be 1f 5c 46 be 84 7d c0 bd
       -0.35180196 -0.32593864 -0.19371079 -0.0939894
0000b0 df 34 c5 ba b6 4e 67 3d 1d 08 97 bc 31 63 1b be
       -0.0015045664 0.05647155 -0.018436486 -0.15174557
0000c0 31 f7 81 be 6d d5 a5 be c3 e1 96 be fa b1 5e be
       -0.25383905 -0.32389393 -0.29469118 -0.2174758
0000d0 95 f7 ae bd 42 aa cc 3b bb 23 32 bb 26 7e b3 bc
       -0.08543316 0.0062458823 -0.0027181942 -0.021910738
0000e0 60 aa 8e bd 90 0a b3 bd b5 a4 d2 bd 23 b5 0d be
       -0.0696609 -0.08742249 -0.102853216 -0.1383863
0000f0 85 f5 1f be f1 cc bd bd 52 fc ca bb d5 41 eb 3c
       -0.15621002 -0.09267605 -0.0061946297 0.028717915
000100 4d 0b 2d 3d 1f 1a 6a bc d2 86 1d b9 bb 3f f7 3c
       0.042247105 -0.014288454 -0.00015022911 0.030181756
000110 69 90 56 bd 8d 3b 14 bd 1e b7 a6 bb 34 d6 bc 3d
       -0.052383814 -0.036189605 -0.0050877472 0.092205435
000120 0e 55 45 3d 31 ab a2 3d 5f 54 9a 3c 2f 45 db 3b
       0.048176818 0.079428084 0.01883906 0.006691597
000130 ad 24 0a bc ad d9 23 3d 65 45 19 3d 12 54 b0 3d
       -0.008431596 0.040002514 0.037419695 0.08609785
000140 24 a7 f0 3d e4 2e f8 3d 9e e7 2b 3e 50 39 50 3e
       0.117506295 0.12118319 0.16787574 0.20334363
000150 55 4c 51 3e 6c f1 0f 3e 44 d2 9b 3d f5 e8 b6 3c
       0.20439275 0.14056939 0.07608464 0.02232788
000160 54 f4 51 3c 15 ad 87 3d 4b a7 58 3d 7c df a1 3d
       0.0128146 0.0662481 0.052893918 0.079039544
000170 20 43 be 3d 19 92 de 3d 02 d9 c7 3d 18 23 cb 3c
       0.09290147 0.1086771 0.09758188 0.024797007
000180 32 c4 b9 bb ca f0 3b bd b6 c5 28 3c 05 95 46 3d
       -0.0056691403 -0.04588393 0.010301044 0.04848196
000190 0a be d3 3c 23 66 56 3d cf 9f 8a 3d 87 b4 cc 3c
       0.025847454 0.0523435 0.06768762 0.024988426
0001a0 f6 0f ac bc 80 ef 14 3c 7b 24 22 bd 63 15 6f 3c
       -0.021003705 0.009090304 -0.03958557 0.014592501
0001b0 05 42 4e bc ac f9 3d bd fa 92 45 3d cd 58 b0 bc
       -0.0125889825 -0.046380684 0.04823587 -0.021526719
0001c0 b6 b6 5d bc 43 71 a7 bc b9 18 8c 3d a3 15 3d 3d
       -0.013532331 -0.02043975 0.06840653 0.046163213
0001d0 3a c4 8b 3d c1 9d 54 bd 0f 97 63 bc 73 7d 50 3c
       0.068245366 -0.05190826 -0.013890996 0.012725222
0001e0 2d d6 7a 3d 93 bf 26 3c cd 5d 5f 3d 14 97 8e 3d
       0.06123941 0.010177511 0.054532815 0.069624096
0001f0 f2 00 fd 3d 8a 2d 0e 3e f0 56 bb 3b dd b2 4f bd
       0.12353696 0.1388456 0.005717151 -0.050707687
000200 79 24 92 bc 70 92 43 3d 68 78 ad 3d 84 5e a1 3d
       -0.017839657 0.047747076 0.08470231 0.078793555
000210 55 40 c6 3d 14 3b fe 3d c3 b5 03 3e e0 72 5d ba
       0.09680239 0.12413612 0.12862305 -0.00084475987
000220 db 9a ac bd d1 57 3e bd 55 65 01 bd 03 fa 58 bc
       -0.08427974 -0.046470467 -0.03159078 -0.013243201
000230 95 21 78 3c 5a 49 55 3c 7e d2 0b 3d 94 cb 81 3d
       0.015144725 0.013017977 0.034136288 0.063376576
000240 bb 2b 0a 3d a1 47 ad bc cc d8 9f 3c 65 c3 eb 3a
       0.03373311 -0.02115232 0.019512556 0.0017987309
000250 87 59 6e bc fe 3e 34 bc d8 fb 99 bc 95 b0 9a 3c
       -0.014547712 -0.011001347 -0.018796846 0.018883029
000260 ab d9 1e 3d 55 72 0e bd c5 9a 4a bc 05 4d b6 3d
       0.038781803 -0.034777004 -0.0123660015 0.08901409
000270 9a 1e 33 3d cb f8 d2 3c e1 5e 3a 3d c9 24 22 bb
       0.043730356 0.0257534 0.04550064 -0.0024741164
000280 8a a7 fd 3c e8 95 67 3d 2e eb 3a 3e d0 f6 8d 3d
       0.030963678 0.056539446 0.18253776 0.069318414
000290 ca 3f d7 3b 4d 1b 6c 3d 4f 56 be 3d ce b0 93 3d
       0.0065688835 0.057643224 0.09293806 0.07211457
0002a0 0e 9f 4b 3d fa 34 38 3d 94 56 13 3d dc 52 08 3e
       0.049712233 0.044972397 0.03597124 0.13312858
0002b0 5d 6c 18 3d a2 cb 78 bd e2 94 c0 3b af 19 82 3d
       0.03721272 -0.060741074 0.005877123 0.06352555
0002c0 38 b1 04 ba 30 dc fb 3c e3 ad 2a 3c 64 15 b1 bd
       -0.0005061808 0.030744642 0.010417434 -0.08646658
0002d0 ca 99 df 3d 38 1d 3b 3d fc ab 72 ba 0e a9 2c bd
       0.10918005 0.045682162 -0.0009257195 -0.04215341
0002e0 8e 60 15 ba 77 6d 14 bc 84 07 b0 bc 4f fc 1f bc
       -0.00056982867 -0.009059302 -0.021487959 -0.009764745
0002f0 17 a5 4b bd 6f 6a d4 3d f1 d8 dd 3c 7c 1f 44 3c
       -0.04971799 0.10371863 0.027080985 0.011970397
000300 46 b0 da bb 47 89 7d 3b 8c ee b4 bc a1 ac 46 3d
       -0.0066738455 0.003868656 -0.022086404 0.048504476
000310 aa 03 eb 3d 82 33 73 3d eb ba 15 3e 26 d3 2c 3d
       0.11475308 0.059375294 0.14622085 0.042193554
000320 8c 5a 42 3d 9f 84 34 3d 02 88 89 3d 90 50 9a 3d
       0.047449633 0.04407179 0.067153946 0.07534897
000330 5a bb 91 3d e0 28 bc 3d 32 11 a9 3d 37 96 c4 3d
       0.071158126 0.09187484 0.08255233 0.09598964
000340 6d 06 09 bd 01 3c 23 bd 74 25 4f 3d 85 ac f0 3d
       -0.033453394 -0.039852146 0.050572827 0.117516555
000350 09 2e d2 3c 7a 99 8c 3d 6c 7c fc 3d 2a 36 a6 3d
       0.025656717 0.06865211 0.12328419 0.081158
000360 12 b0 2b 3e ad 34 10 3d df 4d 60 3d 3b ee 0a 3d
       0.16766384 0.035206486 0.054761764 0.0339186
000370 f5 0a e9 3d 2b 7f c5 3d 35 13 97 3d f0 21 f8 3c
       0.11379043 0.09643396 0.0737671 0.03028962
000380 21 87 14 3d 93 07 1e 3e 6c 72 cd 3d 45 44 4e 3d
       0.03626168 0.15432577 0.1003159 0.050358076
000390 e6 b0 12 3d fe 52 49 3d 9d 4f a7 3d 88 41 cd 3d
       0.035813235 0.049151413 0.08169482 0.10022265
0003a0 01 42 99 3d db 7a a1 3c 85 2c a8 3d 80 54 ef bc
       0.07483292 0.019711902 0.082116164 -0.029215097
0003b0 fa 98 09 bd 53 84 58 ba c8 7f 34 3d 2e cf 0a 3d
       -0.033593155 -0.0008259464 0.044067174 0.03388899
0003c0 36 75 7c 3d 5e 97 59 3d 42 d4 03 3d 50 29 40 bc
       0.06163522 0.05312287 0.032184847 -0.0117286
0003d0 f9 e5 1d bd 90 4c 76 bd 2b bd 1b bd b7 66 9d bc
       -0.038549397 -0.06013161 -0.0380222 -0.019214017
0003e0 7c ef a6 3c 78 5b 5f bc 0f e4 16 3d dd 46 80 3d
       0.020377867 -0.013632648 0.036838587 0.06263516
0003f0 cd 9e 6a 3c ad f2 e9 bb 3b 8d 31 bd ee b6 2c bd
       0.014320088 -0.007139525 -0.04334758 -0.042166643

core.features.layer1.ds_conv.out_depth_conv.weight f4 [32, 32, 1, 1]
000000 8a 14 f9 bd e1 8d e6 bd e9 4e 57 3e 31 00 d8 be
       -0.12162121 -0.1125753 0.21026196 -0.42187646
000010 74 00 46 be fa cd 33 be a0 0b e1 3c d6 36 47 3d
       -0.1933611 -0.17559043 0.027471364 0.04863628
000020 f3 21 65 3e e7 3f 1a be 02 10 f7 3c 50 7f 0b 3d
       0.22376232 -0.1506344 0.030159 0.03405696
000030 ac aa 04 be 70 61 93 3e a5 f4 b0 3e d9 d5 e6 3c
       -0.12955731 0.28785276 0.3456165 0.028178142
000040 b1 0a 75 be 04 85 55 be e3 7b 93 bd 31 0f 14 be
       -0.2392986 -0.20851523 -0.07201364 -0.1445892
000050 6e a6 87 be fa a3 ec 3d 0f 3f f8 bd 55 07 c9 3d
       -0.26494163 0.115547135 -0.121214025 0.098158516
000060 cd c0 26 3d 3c 9d 8c bd 9c 14 cf 3d da d7 9a 3e
       0.040711213 -0.068659276 0.10111353 0.30242807
000070 11 67 fe 3d 04 8e e0 3d d5 b2 65 be 62 da a6 be
       0.12422002 0.10964587 -0.224315 -0.32588488
000080 49 cf 87 3d d3 32 5f 3e 25 ce 9c bc 16 6d 8e be
       0.066313334 0.21796732 -0.019141266 -0.278176
000090 62 2d 7c bd af 22 95 3e d5 30 7e bd 55 1d 76 bb
       -0.061566718 0.29128024 -0.06205829 -0.0037554104
0000a0 c1 1f 38 3f a5 6a a3 bd b3 f1 0f 3e 1f d1 d3 bd
       0.7192345 -0.07979325 0.14057045 -0.10342621
0000b0 a6 cb 48 3d 68 a4 61 3e c6 5a bb 3e 8f 00 00 be
       0.04902234 0.22035372 0.36592692 -0.12500213
0000c0 dc 92 b2 be 56 20 42 3e c1 28 0c 3e 09 39 a8 bd
       -0.3487767 0.18957648 0.13687421 -0.082140036
0000d0 86 6a 90 be 08 cd 3f 3e 62 0f 7b 3e 89 08 3d be
       -0.2820627 0.18730557 0.24517587 -0.18460287
0000e0 ba e1 e7 be 80 9c dc bc 4f d6 bb 3d 9c e8 af 3e
       -0.45289403 -0.026930094 0.091717355 0.34357154
0000f0 1d fb 3c 3e 1b eb 13 be b0 1f 29 bd 9e 20 86 be
       0.18455167 -0.14445154 -0.041289985 -0.2619676
000100 55 e7 2c be d0 52 07 3f b4 7f 09 be c7 19 69 3d
       -0.16885121 0.52860737 -0.13427621 0.05690935
000110 98 fb 93 be e6 01 0c bd cc 15 61 3d 4b 8a 4a bd
       -0.28902888 -0.034181498 0.054952428 -0.049448293
000120 28 08 ad 3e e1 60 0b 3f 81 71 a4 3d e9 82 34 bd
       0.33795285 0.544447 0.08029462 -0.04407016
000130 d2 22 89 be b8 06 b9 3d 05 b5 1a 3f 74 0c e9 3b
       -0.26784378 0.090344846 0.60432464 0.00711208
000140 3a 8b ec bd 57 45 2d 3d 24 83 6e 3e 8b da d6 bd
       -0.11549993 0.042302456 0.23292214 -0.104909025
000150 e0 db af bd fd f3 43 3e 40 72 7c 3e bc 27 8c be
       -0.0858686 0.19136043 0.24652958 -0.27374065
000160 32 4e 1e be fe f7 21 be e7 e5 b2 bd ea 2b 57 3d
       -0.15459517 -0.15817258 -0.08735257 0.052532114
000170 b0 43 ba be a5 94 a2 3e 95 4c c2 3e 13 cf c1 be
       -0.36379766 0.31754032 0.37949052 -0.37853298
000180 7a 6e 50 be e6 a0 b0 3e ba 6d 0a 3e cd 0d 69 be
       -0.20354643 0.34497756 0.1351842 -0.22759171
000190 ed f0 b7 be 07 84 3e 3d 2a 22 04 bf e1 e0 96 3e
       -0.35926 0.04651263 -0.5161463 0.29468444
0001a0 cd 7d 0b bd 95 73 fe 3d ba 73 f9 bb 68 90 8f bc
       -0.03405552 0.12424389 -0.0076126726 -0.017524913
0001b0 9e a9 82 bc 1b 06 86 3e 92 72 e5 bd 2b 46 19 3e
       -0.01595002 0.26176533 -0.11203493 0.14968173
0001c0 85 c9 cd be 75 12 3d bd b5 23 68 3d 09 a5 50 3e
       -0.4019281 -0.04616018 0.056674678 0.20375456
0001d0 d5 73 92 be 3f 0d 2f be 27 b6 37 3e f5 4c d0 bd
       -0.28603998 -0.17094897 0.1794058 -0.101709284
0001e0 98 da 6b be 46 b9 23 3e ba b1 88 3e cc e5 9a 3e
       -0.23032606 0.15988645 0.26698095 0.30253446
0001f0 7e f9 9b 3e 80 7e 23 3e de 82 13 3d 32 dc 59 be
       0.30463785 0.15966225 0.036013477 -0.21275404
000200 de 28 27 3e 1f ef 59 3d 81 10 96 3d 1f 72 95 3d
       0.16324183 0.05320656 0.073273666 0.072971575
000210 d6 d3 69 bd 6c f6 5a 3e c2 38 19 3e e0 70 07 3e
       -0.057086788 0.21383065 0.14963058 0.13226652
000220 8c 07 02 bd 25 3d 04 3f 31 99 6f 3d d5 2d 13 bf
       -0.03174548 0.516558 0.058495704 -0.5749181
000230 16 5e 99 bd 4d 97 39 bc 1e 10 a2 bd 7b cd 36 3e
       -0.074886486 -0.011327577 -0.0791323 0.17851822
000240 57 ac 57 bc ee b1 50 3f d0 7f ef 3e a4 57 54 3d
       -0.013163648 0.815215 0.467772 0.051841393
000250 78 6d ff 3c 4c 16 34 3e bb 55 2e be f1 e8 c7 3c
       0.031180128 0.1758663 -0.17024891 0.024403067
000260 7f 01 a1 3d 03 68 ee 3d 03 90 e4 3c 2b 78 20 3c
       0.078616135 0.116409324 0.027900701 0.009794275
000270 29 db 98 bc f2 c5 74 be f5 ed 0a be 3c 6a 64 3e
       -0.018659191 -0.23903635 -0.13567336 0.2230615
000280 e7 a3 00 3f ce e8 42 be 94 05 5c be 7c 09 84 bd
       0.50250095 -0.1903412 -0.21486503 -0.064471215
000290 5c 56 ef bd 25 9c 92 be ee a7 a8 bd 4c b2 90 3d
       -0.116863936 -0.28634754 -0.08235155 0.070652574
0002a0 4b 22 7e 3e 67 30 51 3f 61 6b 78 3d ef 05 b2 bd
       0.24817769 0.8171448 0.06064928 -0.08692538
0002b0 b3 49 94 be 31 13 29 bd 08 8f 1a 3e 4f b0 d1 3e
       -0.28962478 -0.041278068 0.15093625 0.40954825
0002c0 56 8c 85 3e 0f 15 9f 3b 13 86 b9 bc 88 02 40 3e
       0.2608363 0.0048548053 -0.02264694 0.18750966
0002d0 6b 2b 49 3e c5 0c 8d be 54 0a 0b bc 81 c9 9b bd
       0.19645469 -0.27548805 -0.008486349 -0.07606793
0002e0 cb 38 73 3e 30 78 cb bd fd 9f f7 3e 3a 62 6e 3e
       0.23752134 -0.09935033 0.4836425 0.23279658
0002f0 64 d7 fc 3d 6d c8 c2 3d cf 14 9d 3e 77 e0 7b be
       0.1234577 0.095108844 0.30679938 -0.24597345
000300 2d 17 9c bd 15 26 3f be 9c 62 35 be c4 69 26 3f
       -0.07621608 -0.18666871 -0.17713398 0.65005136
000310 d5 73 2d 3e 06 d7 22 3e df f8 15 3e 76 5e 88 be
       0.16938718 0.15902337 0.14645718 -0.26634568
000320 53 ab 5d be 06 74 84 3e e5 1f d6 3c 71 de 9b 3c
       -0.21647386 0.2586977 0.026138255 0.019026967
000330 a8 66 69 3d fa 81 43 bd 1b 82 6b bd b7 cb 82 be
       0.056982666 -0.047731377 -0.057497125 -0.25546047
000340 93 1f d9 3e 75 d2 bf bd 5b 87 9a be b3 11 a1 3e
       0.42406902 -0.09366313 -0.30181393 0.31458816
000350 74 aa 7c 3d 13 fe 22 3d b1 f2 dc 3d 35 a2 73 3d
       0.061685994 0.039793085 0.10788477 0.059480865
000360 16 15 cc 3d da ca ba 3e f6 bc 66 3e c5 7d 67 be
       0.09964959 0.36482888 0.2253302 -0.22606571
000370 79 2e 15 bd b1 6b 05 3e 7a 96 8e 3d 0c cb 82 be
       -0.036421273 0.13029362 0.06962295 -0.25545537
000380 cb 6b f1 be 91 54 8e 3d 73 3d 14 be be be 0c 3e
       -0.47152552 0.069497235 -0.14476566 0.13744637
000390 c9 27 c5 bd f7 0c 1d 3e 0c 17 4e bc 70 0b 8e bb
       -0.09626729 0.15336977 -0.012578737 -0.0043348595
0003a0 16 15 11 3e 65 e2 ca bd 97 ee d4 3d fb 23 4d 3e
       0.141682 -0.099064626 0.1039707 0.20033257
0003b0 98 8c 41 bd 62 87 0d be a2 6f 5f bb 92 65 85 be
       -0.04725322 -0.13821176 -0.0034093638 -0.26054054
0003c0 38 56 32 3e e7 49 20 be 12 c4 31 bc e4 15 0a be
       0.17415702 -0.15653192 -0.010849969 -0.13484913
0003d0 fc 9b 89 bd e4 54 83 be 77 b5 5b 3e a6 ee dc 3e
       -0.06719205 -0.25650704 0.21455942 0.43150824
0003e0 f6 74 a3 bb 31 ff 13 3f 5b 18 5a be 50 19 a9 3d
       -0.004988308 0.57811266 -0.21298353 0.08256781
0003f0 ed d8 2b 3e f7 81 33 3e 6c 3a 11 3e 7d 69 97 be
       0.1678197 0.17530046 0.14182442 -0.2957267

core.features.layer1.norm.weight f4 [32]
000000 f7 1d 8a 3f 7c 14 82 3f 62 85 54 3f b6 a2 39 3f
       1.0790395 1.0162501 0.83016026 0.725139
000010 b4 83 91 3f 9d a9 d6 3f 39 aa 1b 3f 3f 6a 57 3f
       1.1368318 1.6770512 0.60806614 0.84146494
000020 bb 7b 12 40 78 10 e2 3f 17 a0 71 3f 34 ae 51 3f
       2.288802 1.7661276 0.943849 0.8190644
000030 18 e0 01 40 ee ad 83 3f 37 4a 86 3f 8a 97 39 3f
       2.0293026 1.0287454 1.0491399 0.72496855
000040 86 95 19 40 08 40 54 3f 10 ec 57 3f 76 87 71 3f
       2.3997512 0.82910204 0.8434458 0.9434732
000050 a9 5b 89 3f f9 fa 47 3f 6a 5f 07 40 72 6c 67 3f
       1.0731097 0.7811733 2.1151986 0.9039985
000060 37 70 43 3f c9 7c 67 3f 35 eb 91 3f 94 eb 65 3f
       0.763431 0.9042478 1.1399904 0.8981259
000070 a9 94 2b 3f 15 83 be 3f 7d d3 5c 3f 3b d1 00 40
       0.6702371 1.4883753 0.86260206 2.0127704

core.features.layer1.norm.bias f4 [32]
000000 a9 a3 ef bd 3f 5c 5e bf c4 b3 fc be 1c 8e ae be
       -0.117011376 -0.86859506 -0.493559 -0.34092796
000010 a7 27 24 3f 0f 79 86 be 45 bf 1c 3e af f5 92 be
       0.64123005 -0.26264235 0.15307339 -0.28703067
000020 84 33 23 bf 38 3b 42 bf 28 24 93 bf 54 99 35 be
       -0.6375048 -0.7587161 -1.1495409 -0.17734271
000030 cc 22 0a bf 26 dd 22 bf fb 1e fa be 1c e7 04 be
       -0.53959346 -0.63618696 -0.4885176 -0.12978786
000040 42 c8 8f bf 1f 83 2c bf 2b 73 d2 be 07 39 63 be
       -1.1232989 -0.67387575 -0.4110349 -0.22189723
000050 3c 27 6d bd 9a ed 0c 3f 14 14 53 bf c4 41 60 be
       -0.057898745 0.5505005 -0.8245251 -0.21900088
000060 99 1a a1 3e b2 ed 13 bf f8 7d 49 bf 1a 8d 4c 3e
       0.31465605 -0.5778457 -0.7870784 0.19975701
000070 f5 52 9b 3e 3d 2e 4c bf 26 e4 e9 be be 5e d0 bd
       0.3033673 -0.79758054 -0.45681876 -0.10174321

core.features.layer1.norm.running_mean f4 [32]
000000 af 74 a9 bd 94 24 51 bf 1a c3 8e bf 5c 42 03 c0
       -0.08274209 -0.8169644 -1.115329 -2.0509253
000010 af 96 d6 3e 0b 65 66 be 5f 31 54 bd bd ae 22 bf
       0.41911837 -0.22499482 -0.051804896 -0.6354788
000020 b4 c5 0e be 24 80 38 bf 45 33 94 bf 4e ad 4b bf
       -0.13942605 -0.7207053 -1.1578146 -0.79561317
000030 fa e8 6f bd e0 94 f1 3e 68 df a3 3a 81 38 2f bf
       -0.058571793 0.47183895 0.0012502493 -0.68445593
000040 d8 77 81 be b8 92 cb bf cc 23 b3 bf 2b f1 2d bf
       -0.25286746 -1.590415 -1.3995299 -0.6794612
000050 ff ca 05 bf 47 77 9c 3e 08 61 3d bd a1 0a 3a 3f
       -0.5226287 0.3055975 -0.046235114 0.7267247
000060 f7 7b c4 bf a8 c8 af be f8 b1 39 be a8 aa 37 bf
       -1.5350331 -0.34332776 -0.18134296 -0.71744776
000070 81 1a 90 bf 92 42 79 bf 6e 3d 91 3d 9d 9b 8d 3e
       -1.1258088 -0.97367203 0.07091795 0.27657786

core.features.layer1.norm.running_var f4 [32]
000000 35 c6 61 41 67 13 92 41 3b 5d ae 41 88 5c 47 41
       14.11089 18.259474 21.795523 12.460091
000010 b2 18 00 42 59 fb b5 41 64 0e df 40 53 2a 82 41
       32.024117 22.747728 6.9705067 16.270666
000020 7f 6d b9 42 5c 95 6b 42 53 bb ad 41 86 67 2e 41
       92.71386 58.89586 21.716467 10.900274
000030 17 20 55 42 18 d5 98 41 e4 bb 3a 41 bb 63 34 41
       53.281338 19.10405 11.670872 11.274348
000040 32 29 55 42 18 f4 4b 41 de a6 03 41 8f ca 38 41
       53.29023 12.747093 8.228239 11.549453
000050 8f c8 95 41 e0 f4 84 41 75 a3 50 42 3c 96 37 41
       18.722929 16.619568 52.159626 11.474178
000060 98 df 04 41 82 14 91 41 a3 8c 8b 41 f0 61 48 41
       8.304588 18.135014 17.44367 12.5239105
000070 6f 91 54 41 75 11 e3 41 bb 2b 67 41 1b 05 98 42
       13.285506 28.383524 14.448176 76.00997

core.features.layer1.seg_ex_block.se.1.weight f4 [2, 32]
000000 9c e3 4f be 21 70 b4 be 86 18 d9 be 1f 42 78 3e
       -0.2030167 -0.35241798 -0.42401522 0.24243973
000010 86 8b 7d 3c b1 e7 65 3e 38 73 4d 3e ff 7f c4 bd
       0.0154751595 0.22451665 0.20063484 -0.09594726
000020 a1 14 9c 3d 70 90 f6 3e b3 42 c0 3d f5 14 90 bd
       0.07621122 0.48157072 0.09387722 -0.07035247
000030 fb 7b 08 3e 9f 18 9f 3d dc 1b 26 3d fb c5 23 3d
       0.13328545 0.07768368 0.040553913 0.03998373
000040 15 ca 71 be 1f 06 00 3e ed 06 e2 3c f2 23 10 3e
       -0.23612244 0.12502335 0.027591193 0.14076212
000050 39 8c b1 bc 9d 69 a1 3e f2 42 22 3f 13 52 bb be
       -0.021673309 0.3152589 0.633834 -0.36586055
000060 cf 50 94 3e cd cc 49 be 2c 43 e9 be d3 23 a0 3d
       0.28967902 -0.19707032 -0.4555906 0.07819333
000070 64 94 5c bc 93 44 9d bc 3d 77 40 3e da a8 6e 3e
       -0.013463113 -0.019197738 0.18795486 0.233066
000080 88 53 6b bd 17 82 a6 be 52 dc ee bd fc 0b 30 bd
       -0.05745271 -0.32521126 -0.116631165 -0.04298018
000090 00 28 98 3e 47 7b be 3e 66 48 6d 3e ee 11 5a be
       0.29718018 0.37203428 0.23172149 -0.21295902
0000a0 ee d5 32 3e 8b 54 84 bd 2f 8b 8d 3c 24 05 2e 3e
       0.1746442 -0.06461438 0.017278282 0.16994148
0000b0 18 f7 23 3e 13 03 10 3e c7 1f d1 3d 69 a4 83 b8
       0.16012228 0.14063673 0.10211139 -6.2771906e-05
0000c0 2a e1 ae 3e 38 cc 21 3e a0 25 b6 bc b9 2e 7c 3e
       0.34156162 0.1580056 -0.022234738 0.24627198
0000d0 21 b8 ee 3d 05 79 24 3c f2 1e 62 3e f8 fc 2d be
       0.116562136 0.010038619 0.22082117 -0.16991031
0000e0 fe 39 f5 3d bc 89 97 be 2d d3 4c be d0 e5 9a 3e
       0.11973952 -0.2959727 -0.20002432 0.30253458
0000f0 b0 80 23 bc f8 a4 6d 3e 7f 54 df 3e 44 b7 20 3f
       -0.009979412 0.23207462 0.43619153 0.6277964

core.features.layer1.seg_ex_block.se.1.bias f4 [2]
000000 f6 9e 2b 3e da 93 0a 3f
       0.16759858 0.54131854

core.features.layer1.seg_ex_block.se.3.weight f4 [32, 2]
000000 2c 42 61 bf 3f 5b 0d bf 01 2a 9c be 6e d8 5d 3e
       -0.87991595 -0.55217355 -0.30500796 0.21664593
000010 cd e8 9a 3e 38 f5 21 bc 66 42 c1 be 95 81 46 bd
       0.30255738 -0.009885125 -0.3774597 -0.048463423
000020 c2 8b 4c bf ca 7f 4e bf 79 35 1c be b3 4a 30 bf
       -0.79900753 -0.8066374 -0.15254773 -0.6886398
000030 3d be a0 bd c8 1e cc bc c3 22 0b 3e fc dc 9b b9
       -0.07848785 -0.024917021 0.1358748 -0.0002972855
000040 ff ba 4e bd 63 5c 03 bf 60 90 25 bf e2 db 5d be
       -0.050471302 -0.51312846 -0.64673424 -0.2166591
000050 bb 3e 88 3e 98 67 5e 3e 98 4b 9e 3e f4 00 22 bf
       0.2661036 0.21719205 0.30917048 -0.63282704
000060 91 39 b2 bd 9d 16 15 bf 7c 7e 52 be f1 f6 fe bd
       -0.08702386 -0.5823763 -0.20556062 -0.12449444
000070 1c 76 d1 be f4 ec 6d bc 9b 6b 92 be 06 66 9f 3e
       -0.40910423 -0.014521826 -0.2859772 0.31132525
000080 62 07 7e 3d 90 5b 3c bf 70 e1 c3 bd be 10 e7 bd
       0.06201876 -0.73577213 -0.09564483 -0.1128249
000090 08 3f 56 be a6 93 76 be 53 6b ce be 00 4b 12 be
       -0.20922482 -0.24079761 -0.40316257 -0.14286423
0000a0 08 47 c8 bd de 98 96 be 6b 8b 80 bf db 3d 1f bf
       -0.09779173 -0.29413503 -1.0042547 -0.6220376
0000b0 7d 0c 37 bf 05 f5 94 be 59 69 0e bf 15 37 82 be
       -0.7150343 -0.29093185 -0.556295 -0.2543265
0000c0 1a 86 f0 be c2 2e bb be 26 04 e7 be fc 76 17 be
       -0.4697731 -0.3655911 -0.45120353 -0.14791483
0000d0 f9 cc c0 be 94 5f 03 bf 72 f0 7b be 9b 10 67 be
       -0.37656382 -0.51317716 -0.24603441 -0.22564928
0000e0 33 77 57 3e 6d 5c 0f bf f3 3f 8a 3d 72 50 ed be
       0.21041565 -0.56000406 0.067504786 -0.46350437
0000f0 18 95 33 3d 41 c7 00 bd 0f a3 7b bd d2 4a 06 bf
       0.04384336 -0.031440023 -0.0614348 -0.52457917

core.features.layer1.seg_ex_block.se.3.bias f4 [32]
000000 d3 9d d6 be 8f 06 71 be 27 ef c4 be 6c 4b ea 3e
       -0.41917285 -0.23537658 -0.3846371 0.45760667
000010 12 4e 77 bd 37 2b a3 be 0f 71 d4 be 59 27 8d 3c
       -0.060377188 -0.31868908 -0.41492507 0.017230676
000020 6a f3 8d 3e 37 8e 2b 3f 6b 8b 22 3e 6a 14 a9 bd
       0.27724773 0.6701388 0.15873496 -0.08255847
000030 da 92 57 3e 91 29 2f 3f 17 95 bc be ed 40 02 be
       0.21052113 0.684228 -0.36832497 -0.1272008
000040 7c 5d 0a be cb 4b cc be 24 41 c4 be 35 f3 79 bd
       -0.13512224 -0.39901575 -0.38330948 -0.061022956
000050 88 7d d1 be 08 a6 d8 3e 28 a6 26 3e 6b 4e 28 3e
       -0.40916085 0.42314172 0.16274321 0.16436164
000060 06 b6 a8 3e be c8 a7 be f6 73 c9 bd fb 49 11 bf
       0.32951373 -0.32770342 -0.09836571 -0.5675351
000070 09 d2 6d be d1 ee 71 be 5a cf 81 bc 26 47 03 3e
       -0.23224653 -0.23626257 -0.015845943 0.1282011

core.features.layer2.ds_conv.in_depth_conv.weight f4 [32, 32, 1, 1]
000000 e2 67 5a 3e ef b2 6b be 79 cf aa bc fa c8 33 be
       0.2132869 -0.23017476 -0.020850884 -0.17557135
000010 fb 56 67 be 92 ad c4 be 03 c3 18 bd a3 a9 b1 bd
       -0.22591774 -0.38413674 -0.037295353 -0.08674934
000020 16 c9 fc 3e b1 b5 a6 be 3a bf f9 bd 2b e3 90 be
       0.49372166 -0.32560495 -0.12194677 -0.28298315
000030 36 8b 61 3e bd dc 80 3d 17 96 5d 3e 04 21 27 3e
       0.22025761 0.062921025 0.21639286 0.16321188
000040 79 06 d1 be fb 60 0d be 3a 5c 9b 3d a9 63 a5 bd
       -0.4082525 -0.13806526 0.0758595 -0.08075649
000050 a8 b1 d5 bd 54 14 7a bd 04 18 05 bf 64 95 88 3e
       -0.10434276 -0.061054543 -0.5198977 0.26676476
000060 f6 7c 85 be a4 05 1c 3e f2 0c 21 3e d0 09 2b be
       -0.260719 0.15236527 0.15727594 -0.16702962
000070 f8 03 7b 3e ce 95 4f be e0 02 ac bd ad 04 0a 3e
       0.24513233 -0.2027199 -0.08398986 0.13478346
000080 30 ba 35 be d9 18 0b be 24 90 3e 3e 60 45 ca 3d
       -0.17746806 -0.13583697 0.18609673 0.098765135
000090 07 4d 0c be a0 0c 03 3e 20 62 c4 bd 94 6d eb bd
       -0.13701259 0.12797785 -0.09589028 -0.1149551
0000a0 bc c4 ad be ad 92 28 3f a6 97 ff bd 7e a6 45 bd
       -0.3393916 0.6584881 -0.124800965 -0.048254482
0000b0 e5 7c eb 3d a4 1c f9 bd bd ae 51 be d3 b5 81 be
       0.11498431 -0.12163666 -0.20476814 -0.25334033
0000c0 ae 83 79 be a5 e0 ad 3d 9a aa 3b 3d 49 6b f9 3d
       -0.24366638 0.08490113 0.045816995 0.12178666
0000d0 68 1a aa 3d 0a 35 02 3e 5c 58 ab 3e a0 e6 90 bd
       0.08305818 0.12715545 0.3346585 -0.07075238
0000e0 45 15 0e be 22 ea 38 3e e8 f9 29 bf 5b e2 c3 be
       -0.13875301 0.18058065 -0.6639695 -0.38258633
0000f0 3c 68 db be ad 27 c1 3d 03 79 9d be 94 e7 17 3e
       -0.42852962 0.09431396 -0.30756387 0.14834434
000100 c4 eb ac bd ba 89 88 3e c7 dc 04 bf b3 c4 b1 3e
       -0.08443406 0.26667577 -0.5189938 0.34720382
000110 db 0a ce 3d f7 05 33 be 7f 13 32 3d 6d 21 43 3d
       0.10060664 -0.17482744 0.043475624 0.0476393
000120 95 ae 06 bd 0d 05 b1 be 24 d4 c8 3e 29 2d 3e be
       -0.03288134 -0.34574166 0.3922435 -0.18571915
000130 25 59 06 be 05 92 82 bc 73 3a 5a be 18 ec 77 be
       -0.13119943 -0.015938768 -0.21311359 -0.24211156
000140 90 20 a1 3d 87 45 a6 3e 94 b3 66 bd 74 77 35 bc
       0.07867539 0.3247492 -0.056323603 -0.011075843
000150 c9 61 87 b8 13 d7 86 3e 61 1b 8e bd ab 53 9e bd
       -6.4555155e-05 0.26335964 -0.06938816 -0.07730802
000160 f2 be da 3d a3 2d 90 39 58 9b b8 be d3 e4 1a 3d
       0.10680951 0.00027499822 -0.36056018 0.03781588
000170 82 cc 2e bd b4 fe 08 be db 01 b7 3d ba 33 6f be
       -0.042675503 -0.13378412 0.08935901 -0.23359576
000180 52 a1 4d bc fc 3b 4f be 32 7e 66 be 4a 20 62 3e
       -0.012550669 -0.20237726 -0.22509077 0.2208263
000190 a0 d1 00 bf c3 51 a6 bd 07 3c 9a be d8 34 3b 3e
       -0.5031986 -0.081210636 -0.30123922 0.18281877
0001a0 d5 67 51 be ad 8d 65 3d 26 94 43 3e d9 df 28 3e
       -0.20449765 0.056043316 0.19099483 0.16491641
0001b0 9f c1 f1 3c 4d 56 74 be ca 49 66 3e dd bc 37 3e
       0.029511271 -0.23861046 0.22489086 0.1794314
0001c0 a6 4d bb be c1 d7 2e be 73 16 be bd af 82 5e bd
       -0.3658268 -0.17074491 -0.092816256 -0.05432385
0001d0 61 a1 8f 3c ab 52 62 3e 24 a7 46 3f c4 42 11 3d
       0.017533006 0.22101848 0.77598786 0.035464063
0001e0 04 85 b2 bd b4 b8 87 be a8 63 06 3e 2a cd 7e bd
       -0.08716777 -0.26508105 0.13123953 -0.06220738
0001f0 3d ce 15 3e a7 ba 5b be 02 27 a9 3e c3 fa db 3e
       0.14629455 -0.21457921 0.33037573 0.42964754
000200 22 48 c5 be f9 d3 1b 3e 53 eb 0c 3e 44 97 c9 bd
       -0.38531595 0.1521758 0.13761644 -0.09843305
000210 c4 6a 66 bd 8d 6b d9 bc 41 25 0d bd b7 3d a5 3d
       -0.056254163 -0.026540542 -0.034459356 0.08068412
000220 34 dc ed 3e 40 31 46 3d 61 d8 4d be e4 3f 74 be
       0.46457064 0.048386812 -0.20102073 -0.23852497
000230 32 a0 e8 3e a0 f2 a0 3e 0c bd 1c 3e 2e 11 8a bc
       0.4543472 0.31435108 0.1530649 -0.016853895
000240 fa 53 c0 bd e3 e8 5e 3e f3 ca b7 be d7 af 32 3e
       -0.09391017 0.21768527 -0.35897025 0.1744989
000250 8d c4 8e be c0 ed 8d be 15 e2 a2 3d d4 61 00 3e
       -0.2788433 -0.2772045 0.07953278 0.12537318
000260 74 b9 24 bd 23 8f 29 3e dd 67 0e be 04 f7 62 3e
       -0.040215924 0.16558509 -0.13906808 0.22164541
000270 31 49 37 3e 44 61 dc 3e b3 6d 94 bd f1 28 ae 3e
       0.17899014 0.43042958 -0.07247486 0.3401561
000280 08 b6 a7 3e 60 c5 7b 3e bf f2 43 be 95 3c 0e 3d
       0.32756066 0.24587011 -0.19135569 0.034725744
000290 88 43 ba bc 41 d8 0d bf 94 32 2f 3d 3c 54 47 3e
       -0.02273728 -0.554081 0.042772844 0.19465727
0002a0 3c f1 43 be ab fe ad bd 5c f7 a5 be ba 83 a6 3e
       -0.19134992 -0.0849584 -0.32415283 0.32522374
0002b0 a3 0f b5 3e a1 75 79 be 88 f8 8d be cf 3b 8b 3e
       0.35363492 -0.24361278 -0.27728677 0.27194068
0002c0 57 17 4d be aa 0c 6b 3c ea 9a ad be 85 6b df 3e
       -0.20028435 0.014346281 -0.33907253 0.43636718
0002d0 3f e6 d5 be 3a b1 b7 3d fa 77 24 3e eb be 8a bc
       -0.41777226 0.0896935 0.16061392 -0.01693674
0002e0 b7 a9 ad bc 52 44 e6 bb 2c bd 24 3d a3 99 a1 3e
       -0.02119909 -0.0070271874 0.04021947 0.31562528
0002f0 98 77 84 3e 14 c5 e2 bd 51 b4 a4 be d6 94 60 be
       0.25872493 -0.11072746 -0.3216882 -0.21931776
000300 0b 48 b4 be 9f a3 ee be f7 f7 0f 3d b9 ca d7 bd
       -0.35211214 -0.46609208 0.035148587 -0.10536713
000310 5c 4c 1e be d5 0b a5 3e 0e 14 27 be 6b 07 c0 be
       -0.15458816 0.3223559 -0.16316244 -0.3750566
000320 6d 75 51 3e 29 fb 91 3e 41 31 01 3f 08 6b b1 be
       0.2045495 0.28511932 0.5046578 -0.3465197
000330 f1 9c 5c be 6f 31 34 3e c9 fa fe 3d 36 d4 da 3d
       -0.21544243 0.17596982 0.12450177 0.10685007
000340 4b 58 1d bc 70 2b ff 3c e5 4a 82 bd 13 30 2a be
       -0.00960357 0.031148642 -0.06361941 -0.16619901
000350 18 dc e4 3e 21 8c a1 be a2 fa 16 be e1 d5 3e be
       0.44699168 -0.31552222 -0.14744046 -0.18636276
000360 bd 6c 2f 3d 2e d2 95 3e 0d d8 93 bd f2 0a 79 be
       0.04282831 0.29261917 -0.07218943 -0.24320582
000370 c6 60 6a 3e e6 73 07 3e 66 ec 9a 3e bc 67 06 be
       0.22888479 0.13227805 0.30258483 -0.13125509
000380 52 6d 77 bd 1f 28 5f bd 65 71 85 bd bc f2 03 3e
       -0.06040699 -0.05448162 -0.06515769 0.12885565
000390 54 b6 25 3f 36 0f cb 3e d5 68 12 be c2 cd 0f 3e
       0.64731336 0.39660043 -0.14297803 0.14043334
0003a0 49 6a 29 be c9 53 a7 bd d0 a7 ef 3d bd 09 a1 3e
       -0.16544451 -0.081702776 0.117019296 0.31452742
0003b0 3c d0 c1 be 10 fa 63 3e ed 4e ee 3e b8 44 58 be
       -0.37854183 0.2226336 0.4654459 -0.21119964
0003c0 c5 79 d3 3d 31 54 72 be b0 b6 f4 bd d0 85 6e be
       0.1032596 -0.23664929 -0.119489074 -0.23293233
0003d0 a8 e7 e8 bc a5 0a 4d 3d ba 9e fe 3d aa 5e 92 be
       -0.028430775 0.05005898 0.124326184 -0.28587848
0003e0 b7 af d2 be 0a 9a af 3d cb 4a 15 3e 5b ab 86 bd
       -0.41149685 0.085743025 0.14579313 -0.06575652
0003f0 84 2f a5 3c 98 48 ce 3d 0f 02 99 3d 68 9e 11 bf
       0.020164259 0.1007244 0.07471096 -0.56882334
