nnvision/data/model_weights/v1_data_driven/sota_cnn_ensemble_model_6.pth.tar (torch, 309331 bytes, 30 tensors)

core.features.layer0.conv.weight f4 [32, 1, 24, 24]
0	0xbd3d041c	-0.046146497
1	0xbda8701a	-0.08224507
2	0xbdf66737	-0.120314054
3	0xbe19ee86	-0.15032396
4	0xbe29846d	-0.16554423
5	0xbe2a84fb	-0.1665229
6	0xbe29fe77	-0.16600977
7	0xbe12b8ab	-0.14328258
8	0xbdc2eb3e	-0.09517525
9	0xbca83e10	-0.020537406
10	0x3d5fc27a	0.054628827
11	0x3deba34d	0.115057565
12	0x3e13f287	0.14447986
13	0x3e1cd2e8	0.1531483
14	0x3e15a6e0	0.14614439
15	0x3dfefea9	0.12450916
16	0x3dbbeba3	0.091758035
17	0x3d6dd4bb	0.058064204
18	0x3d3555a3	0.044271123
19	0x3d37255b	0.04471336
20	0x3d58edb2	0.05296106
21	0x3d8c5e24	0.068538934
22	0x3dbb0f6b	0.091338
23	0x3dd19fbc	0.10235545
24	0xbd609266	-0.054827116
25	0xbdd561f2	-0.10419072
26	0xbe239881	-0.15976144
27	0xbe4189b3	-0.18900184
28	0xbe46f974	-0.19431096
29	0xbe3d5738	-0.18490303
30	0xbe392aaa	-0.18082681
31	0xbe1ffa28	-0.15622771
32	0xbdda7ee8	-0.10668737
33	0xbcdbaf94	-0.02681712
34	0x3d389387	0.045062568
35	0x3dceab79	0.100912996
36	0x3df9666a	0.12177737
37	0x3df7afc5	0.12094072
38	0x3ddb3c5d	0.10704873
39	0x3dad3586	0.084574744
40	0x3d5da8a5	0.05411591
41	0x3ca36eb7	0.019950254
42	0x3bd26559	0.006420773
43	0x3b3de13a	0.0028973357
44	0x3c0cc607	0.008592135
45	0x3cbfb73f	0.023402808
46	0x3d4fcff8	0.050735444
47	0x3da35207	0.0797463
48	0xbd45dc6e	-0.04830592
49	0xbddd50fa	-0.10806461
50	0xbe30d8f6	-0.17270264
51	0xbe4691e7	-0.19391595
52	0xbe370b71	-0.17875458
53	0xbe1b1898	-0.151461
54	0xbe0b4803	-0.13601689
55	0xbde44276	-0.11145489
56	0xbd8aa346	-0.06769423
57	0xbbb492e3	-0.0055106743
58	0x3d375b4c	0.0447648
59	0x3d9cd881	0.07658482
60	0x3d9b8503	0.07593729
61	0x3d706c89	0.058697257
62	0x3d00ac70	0.03141445
63	0x3c1a26f2	0.009408699
64	0xbc1cd2b4	-0.00957172
65	0xbcd6f3b0	-0.026239246
66	0xbcd3226f	-0.025773255
67	0xbccb3653	-0.024806177
68	0xbca8fbc0	-0.020627856
69	0xbc1beba9	-0.009516635
70	0x3c89ea56	0.016835373
71	0x3d437c8f	0.04772621
72	0xbcaddfd2	-0.02122489
73	0xbdb9118d	-0.09036551
74	0xbe32244d	-0.1739666
75	0xbe52d2d9	-0.20588244
76	0xbe44a588	-0.1920377
77	0xbe26742e	-0.16255257
78	0xbe08c336	-0.13355717
79	0xbddc9f05	-0.10772518
80	0xbd7bc1ab	-0.061463993
81	0xbbd9220e	-0.006626374
82	0x3d1626d2	0.036658116
83	0x3d8aef4c	0.067839235
84	0x3d7e9a03	0.062158596
85	0x3d125988	0.035729915
86	0x3a13e7ad	0.00056421274
87	0xbce06457	-0.027391596
88	0xbd3bc5fc	-0.04584311
89	0xbd683494	-0.056690767
90	0xbd458187	-0.04821923
91	0xbd31a7c2	-0.043372877
92	0xbd0bc2b9	-0.03412125
93	0xbcccc660	-0.024996936
94	0xbb4e8aac	-0.003151576
95	0x3ce8db29	0.028424816
96	0xbca36030	-0.019943327
97	0xbddb8b39	-0.10719914
98	0xbe5c9417	-0.21540867
99	0xbe88c3a2	-0.26711756
100	0xbe883e2d	-0.26609936
101	0xbe69c825	-0.22830255
102	0xbe357070	-0.17718673
103	0xbe06a9f1	-0.13150765
104	0xbd955f93	-0.0729362
105	0xbc9b4385	-0.018953094
106	0x3cd93902	0.026516441
107	0x3d7893c4	0.060687795
108	0x3d7cc733	0.06171341
109	0x3d17e1c4	0.03708054
110	0xba2951d3	-0.0006459031
111	0xbd131f2e	-0.035918407
112	0xbd89bdf5	-0.067256846
113	0xbdab059a	-0.08350678
114	0xbd9fc1b7	-0.0780062
115	0xbd8ac76b	-0.06776317
116	0xbd434ac2	-0.047678716
117	0xbd099e69	-0.033598337
118	0xbc36a29f	-0.01114717
119	0x3c8dd98d	0.01731565
120	0xbd116d18	-0.03550443
121	0xbe0d2ada	-0.13785878
122	0xbe87e0b4	-0.26538622
123	0xbeac2164	-0.33619225
124	0xbeb17fe0	-0.34667873
125	0xbe96d1ca	-0.2945693
126	0xbe5a74ea	-0.21333662
127	0xbe11c8ed	-0.14236803
128	0xbd922e2f	-0.07137715
129	0xbc80b5cc	-0.015711688
130	0x3cf605f0	0.030032128
131	0x3d8a668a	0.06757839
132	0x3d93e510	0.072214246
133	0x3d5e5050	0.05427581
134	0x3c919a1e	0.017773684
135	0xbca84610	-0.02054122
136	0xbd71f961	-0.059075717
137	0xbdae256a	-0.0850323
138	0xbdb936aa	-0.090436295
139	0xbdaaf6c2	-0.083478466
140	0xbd77543b	-0.060383063
141	0xbd266664	-0.04062499
142	0xbc496355	-0.012291749
143	0x3c565816	0.013082525
144	0xbd652e31	-0.055952255
145	0xbe3cf3b5	-0.18452342
146	0xbeaa0464	-0.33206475
147	0xbed43ac3	-0.41451082
148	0xbed6f860	-0.4198637
149	0xbeb005fa	-0.3437956
150	0xbe6d3363	-0.23164134
151	0xbe0d51fd	-0.13800807
152	0xbd7f9211	-0.06239516
153	0xbc37100f	-0.011173262
154	0x3cc4715c	0.023979835
155	0x3d38ccc6	0.045117162
156	0x3d34ad2a	0.044110455
157	0x3cecb8d2	0.028896723
158	0x3b0c4c39	0.0021407737
159	0xbcd26c51	-0.025686415
160	0xbd6ffba0	-0.058589578
161	0xbdaf2885	-0.0855265
162	0xbdc3e6ca	-0.09565504
163	0xbdbecebd	-0.09316776
164	0xbd8cd526	-0.06876592
165	0xbd316952	-0.043313332
166	0xbc2520d9	-0.010078632
167	0x3c629f17	0.013831875
168	0xbd541694	-0.051779345
169	0xbe4e6e15	-0.2015918
170	0xbebc37ea	-0.3676141
171	0xbee3f571	-0.44523194
172	0xbedeb4c9	-0.43497303
173	0xbeb07cb9	-0.34470156
174	0xbe6c2742	-0.2306185
175	0xbe09187c	-0.13388246
176	0xbd809b0d	-0.062795736
177	0xbc204ca1	-0.009783895
178	0x3cadd924	0.021221705
179	0x3cd95482	0.026529554
180	0x3c32a1ee	0.010902865
181	0xbc35fc82	-0.011107566
182	0xbd168c7c	-0.03675507
183	0xbd59fe5c	-0.05322109
184	0xbd965fe6	-0.0734251
185	0xbdb97f03	-0.09057429
186	0xbdc59940	-0.09648371
187	0xbdc5b3f7	-0.09653466
188	0xbd9d7061	-0.0768745
189	0xbd51089e	-0.05103361
190	0xbca7e475	-0.020494679
191	0x3a424ba8	0.00074117864
192	0xbcb024fb	-0.021502009
193	0xbe3fdcfa	-0.1873664
194	0xbebb08f2	-0.36530262
195	0xbedc4525	-0.43021503
196	0xbec6556c	-0.38737047
197	0xbe937844	-0.28802693
198	0xbe44791c	-0.19186825
199	0xbe0045e9	-0.12526669
200	0xbd96863c	-0.07349822
201	0xbcb1f1cf	-0.021721749
202	0x3c66883b	0.014070566
203	0x3c8ff9d6	0.017575186
204	0xbb491ed8	-0.003068855
205	0xbd1332c2	-0.03593708
206	0xbd9203e1	-0.07129646
207	0xbdb49e96	-0.0881931
208	0xbdd39bf5	-0.10332481
209	0xbdd481a1	-0.10376287
210	0xbdcb1de9	-0.09917814
211	0xbdc4a74a	-0.0960222
212	0xbda4977f	-0.08036708
213	0xbd75eabc	-0.060038313
214	0xbd1d5db4	-0.03841944
215	0xbc9ee37e	-0.019395586
216	0x3bddcabf	0.006768554
217	0xbe171017	-0.14752232
218	0xbea2e231	-0.31813195
219	0xbeb8763c	-0.36027706
220	0xbe927bde	-0.28610128
221	0xbe379b4b	-0.17930333
222	0xbddcaac8	-0.107747614
223	0xbdb33af1	-0.087514766
224	0xbd980da1	-0.074244745
225	0xbcf5da86	-0.030011427
226	0x3ca052bb	0.019570699
227	0x3d40d584	0.047078624
228	0x3d327a3f	0.043573614
229	0x3bf5a903	0.0074969544
230	0xbd396398	-0.045260996
231	0xbdaa4e18	-0.083156765
232	0xbde7b0e8	-0.11313039
233	0xbdeb4684	-0.11488059
234	0xbdd84d36	-0.10561602
235	0xbdc88e21	-0.09792734
236	0xbdac90fe	-0.084260926
237	0xbd87f7cc	-0.066390604
238	0xbd5e7acd	-0.05431633
239	0xbd0fe224	-0.035127774
240	0x3ce8031f	0.0283218
241	0xbdc31d11	-0.09527028
242	0xbe72e488	-0.2371999
243	0xbe855b4d	-0.2604622
244	0xbe35e19f	-0.17761849
245	0xbd9e4814	-0.077285916
246	0xbcd295b0	-0.025706142
247	0xbd1bf987	-0.038079765
248	0xbd666ca1	-0.05625594
249	0xbce1d9be	-0.027569648
250	0x3cddc568	0.02707167
251	0x3da505d8	0.08057755
252	0x3dd10cf1	0.102075465
253	0x3da5f8fe	0.08104132
254	0x3cb2c01e	0.021820124
255	0xbd1b29e7	-0.037881758

core.features.layer0.norm.weight f4 [32]
0	0x3f109214	0.564729
1	0x3f1e9d12	0.6195842
2	0x400efeea	2.2343087
3	0x40092c64	2.1433344
4	0x3fbabad4	1.4588265
5	0x3f204146	0.625996
6	0x3f38e97b	0.7223126
7	0x3f5f0f98	0.8713317
8	0x3f72732f	0.94707006
9	0x3f8c2f6d	1.0951973
10	0x3f47549c	0.7786348
11	0x40354ff1	2.8330042
12	0x3f98ee3c	1.1947703
13	0x3fcccbe1	1.5999719
14	0x3f860b5c	1.0472217
15	0x3f1b5396	0.60674417
16	0x3f8ced0c	1.1009841
17	0x3ec873a2	0.3915072
18	0x3f616264	0.8804076
19	0x3f4284dd	0.75983983
20	0x3f5dacce	0.86591804
21	0x3f28e7d8	0.65978765
22	0x3f297ec0	0.6620903
23	0x3ef52fbb	0.47887978
24	0x3f60ac58	0.87762976
25	0x3f43f376	0.76543367
26	0x3fb378a6	1.4021194
27	0x3f2d62af	0.67728704
28	0x3f43f14c	0.76540065
29	0x3fea21cc	1.8291564
30	0x3f3f386c	0.7469547
31	0x3f1120fe	0.5669097

core.features.layer0.norm.bias f4 [32]
0	0xbe9f1f54	-0.3107859
1	0xbf245bc0	-0.642025
2	0xbfa6d38b	-1.3033308
3	0xbf2b7475	-0.66974574
4	0xbe9d5ce8	-0.30734944
5	0xbe1bf73d	-0.15231033
6	0xbdf185c5	-0.11793093
7	0xbd996376	-0.07489674
8	0xbfb17cd7	-1.3866223
9	0x3dad51ca	0.08462866
10	0xbf100290	-0.5625391
11	0xbfaaad7f	-1.3334197
12	0xbe2d1e16	-0.16906008
13	0xbf307105	-0.68922454
14	0xbeecfb0f	-0.46285293
15	0xbf3b3094	-0.73121
16	0x3c6b0d80	0.01434648
17	0xbe873db7	-0.26414272
18	0xbf235d9c	-0.6381471
19	0x3e397ee6	0.18114814
20	0xbfadf16f	-1.3589305
21	0xbded1d2c	-0.1157783
22	0x3e0e7b98	0.13914335
23	0xbe889c0a	-0.26681548
24	0xbfabbc21	-1.3416787
25	0x3b8c94f5	0.004290218
26	0xbebeaea1	-0.37242606
27	0xbe9b3c10	-0.30319262
28	0x3ed32ebb	0.4124659
29	0x3ee48d27	0.4463894
30	0xbf589814	-0.8460705
31	0x3eafccd9	0.34335974

core.features.layer0.norm.running_mean f4 [32]
0	0x3ee25452	0.44204956
1	0x3f045b9d	0.5170229
2	0x3cfa9c12	0.030591998
3	0x3d5522ad	0.052035023
4	0xbd61442b	-0.05499665
5	0xbed9915e	-0.4249372
6	0x3f5d9e08	0.8656926
7	0xbea68ac6	-0.3252775
8	0x3f8cdbc5	1.1004568
9	0xbd9e211d	-0.077211596
10	0x3e3f415c	0.18677276
11	0x3d2d5fc6	0.042327665
12	0x3ed252d6	0.41078824
13	0x3dea01ac	0.114261
14	0x3dc5f152	0.09665169
15	0x3f6879f9	0.90811116
16	0xbf19d898	-0.6009612
17	0xbec9a8a4	-0.39386475
18	0x3f10f1f6	0.56619203
19	0xbf1d862c	-0.61532855
20	0x3fd103c2	1.6329272
21	0xbf130f40	-0.57445145
22	0xbf891b40	-1.0711441
23	0xbe770309	-0.24122252
24	0x3fe4a60b	1.7863172
25	0xbec9c9ec	-0.39411867
26	0x3e825d97	0.25462028
27	0x3edaf34f	0.42763755
28	0xbf9c8736	-1.2228763
29	0x3d4a7409	0.049427066
30	0x3e47a81a	0.1949772
31	0xbf3b1354	-0.7307637

core.features.layer0.norm.running_var f4 [32]
0	0x431ff54b	159.95818
1	0x42b3ebf4	89.960846
2	0x413c843a	11.782282
3	0x412d88b5	10.845876
4	0x43634d3f	227.30174
5	0x42f7afec	123.8436
6	0x438a86a4	277.05188
7	0x4398d8ca	305.69366
8	0x43f08762	481.05768
9	0x43749673	244.58769
10	0x41f3a509	30.455584
11	0x41a8c2b6	21.095074
12	0x44072cdd	540.701
13	0x42ab1878	85.54779
14	0x437d74e7	253.45665
15	0x439bd0bf	311.63083
16	0x438f292e	286.32172
17	0x4281c84c	64.891205
18	0x43692a81	233.16603
19	0x4351db19	209.85585
20	0x4459003e	868.0038
21	0x4301d529	129.83266
22	0x43d28166	421.01093
23	0x421e8ef8	39.639618
24	0x44a3f400	1311.625
25	0x42fef2e2	127.47438
26	0x4304dd19	132.86366
27	0x4307e50f	135.89476
28	0x4446c072	795.00696
29	0x421c34f0	39.051697
30	0x42e69ffe	115.312485
31	0x4355a2fb	213.63664

core.features.layer1.ds_conv.in_depth_conv.weight f4 [32, 32, 1, 1]
0	0x3ddb942f	0.10721623
1	0xbce94c7c	-0.028478853
2	0xbd8aabeb	-0.06771072
3	0xbf119538	-0.56868315
4	0xbd99f1e0	-0.07516837
5	0x3dc34da9	0.09536297
6	0xbe151582	-0.14558986
7	0xbe5d78b4	-0.21628076
8	0xbe7cca55	-0.24686559
9	0x3c6845e4	0.0141768195
10	0x3d6477f4	0.05577846
11	0xbe82ad9a	-0.25523072
12	0xbe12630d	-0.14295597
13	0xbe556741	-0.2084017
14	0xbdfdf8cd	-0.124009706
15	0xbe8631cf	-0.26209876
16	0xbe2811ae	-0.16412994
17	0xba8ff83a	-0.0010984011
18	0x3d6a511d	0.057206262
19	0xbe26de24	-0.16295677
20	0xbe2be439	-0.16786279
21	0xbd5712c6	-0.052508138
22	0xbd77785c	-0.060417518
23	0xbc884705	-0.016635427
24	0xbe8e2395	-0.27761522
25	0xbe1df26d	-0.1542451
26	0x3d3fe0d2	0.046845265
27	0x3dea603c	0.114441365
28	0xbe308821	-0.17239429
29	0xbdf51d9e	-0.1196854
30	0xbe06d4ca	-0.1316711
31	0x3e4a13e1	0.19734146
32	0xbe00d24f	-0.12580226
33	0x3d7e5cae	0.062100105
34	0xbe1ae872	-0.15127733
35	0xbcb57427	-0.022150112
36	0x3e59e9c3	0.2128058
37	0xbe06f679	-0.1317996
38	0xbddc8d2c	-0.10769114
39	0x3e7bef7e	0.24603078
40	0xbecaa794	-0.39580977
41	0xbe57ecd7	-0.21086441
42	0xbd8403df	-0.06446051
43	0x3e9585ae	0.29203552
44	0xbe49aaa0	-0.19693995
45	0xbd8fa76d	-0.07014356
46	0xbe86ccd3	-0.26328143
47	0xbe1040b4	-0.14087182
48	0x3eb4f334	0.353418
49	0x3e0fb4ba	0.14033785
50	0xbd3d5e6a	-0.04623262
51	0x3d844fc5	0.06460527
52	0xbedbd372	-0.42934757
53	0x3dfdc39b	0.123908244
54	0xbe8006f1	-0.25005296
55	0xbda2934a	-0.079382494
56	0xbeb9fecd	-0.3632721
57	0x3d6b0351	0.05737621
58	0xbdcd2645	-0.10017065
59	0xbdc5c398	-0.09656447
60	0xbd64b0bc	-0.05583261
61	0x3d6d2b98	0.057902902
62	0xbd332dc9	-0.043744836
63	0xbe0ef281	-0.13959695
64	0x3d725d05	0.05917074
65	0x3e8a82d2	0.27052933
66	0xbbd93e06	-0.006629708
67	0xbe01704c	-0.12640494
68	0x3e226ef6	0.1586264
69	0x3d5b2ac3	0.053507578
70	0x3d5070c1	0.05088878
71	0xbe729d1a	-0.23692742
72	0x3ea878dc	0.32904708
73	0xbf2c601b	-0.67334145
74	0x3e5da197	0.21643673
75	0x3e8e2c2f	0.27768084
76	0xbc0a0ae0	-0.008425444
77	0x3e753436	0.23945698
78	0xbeb59499	-0.35464934
79	0x3e98c5d8	0.29838443
80	0xbd0ec9a6	-0.034860276
81	0xbeaf50c7	-0.34241316
82	0xbd0a8508	-0.033818275
83	0xbe7d71e5	-0.24750479
84	0x3ee02709	0.4377978
85	0x3e1e6bc5	0.15470798
86	0xbe1a2f01	-0.15056993
87	0x3c6cbda8	0.014449514
88	0x3e4dec33	0.20109634
89	0x3e3a07ff	0.18167113
90	0x3dadd9cd	0.08488808
91	0x3d69b64a	0.05705861
92	0x3caf3565	0.021387765
93	0x3d7c28a7	0.061562207
94	0xbdf0356a	-0.11728938
95	0x3ea8fd43	0.33005723
96	0x3ec93632	0.3929916
97	0xbb8ff7a1	-0.0043935333
98	0x3e27c309	0.16382994
99	0xbe01b5d8	-0.12667024
100	0xbd3ede21	-0.046598557
101	0x3e3cfce3	0.18455844
102	0x3e580af7	0.21097933
103	0xbe5a4a3a	-0.21317378
104	0xbf0c0db1	-0.5470839
105	0xbeb6cde7	-0.35703966
106	0xbee27954	-0.4423319
107	0xbdfd5d21	-0.123712786
108	0xbe64410f	-0.22290443
109	0xbe07aee0	-0.13250303
110	0xbeb916c5	-0.36150184
111	0x3d8692f1	0.065709956
112	0x3e80b7cd	0.2514023
113	0x3bbde16a	0.0057946937
114	0x3e61d1e3	0.22052722
115	0x3d13d068	0.036087424
116	0x3bc14060	0.0058975667
117	0x3c982252	0.018571053
118	0xbcd43b03	-0.025907045
119	0xbe9f74e7	-0.31143877
120	0xbea1c53a	-0.31595784
121	0xbdcbe6ac	-0.099561065
122	0x3ec80db4	0.39072955
123	0xbeb160a6	-0.3464405
124	0xbe102af7	-0.1407889
125	0xbdbb5546	-0.09147124
126	0x3eeb0c6a	0.4590791
127	0xbf111ff7	-0.566894
128	0xbdf34b5a	-0.118796065
129	0xbd8d6e6a	-0.069058254
130	0x3d880ee6	0.06643467
131	0x3f5ee864	0.8707335
132	0xbe979fd3	-0.29614124
133	0x3ea51c0e	0.32247967
134	0x3e691bff	0.22764586
135	0x3d2aa426	0.04166045
136	0x3d4b7585	0.049672622
137	0xbe6ec299	-0.2331642
138	0x3f7d830d	0.9902809
139	0xbe005d94	-0.12535697
140	0xbed12aac	-0.4085287
141	0x3ee3f0ac	0.44519556
142	0xbf000924	-0.5001395
143	0xbdb60310	-0.08887303
144	0xbecf2c7e	-0.40463632
145	0xbda85a8f	-0.08220398
146	0xbf14b94d	-0.58095247
147	0x3ec14f7d	0.37755957
148	0xbefffe81	-0.4999886
149	0xbe4c2a3f	-0.1993799
150	0x3e478986	0.19486055
151	0xbd8e25b2	-0.069407836
152	0xbdcef218	-0.101047695
153	0xbdf5c277	-0.11999982
154	0xbd7d1f9c	-0.061797723
155	0xbec98c8d	-0.39365044
156	0xbd9069fd	-0.07051466
157	0xbf0d05c5	-0.5508693
158	0xbd86e81d	-0.06587241
159	0xbda7e4a7	-0.08197909
160	0xbe5c59a9	-0.21518578
161	0xbea1bd40	-0.315897
162	0xbe4dad9e	-0.20085761
163	0xbdc1ce46	-0.09463172
164	0x3e5947f1	0.2121885
165	0xbde07efd	-0.10961721
166	0xbe032c35	-0.12809832
167	0x3c348728	0.011018552
168	0x3eb12c3d	0.34604064
169	0xbd027151	-0.03184635
170	0xbda6169b	-0.081097804
171	0xbf0b7287	-0.5447163
172	0x3ea8e302	0.32985693
173	0x3ebe304f	0.37146232
174	0x3ea238e8	0.3168404
175	0x3bb661cd	0.005565858
176	0xbcf440df	-0.02981609
177	0xbd8ab1f7	-0.06772225
178	0xbe0989de	-0.13431498
179	0xbdc7f277	-0.097630434
180	0xbe2aa206	-0.1666337
181	0xbd045668	-0.032308966
182	0x3d11e24b	0.0356162
183	0x3d6ac4f7	0.057316747
184	0x3e8c356f	0.27384517
185	0x3e04e1f6	0.12976822
186	0xbe9d2852	-0.30694824
187	0x3d9235f7	0.07139199
188	0x3e3c163c	0.18367857
189	0x3e2c5b2a	0.16831651
190	0x3e0c67bd	0.13711448
191	0xbd39bc14	-0.04534538
192	0xbea72111	-0.32642415
193	0x3ebf465b	0.37358364
194	0xbd506800	-0.050880432
195	0xbcd14436	-0.02554522
196	0xbd40b94c	-0.047051713
197	0x3d5a7497	0.053333845
198	0xbe314ecb	-0.17315213
199	0xbe471f53	-0.19445543
200	0x3e85b98e	0.2611813
201	0x3f076c25	0.5289939
202	0x3ee1e160	0.4411726
203	0x3cdc37d4	0.02688209
204	0x3cb450bb	0.022011152
205	0x3e084bfd	0.13310237
206	0xbd88df29	-0.066831894
207	0xbe529b71	-0.20567109
208	0xbed20a93	-0.41023692
209	0x3d7b02ef	0.061282095
210	0x3e2b9fa3	0.16760115
211	0xbe8a15e1	-0.26969817
212	0x3ca80748	0.020511284
213	0xbe02c799	-0.12771453
214	0x3ea6e0ec	0.32593477
215	0xbe478c77	-0.19487177
216	0x3ec9a765	0.39385524
217	0x3df69e04	0.12041858
218	0xbeb73f20	-0.35790348
219	0x3d5ca037	0.05386373
220	0x3ec2c8f7	0.3804395
221	0xbed1f311	-0.41005757
222	0x3de17673	0.110089205
223	0x3e8236b6	0.25432366
224	0xbe3cd80d	-0.18441792
225	0xbc9c137f	-0.019052265
226	0xbd9cbeef	-0.07653605
227	0x3e575aa2	0.21030667
228	0x3ea76ac7	0.32698652
229	0xbdc7e291	-0.09760011
230	0xbcfe7930	-0.031063646
231	0x3e99eeb0	0.30064917
232	0x3e38fa3e	0.1806421
233	0x3c99759b	0.018732836
234	0xbe39a0d3	-0.18127756
235	0x3e910f1c	0.2833184
236	0x3e1556dc	0.14583915
237	0x3e51fe4f	0.20507167
238	0xbd96fa0b	-0.07371911
239	0x3d3ffe80	0.04687357
240	0xbdef3c61	-0.11681438
241	0x3d55cc00	0.052196503
242	0xbdb0969f	-0.08622479
243	0x3e6f73c8	0.23384011
244	0x3e1d1022	0.15338185
245	0xbda014b6	-0.0781645
246	0x3c48954a	0.012242625
247	0xbdd12b72	-0.10213365
248	0xbce1648a	-0.027513761
249	0xbdfe48c3	-0.12416222
250	0x3f0f6584	0.56014276
251	0xbd552b70	-0.05204338
252	0xbe222e11	-0.15837885
253	0xbf102487	-0.56305736
254	0xbe0d27ee	-0.13784763
255	0x3e86ed20	0.26352787

core.features.layer1.ds_conv.spatial_conv.weight f4 [32, 1, 9, 9]
0	0x3e2ad12a	0.16681352
1	0x3da86d9e	0.08224033
2	0x3dc7a9d1	0.09749187
3	0x3dc32fa5	0.09530572
4	0x3d89bd87	0.067256026
5	0x3db30812	0.08741774
6	0x3d6aedaf	0.05735558
7	0x3d0e22fc	0.034701332
8	0xbd21538d	-0.03938632
9	0x3dbe708e	0.09298812
10	0x3cb13f21	0.021636548
11	0xbb28565b	-0.0025686237
12	0x3dfbf586	0.12302689
13	0x3e1107dc	0.14163154
14	0x3d87c7e9	0.06629927
15	0xbc89c3e6	-0.016817044
16	0xbd986d99	-0.07442779
17	0xbd2c194e	-0.04201632
18	0x3dd70a10	0.10499966
19	0xbd6b28ce	-0.05741196
20	0xbe007bbd	-0.12547202
21	0xbdc29e85	-0.095028915
22	0xbdbc0526	-0.091806695
23	0xbda73d77	-0.0816602
24	0xbe42c28a	-0.19019523
25	0xbe02b7e0	-0.12765455
26	0xbdb57bd7	-0.08861511
27	0x3e05402b	0.1301276
28	0xbdff4d37	-0.124658994
29	0xbe795e57	-0.24352394
30	0xbea849b3	-0.32868728
31	0xbe8fe5c1	-0.28104976
32	0xbe57791b	-0.21042292
33	0xbe2bca3b	-0.16776364
34	0xbdeb8c52	-0.11501373
35	0xbcda25d3	-0.026629364
36	0x3e0bd143	0.13654046
37	0xbd9f2e1d	-0.07772467
38	0xbe7def5a	-0.24798337
39	0xbecba168	-0.3977158
40	0xbec9c955	-0.39411417
41	0xbe8a9146	-0.2706396
42	0xbdc69fe9	-0.09698469
43	0xbcb39588	-0.021921888
44	0xbd7c7509	-0.06163505
45	0xbcb4f06c	-0.022087298
46	0xbdd3a951	-0.10335029
47	0xbea1dd0e	-0.31613964
48	0xbefb12dd	-0.4903783
49	0xbf089e44	-0.53366494
50	0xbef702e1	-0.48244384
51	0xbe73f7d3	-0.23825006
52	0xbd8eb643	-0.069683574
53	0xbde5589f	-0.11198544
54	0x3d6c1565	0.05763759
55	0x3d9cf4d3	0.07663884
56	0x3ba68ed2	0.0050829435
57	0xbda0e160	-0.07855487
58	0xbe6689aa	-0.22513452
59	0xbe9613e7	-0.2931206
60	0xbdec55a7	-0.115397744
61	0x3bba7e5a	0.005691332
62	0xbbb27388	-0.0054459013
63	0x3e6f47cb	0.2336723
64	0x3e19d054	0.15020877
65	0x3e1e6dfc	0.15471643
66	0x3cd84261	0.02639884
67	0xbca17834	-0.019710638
68	0xbdc80252	-0.097660676
69	0xbc9af789	-0.018916862
70	0xbc4db5f2	-0.012555586
71	0x3d34daf8	0.044154137
72	0x3f0b82f9	0.54496723
73	0x3e9adf35	0.30248418
74	0x3de06e3d	0.10958526
75	0xbd085c59	-0.033291195
76	0x3c4162fd	0.011803386
77	0x3c1d274a	0.009591887
78	0x3e09be23	0.13451438
79	0x3e469472	0.19392565
80	0x3e73fbd5	0.23826535
81	0xbcf241d6	-0.029572409
82	0xbcef2698	-0.029193208
83	0xbd8ea9ca	-0.069659784
84	0xbdbf007f	-0.093262665
85	0xbdd767bc	-0.10517833
86	0xbdd30aa2	-0.103047624
87	0xbdd724c3	-0.105050586
88	0xbe18a16d	-0.14905329
89	0xbe0083ea	-0.12550321
90	0xbada4856	-0.0016653638
91	0xbd639bc8	-0.055568486
92	0xbd989af8	-0.07451433
93	0xbd75ddfa	-0.060026146
94	0xbcdaafc1	-0.026695134
95	0xbd4acc82	-0.04951144
96	0xbdc27148	-0.09494263
97	0xbdb0b6ae	-0.086285934
98	0xbdc2804f	-0.09497129
99	0xbbf9a5bb	-0.0076186336
100	0xbce6a62f	-0.028155414
101	0xbd8f9b08	-0.07011992
102	0xbddc1ad6	-0.10747306
103	0xbd6b443c	-0.05743812
104	0xbd4e601c	-0.050384626
105	0xbdce35b3	-0.10068836
106	0xbe08bc29	-0.13353027
107	0xbda4a627	-0.080395035
108	0x3d0080a2	0.031372674
109	0xbcde8dc2	-0.027167205
110	0xbd901fab	-0.0703729
111	0xbd9eda81	-0.0775652
112	0xbdd267a0	-0.10273671
113	0xbdfee75f	-0.12446474
114	0xbdbdf702	-0.092756286
115	0xbdd3901b	-0.1033022
116	0xbe0cccf2	-0.13750055
117	0xbc1ef4ef	-0.009701951
118	0x3c69951e	0.014256744
119	0xbc936c78	-0.017996058
120	0xbdadeed0	-0.084928155
121	0xbde2980c	-0.11064157
122	0xbdb80152	-0.08984627
123	0xbdc3b27c	-0.095555276
124	0xbd9ff186	-0.07809739
125	0xbe232610	-0.15932488
126	0xbc7b4009	-0.015335091
127	0xbd24f676	-0.040274106
128	0xbcfefeb5	-0.031127313
129	0xbd782126	-0.060578488
130	0xbdce8050	-0.100830674
131	0xbdc381f6	-0.095462725
132	0xbdb6e673	-0.089306735
133	0xbddd29a8	-0.10798961
134	0xbe038d12	-0.12846783
135	0x3d9c3140	0.07626581
136	0x3cc6fc58	0.024290249
137	0x3cba7b4a	0.022763867
138	0xbd54a203	-0.05191232
139	0xbc8bb285	-0.017052898
140	0xbc9f98cf	-0.019482045
141	0xbd1efd62	-0.038815863
142	0xbdcb2607	-0.099193625
143	0xbd9317dc	-0.07182285
144	0x3d97466d	0.073864795
145	0x3df92535	0.121653
146	0x3dbbf6cf	0.091779344
147	0x3d4e7d31	0.05041236
148	0x39001dbe	0.00012218111
149	0x3c9419e7	0.018078757
150	0xbc3dc10f	-0.011581673
151	0xbd4f4f00	-0.05061245
152	0xbdb5cd79	-0.088770814
153	0x3defdb0e	0.11711703
154	0x3e218edb	0.15777151
155	0x3e1808bb	0.1484708
156	0x3cf6e725	0.030139515
157	0x3c8c434a	0.01712193
158	0xbbd4d54e	-0.0064951545
159	0x3d6fa2e3	0.05850495
160	0xbcd404ce	-0.025881197
161	0xbd8873a5	-0.066626824
162	0x3dcb100f	0.09915172
163	0x3bacbf63	0.0052718385
164	0xbd8a08e4	-0.06739977
165	0xbd19759f	-0.037465688
166	0xbd3c2e5c	-0.04594265
167	0xbd8da110	-0.06915486
168	0xbd8beafa	-0.068319276
169	0x3d240b26	0.040049694
170	0x3d85af99	0.06527633
171	0x3dde86cf	0.108655564
172	0x3b6e68d7	0.0036378407
173	0xbdc925f8	-0.09821695
174	0xbdfa9bab	-0.122367226
175	0xbdef66cf	-0.11689531
176	0xbe204a11	-0.15653254
177	0xbd3a2d04	-0.045453086
178	0xbac4d52f	-0.0015017147
179	0x3dc27a7a	0.09496017
180	0x3da74fc5	0.08169512
181	0xbd3efadf	-0.046625968
182	0xbe1a0ffe	-0.15045163
183	0xbe7c24dc	-0.24623436
184	0xbe5a1c2d	-0.2129981
185	0xbe0e298d	-0.13883038
186	0xbd399c97	-0.04531535
187	0x3cd17505	0.025568495
188	0x3e041015	0.1289676
189	0x3cee3a90	0.02908066
190	0xbdb0a3f5	-0.08625022
191	0xbe393ce1	-0.1808963
192	0xbe6b1014	-0.22955352
193	0xbe96bcb7	-0.29440853
194	0xbe4d9972	-0.20078066
195	0xbd8708e2	-0.06593491
196	0x3c6c5cdf	0.014426439
197	0x3dc259e3	0.09489801
198	0x3b24bb34	0.0025135996
199	0xbdae1bb2	-0.08501376
200	0xbe261cfd	-0.16221996
201	0xbe7751d4	-0.24152309
202	0xbe622a03	-0.22086339
203	0xbe1c0b55	-0.15238698
204	0xbd474270	-0.048647344
205	0x3c7303ef	0.014832481
206	0x3d7349d1	0.05939657
207	0xbd2076ad	-0.039175678
208	0xbd971c92	-0.07378496
209	0xbdc88a53	-0.09792008
210	0xbe162560	-0.14662695
211	0xbe20d06b	-0.15704505
212	0xbdfac70a	-0.12244995
213	0xbdb51d73	-0.088435076
214	0xbb964198	-0.004585456
215	0x3d79256d	0.060826708
216	0xbd3b18a9	-0.045677815
217	0xbc27ad8f	-0.010234251
218	0xbd531e1d	-0.05154239
219	0xbd2d2f73	-0.04228158
220	0xbdb2969e	-0.08720134
221	0xbd89ffe3	-0.0673826
222	0xbd4df441	-0.050281767
223	0xbc0988c9	-0.0083944285
224	0x3d8d1f27	0.068907075
225	0xbd4aef43	-0.049544584
226	0xbd8db46f	-0.069191806
227	0xbd8eeeb3	-0.06979122
228	0x3c82da60	0.01597327
229	0x3d9f5d89	0.07781512
230	0x3cdb16dc	0.026744299
231	0xbca526cc	-0.020160101
232	0xbd055c0b	-0.032558482
233	0xbcc91240	-0.024544835
234	0xbe22e003	-0.15905766
235	0xbe0d8f42	-0.1382418
236	0xbd86ef17	-0.065885715
237	0x3da97d30	0.08275831
238	0x3e0cc09b	0.13745348
239	0x3daa2a87	0.08308893
240	0x3c2f9383	0.010716322
241	0x3b47aace	0.0030466798
242	0x3c7430e7	0.014904237
243	0x3e5106ea	0.20412794
244	0x3e5a3179	0.21307935
245	0x3dc1caa2	0.09462477
246	0x3db9a643	0.09064915
247	0x3dea1233	0.114292525
248	0x3dcb2e02	0.09920885
249	0xbd78a544	-0.060704485
250	0xbe2b6f4e	-0.16741678
251	0x3c0dac03	0.008646968
252	0x3dff80da	0.12475748
253	0x3dfb6b01	0.12276269
254	0xbce1b5b8	-0.02755247
255	0x3d0cb0ef	0.034348425

core.features.layer1.ds_conv.out_depth_conv.weight f4 [32, 32, 1, 1]
0	0xbe549f9f	-0.20764016
1	0x3d98b65d	0.07456658
2	0x3caecb12	0.021337066
3	0xbeefbc9e	-0.4682359
4	0x3c1d3af6	0.009596577
5	0x3e539415	0.20661958
6	0xbda63a5e	-0.081166014
7	0xbe9b7d4a	-0.30369025
8	0xbd764726	-0.060126446
9	0xbecff234	-0.40614474
10	0x3d938a37	0.07204097
11	0x3acd21f0	0.0015650373
12	0xbd551f78	-0.052031964
13	0xbde905d8	-0.11378068
14	0xbe57bf11	-0.2106898
15	0xbe3370a2	-0.17523435
16	0xbdaf542c	-0.085609764
17	0xbdb4a8d1	-0.08821262
18	0x3e6300b7	0.22168241
19	0x3e8f149a	0.27945405
20	0xbe60b11d	-0.21942563
21	0x3d81a776	0.06330769
22	0x3df45f31	0.11932219
23	0x3e4e5585	0.2014981
24	0xbe9fe03e	-0.3122577
25	0xbf1962ae	-0.599162
26	0x3d48432c	0.048892185
27	0xbee00fd0	-0.43762064
28	0xbf06ec60	-0.5270443
29	0x3f07df32	0.53074944
30	0xbdf03115	-0.11728112
31	0x3e201fd0	0.15637136
32	0xbf0049ba	-0.501125
33	0xbdf7fecc	-0.121091455
34	0x3f10d898	0.56580496
35	0x3ea2c3c5	0.31789985
36	0x3f006e82	0.5016862
37	0x3e17ce7c	0.14824861
38	0x3e8319c0	0.25605583
39	0xbe9e9033	-0.3096939
40	0xbdcb00da	-0.09912272
41	0xbf37af48	-0.7175183
42	0x3ea1a2d8	0.31569552
43	0xbe9dd847	-0.3082907
44	0xbf1cea76	-0.6129526
45	0x3df38acb	0.11891707
46	0x3eaedc69	0.34152535
47	0x3ea03e32	0.3129745
48	0x3d10adc6	0.035321973
49	0xbde45086	-0.11148171
50	0x3ec994dd	0.39371386
51	0xbe7ba93b	-0.24576275
52	0x3d5758e6	0.052575015
53	0xbe881e5d	-0.26585665
54	0x3e661550	0.22469068
55	0xbdd83e68	-0.10558778
56	0xbe5b1efe	-0.21398541
57	0x3e9ed4d4	0.3102175
58	0xbe01565f	-0.12630604
59	0x3d9f08b8	0.07765335
60	0xbe3ad7be	-0.18246362
61	0x3e92a001	0.28637698
62	0x3dbff2d5	0.093724884
63	0xbe0e5beb	-0.13902251
64	0xbe0c91d5	-0.13727506
65	0xbe79e5ad	-0.2440402
66	0x3e9b5705	0.30339828
67	0x3dcdeb7d	0.100546815
68	0x3e840257	0.25783035
69	0xbe95786f	-0.29193446
70	0xbdf25146	-0.11831908
71	0xbd335799	-0.04378471
72	0xbe183d57	-0.1486715
73	0x3d21efb1	0.03953523
74	0xbe40b8ed	-0.18820544
75	0xbdc8e93c	-0.09810111
76	0x3ca3d104	0.019997127
77	0xbf15647a	-0.5835644
78	0x3e50ac7f	0.20378302
79	0x3dc7dcf8	0.09758943
80	0x3ef7c77d	0.48394385
81	0xbd30c57b	-0.043157082
82	0xbd9ed080	-0.07754612
83	0x3eb1f53e	0.34757417
84	0xbeb491d1	-0.352675
85	0xbede8ff1	-0.43469194
86	0xbe1a967a	-0.15096465
87	0xbea7f034	-0.32800448
88	0x3e2ea759	0.17056026
89	0x3e9b57a9	0.30340317
90	0x3e561a85	0.20908554
91	0x3d7b029b	0.06128178
92	0x3e736847	0.23770247
93	0x3e0cad97	0.13738094
94	0xbe7eb1f6	-0.24872574
95	0xbec9aaa7	-0.3938801
96	0xbe8199af	-0.25312564
97	0x3d94cc25	0.072655
98	0xbe140a9a	-0.14457169
99	0xbe9f6557	-0.31132004
100	0x3e6af909	0.22946562
101	0xbe062522	-0.13100103
102	0xbdd76a18	-0.10518283
103	0xbe633086	-0.22186479
104	0xbd43a1ee	-0.04776185
105	0x3df47db8	0.119380414
106	0xbd86228f	-0.0654956
107	0xbe125d9f	-0.14293526
108	0x3d946dbf	0.07247495
109	0x3dcb94c0	0.09940481
110	0x3dd5633f	0.1041932
111	0xbbd647dc	-0.006539328
112	0xbedefccc	-0.43552244
113	0x3ea7fdac	0.32810724
114	0xbea423e5	-0.32058635
115	0x3da6b961	0.08140827
116	0xbd7d3f5a	-0.061827995
117	0xbe414356	-0.18873343
118	0x3e5be3a5	0.21473558
119	0xbc315244	-0.010822836
120	0xbe9eb0c5	-0.3099424
121	0xbd93d966	-0.072192
122	0x3ea3ea95	0.3201491
123	0x3cff5c34	0.031171896
124	0xbe1f5039	-0.15557946
125	0x3e58a3cf	0.21156238
126	0x3c310b1e	0.010805873
127	0x3d98a39d	0.07453082
128	0xbdf18726	-0.11793356
129	0x3d704e0a	0.058668174
130	0xbe01ad11	-0.12663676
131	0x3ef88c2e	0.4854445
132	0xbecf4250	-0.4048028
133	0xbe7f91ca	-0.24957958
134	0x3e9e871d	0.30962458
135	0x3e0c29ff	0.13687895
136	0x3e449e53	0.19201021
137	0x3f12ce4e	0.57346046
138	0xbda3efd1	-0.08004726
139	0xbeb674d2	-0.35636002
140	0xbe735abd	-0.23765083
141	0xbdd8fcd6	-0.105951
142	0xbc0d1af0	-0.008612379
143	0xbd8e1e7f	-0.069394104
144	0xbe654da5	-0.223929
145	0xbec4798e	-0.3837399
146	0x3e5bcf36	0.21465763
147	0x3df17536	0.11789934
148	0x3e353b75	0.17698462
149	0xbeaeae9e	-0.34117597
150	0x3dc332cc	0.09531173
151	0x3eb01b4e	0.34395832
152	0x3d262bfe	0.040569298
153	0x3f11a5fb	0.5689389
154	0x3e389f3d	0.18029495
155	0xbecee90a	-0.4041217
156	0x3e3c1a33	0.18369369
157	0xbdf134a4	-0.117776185
158	0xbe947dfe	-0.29002374
159	0xbd955dc5	-0.07293276
160	0xbead1f42	-0.3381291
161	0xbea3faa0	-0.3202715
162	0xbd2f1c96	-0.04275187
163	0x3e877eff	0.26464078
164	0xbe6e7f8e	-0.23290846
165	0x3daaa76e	0.08332716
166	0xbc6076ed	-0.013700229
167	0xbe473e65	-0.19457395
168	0xbc885ece	-0.016646769
169	0xbdabad4f	-0.08382665
170	0xbdbf77b2	-0.09349002
171	0xbe57e064	-0.21081692
172	0x3d6328d9	0.055458877
173	0xbe06223f	-0.13099001
174	0xbf2c26d0	-0.67246723
175	0x3c58b496	0.013226649
176	0x3e2c7cf0	0.16844535
177	0xbd0faaf6	-0.03507515
178	0xbd268029	-0.040649567
179	0xbe2d8bd1	-0.16947867
180	0x3bd44c99	0.0064788577
181	0x3e407a90	0.18796754
182	0x3d34b42b	0.044117134
183	0xbdf48215	-0.11938874
184	0xbd5a19fc	-0.053247437
185	0x3ecd60f2	0.40113026
186	0x3e995a8c	0.29951894
187	0x3ecda33d	0.40163603
188	0xbe862c1f	-0.26205537
189	0x3e9e2756	0.30889386
190	0xbea9a357	-0.3313243
191	0x3d9aa506	0.07551007
192	0xbdb5e9ec	-0.08882508
193	0xbe29a16b	-0.16565482
194	0x39f843dc	0.00047352805
195	0x3c4ef4ab	0.012631576
196	0xbee5dab9	-0.44893435
197	0x3c37e11d	0.011223105
198	0x3ea8baf4	0.32955134
199	0xbe416cd1	-0.18889166
200	0x3f1ea1d4	0.6196568
201	0xbd965d63	-0.07342031
202	0xbdc74060	-0.097290754
203	0xbd140c62	-0.03614462
204	0xbe889a12	-0.26680046
205	0xbeaa6372	-0.33278996
206	0xbeca0ada	-0.39461404
207	0xbe62a234	-0.22132188
208	0xbf0e9be9	-0.5570665
209	0x3e0e8e41	0.13921453
210	0xbd2f188e	-0.042748027
211	0xbb9217bc	-0.0044583958
212	0xbef8ac3c	-0.48568904
213	0xbe80cc8e	-0.25156063
214	0x3c305e67	0.010764695
215	0x3d721819	0.059105013
216	0xbf00444a	-0.501042
217	0x3e99e4e2	0.30057436
218	0xbd90f1c5	-0.07077364
219	0xb7bdc58e	-2.262255e-05
220	0xbf0abb37	-0.5419192
221	0xbd940064	-0.07226637
222	0xbd12f8df	-0.035881873
223	0xbe843dd5	-0.25828424
224	0xbd1213f9	-0.03566358
225	0x3e2f6d42	0.17131522
226	0xbe3793b4	-0.17927438
227	0xbcd9c8a2	-0.026584927
228	0x3d803159	0.06259412
229	0xbeec7ec5	-0.46190467
230	0x3e851697	0.25993797
231	0x3e0c05d9	0.13674106
232	0xbe1d70c2	-0.15375045
233	0x3de2a562	0.110667005
234	0x3c35598a	0.011068711
235	0x3ea931cf	0.33045813
236	0xbc4523c3	-0.012032452
237	0x3e170872	0.14749315
238	0x3e20b658	0.15694559
239	0xbe8504f5	-0.25980344
240	0x3ede9962	0.43476397
241	0xbcf2f517	-0.029657884
242	0x3f02308b	0.5085532
243	0x3e106039	0.14099206
244	0x3b2513d0	0.002518881
245	0xbec33f68	-0.38134313
246	0xbf0d60bd	-0.55225736
247	0x3cc8ea27	0.024525715
248	0x3d2efd3a	0.042721964
249	0x3dfe3373	0.12412157
250	0xbe15f1ca	-0.14643016
251	0x3e851097	0.2598922
252	0xbddc0c2c	-0.10744509
253	0xbe55f229	-0.20893158
254	0x3d7ff3d0	0.062488377
255	0xbe2355ae	-0.15950653

core.features.layer1.norm.weight f4 [32]
0	0x3f709fa1	0.93993574
1	0x3fb6e6d6	1.4289196
2	0x3f4c6d37	0.7985415
3	0x3f52eb97	0.8239073
4	0x3fa526ef	1.2902507
5	0x3f7f46d5	0.99717456
6	0x3f8b994d	1.0906159
7	0x3f545908	0.8294835
8	0x40206aee	2.5065265
9	0x400001cd	2.00011
10	0x3f649a5c	0.89298034
11	0x3f534625	0.8252891
12	0x3f8692e6	1.051358
13	0x3f59c08b	0.8505942
14	0x3f257d94	0.6464474
15	0x4006d49e	2.1067271
16	0x4038368e	2.8783298
17	0x3fdd7205	1.7300421
18	0x3f22093c	0.6329534
19	0x3f3651cb	0.71218556
20	0x3f6e1c5f	0.9301204
21	0x3f575aad	0.84122735
22	0x3f5b37f8	0.85632277
23	0x3f721049	0.945561
24	0x3ff619f1	1.9226667
25	0x3f69975e	0.91246593
26	0x3fc1ec22	1.5150187
27	0x3f5c8d4a	0.8615309
28	0x3fb0ed6c	1.3822455
29	0x3f5ecb7c	0.8702924
30	0x3fa1df73	1.2646316
31	0x3f4e3acd	0.8055847

core.features.layer1.norm.bias f4 [32]
0	0xbdca5ecd	-0.09881363
1	0x3e2660ed	0.16247912
2	0xbedf69bf	-0.43635365
3	0xbed1db74	-0.40987742
4	0xbd81454e	-0.06312047
5	0xbedabc41	-0.4272175
6	0xbe7b8c49	-0.24565233
7	0xbe9dc826	-0.30816764
8	0xbf95f6b0	-1.1715908
9	0xbf6a36bc	-0.9148977
10	0xbf2ab0a9	-0.6667581
11	0xbf0bf767	-0.5467438
12	0xbed59d6b	-0.41721663
13	0xbd91c4af	-0.071175925
14	0xbf72f072	-0.9489814
15	0xbf6457dc	-0.8919656
16	0xbf3f3cf1	-0.74702364
17	0xbf64a9b2	-0.89321434
18	0x3c8c623c	0.017136686
19	0xbe681550	-0.2266438
20	0xbf0d8f2f	-0.55296606
21	0x3dd2abbe	0.102866635
22	0xbe8fe3fb	-0.28103623
23	0xbe37a197	-0.17932735
24	0xbf767ac7	-0.96281093
25	0xbfa1d16f	-1.2642039
26	0xbebd55e1	-0.36979583
27	0xbf1d11dd	-0.6135538
28	0xbf8722d7	-1.0557507
29	0xbe8f8cae	-0.28037018
30	0xbef5726a	-0.47938854
31	0xbed446ad	-0.4146017

core.features.layer1.norm.running_mean f4 [32]
0	0xc013c538	-2.3089123
1	0x40feb651	7.9597554
2	0x406f2991	3.736912
3	0xbe83f7b9	-0.25774935
4	0xbfbb360f	-1.4625872
5	0xc073d48d	-3.809848
6	0xbfb580f6	-1.4179981
7	0xbeb52286	-0.35377902
8	0xc0261d5e	-2.5955424
9	0xbfc03c32	-1.501837
10	0xc00e5bd6	-2.2243552
11	0x402365f2	2.5530972
12	0xbfa170cc	-1.2612548
13	0xbf71643c	-0.9429357
14	0xc109a0c1	-8.601747
15	0xbf4f2612	-0.80917466
16	0xc008733b	-2.132033
17	0xbfb0d26f	-1.3814219
18	0x40281647	2.6263597
19	0xbf0e24dd	-0.55525
20	0x405fa268	3.4942875
21	0x3f83edb9	1.0306922
22	0xc0c72db1	-6.2243276
23	0xbf4b09f5	-0.7931207
24	0xc03628c7	-2.8462389
25	0xc0b65381	-5.6976933
26	0xbf85760e	-1.0426652
27	0xc0745145	-3.8174603
28	0xc0545b79	-3.318083
29	0xc0338b7a	-2.805388
30	0xbf79178a	-0.9730154
31	0xbf98c14c	-1.193399

core.features.layer1.norm.running_var f4 [32]
0	0x422959e9	42.337803
1	0x42d27344	105.22513
2	0x42292621	42.287235
3	0x418db4bb	17.713247
4	0x427cc4de	63.192253
5	0x41f00e83	30.007086
6	0x4273fdf9	60.99802
7	0x41d3734a	26.431293
8	0x4326c25c	166.75922
9	0x42f80109	124.00202
10	0x41ea9433	29.322363
11	0x42249e29	41.154453
12	0x4231dbf8	44.464813
13	0x423ec396	47.691
14	0x41f0f302	30.118656
15	0x4346277f	198.15428
16	0x433085c5	176.52254
17	0x42af3761	87.60816
18	0x41efe174	29.985085
19	0x41cb455f	25.408873
20	0x41cddadf	25.73187
21	0x42459b93	49.401928
22	0x4206b070	33.672302
23	0x421953af	38.331722
24	0x42b2779b	89.233604
25	0x42338c66	44.887108
26	0x42c49714	98.295074
27	0x41e0a6cd	28.081446
28	0x42717da6	60.372704
29	0x41c34341	24.407839
30	0x42312b14	44.29207
31	0x41e92ba4	29.146309

core.features.layer1.seg_ex_block.se.1.weight f4 [2, 32]
0	0x3e25b520	0.16182375
1	0xbd8e9b5f	-0.069632284
2	0xbcd888ed	-0.026432479
3	0xbee53e01	-0.44773868
4	0x3cb21a33	0.021741008
5	0xbe0e948f	-0.13923858
6	0xbe2d5ddc	-0.16930336
7	0xbdaa4522	-0.08313967
8	0xbe3ebd80	-0.18626976
9	0xbee91904	-0.45526898
10	0x3f0deba1	0.55437666
11	0xbe6ce50c	-0.2313425
12	0x3ebe250a	0.37137634
13	0xbe82c79f	-0.25542924
14	0x3e9b36d2	0.30315262
15	0xbef4ca62	-0.47810656
16	0xbcfa40c6	-0.030548465
17	0xbe1bd0c1	-0.15216352
18	0x3e095fd2	0.13415459
19	0xbe209686	-0.1568242
20	0xbe2a7ecb	-0.1664993
21	0xbde8d301	-0.11368371
22	0x3e7d95b2	0.24764135
23	0x3d084890	0.033272326
24	0xbebd1d84	-0.3693658
25	0xbe22454a	-0.15846744
26	0x3d98b905	0.07457165
27	0x3e9d0ce4	0.30673897
28	0xbec93dc6	-0.39304942
29	0x3e87e5b7	0.26542446
30	0x3e66f2e9	0.225536
31	0xbdc1d1c0	-0.09463835
32	0xbdc6526d	-0.0968369
33	0xbe0c8be6	-0.13725242
34	0x3c966f90	0.018363744
35	0xbed78f34	-0.42101443
36	0xbbef6a1d	-0.007306351
37	0x3c53a385	0.012917404
38	0x3e34546a	0.17610326
39	0xbd172431	-0.03689975
40	0x3f0a13f7	0.53936714
41	0xbe9f2100	-0.31079865
42	0xbe522cf4	-0.20524961
43	0xbee04442	-0.43802077
44	0xbc8231f6	-0.015892964
45	0xbeb61e7f	-0.35570142
46	0x3d446148	0.047944337
47	0xbe86bc38	-0.26315475
48	0x3f0610e8	0.52369547
49	0x3d01b563	0.031667124
50	0x3e229aa4	0.15879303
51	0xbe5df5a1	-0.21675731
52	0xbda2c35f	-0.0794742
53	0xbcda6442	-0.026659135
54	0x3d7c02bf	0.061526056
55	0xbcc7cd4b	-0.024389884
56	0xbdfc3409	-0.123146124
57	0x3cc5101a	0.02405553
58	0x3cb3d51c	0.021952204
59	0xbe5399ba	-0.20664111
60	0xbe959b15	-0.2921988
61	0xbd655d04	-0.05599691
62	0x3ded63c5	0.11591295
63	0xbe3bb1db	-0.18329565

core.features.layer1.seg_ex_block.se.1.bias f4 [2]
0	0x3dd6a278	0.10480207
1	0x3df1da1b	0.118091784

core.features.layer1.seg_ex_block.se.3.weight f4 [32, 2]
0	0x3ed213f7	0.41030857
1	0xbe8c7015	-0.27429262
2	0x3fa55dbc	1.291923
3	0xbd3df132	-0.0463726
4	0xbefe58a3	-0.49677
5	0xbefb4e0f	-0.4908299
6	0xbe0d012c	-0.13769978
7	0xbe87721e	-0.26454252
8	0x3f64bc67	0.8934998
9	0xbd481884	-0.048851505
10	0x3d93c171	0.072146304
11	0x3ae21003	0.0017247204
12	0x3e3c6f00	0.18401718
13	0xbe230f7c	-0.15923876
14	0x3ea6f2a5	0.32606998
15	0x3d7debfe	0.061992638
16	0x3ec885f4	0.39164698
17	0xbf17a8f1	-0.5924216
18	0x3f309c32	0.68988335
19	0x3da34a8e	0.079732046
20	0x3f141cca	0.5785643
21	0xbe400446	-0.1875163
22	0x3ec70dfe	0.38877863
23	0xbe4d6bd7	-0.20060669
24	0xbe89ffc1	-0.26952937
25	0xbe2763d0	-0.16346669
26	0xbdeb20e8	-0.11480886
27	0x3e445be5	0.1917568
28	0x3d06cf54	0.032912567
29	0x3f8555bc	1.0416789
30	0x3f83ee21	1.0307046
31	0x3dd2c4b5	0.10291425
32	0x3e45cd5a	0.19316617
33	0xbf26815c	-0.65041137
34	0x3ec5f7bf	0.38665578
35	0xbf106b70	-0.56413937
36	0xbc785b25	-0.015158449
37	0x3ddc6948	0.10762268
38	0x3ec38fa9	0.38195542
39	0xbe258002	-0.16162112
40	0x3f076def	0.5290212
41	0xbf172dd3	-0.590543
42	0xbe1a2588	-0.1505338
43	0x3c8f29c5	0.017475972
44	0x3eab068a	0.33403426
45	0xbe8c9600	-0.2745819
46	0x3bb2584a	0.005442654
47	0x3dc5bf24	0.09655598
48	0x3f011ce5	0.50434715
49	0xbb2ded67	-0.0026539208
50	0x3f40e771	0.7535315
51	0xbe8a08fe	-0.26959985
52	0x3c859ffb	0.016311636
53	0xbeffbdef	-0.49949595
54	0x3ee4a601	0.446579
55	0xbf14e124	-0.5815604
56	0x3f2cc9f1	0.6749564
57	0xbd062fe7	-0.032760527
58	0xbf184c09	-0.5949102
59	0xbef7bfb5	-0.48388448
60	0x3dc06d6a	0.09395869
61	0xbf0f1422	-0.55890095
62	0x3e5e871c	0.21731228
63	0xbf02a25f	-0.5102901

core.features.layer1.seg_ex_block.se.3.bias f4 [32]
0	0x3d13f81f	0.0361253
1	0xbda4528e	-0.080235586
2	0x3ec89c05	0.39181533
3	0x3e969816	0.29412907
4	0xbed6c9f3	-0.4195095
5	0xbe8ff264	-0.28114617
6	0x3def8986	0.116961524
7	0xbf066823	-0.5250265
8	0x3ec6c035	0.38818517
9	0xbee681e0	-0.45020962
10	0x3d0f2af0	0.034953058
11	0xbefc2f8b	-0.49255022
12	0xbdc463ac	-0.095893234
13	0xbf122f99	-0.5710388
14	0xbdb64d92	-0.08901514
15	0xbe1c4a6e	-0.15262768
16	0xbe6e18db	-0.23251669
17	0xbc160678	-0.009156816
18	0x3c70312a	0.014660159
19	0xbe09e4f0	-0.13466239
20	0xbe335fb4	-0.17516977
21	0xbcba6104	-0.022751339
22	0x3bb68d6a	0.005571057
23	0x3c97adf5	0.018515566
24	0xbeaf12a4	-0.3419391
25	0x3eef23a6	0.46706885
26	0x3d8dd7de	0.06925939
27	0x3efd8b27	0.49520227
28	0xbeb219e4	-0.34785378
29	0x3e0bd3c6	0.13655004
30	0x3cf197aa	0.029491264
31	0x3d43b27e	0.047777645

core.features.layer2.ds_conv.in_depth_conv.weight f4 [32, 32, 1, 1]
0	0xbe452b16	-0.19254717
1	0xbde19a94	-0.110158116
2	0xbe72640d	-0.23670979
3	0xbe8e9b57	-0.2785289
4	0xbf09af42	-0.5378305
5	0xbecfc5a7	-0.40580484
6	0xbd91d9d4	-0.071216255
7	0xbdfa6eb0	-0.12228143
8	0x3d91c001	0.071167
9	0x3ed76140	0.42066383
10	0x3e32260d	0.17397328
11	0x3cc9834f	0.024598746
12	0xbd26db40	-0.040736437
13	0xbee10cbd	-0.4395503
14	0x3ea6bad1	0.32564405
15	0x3e90281c	0.281556
16	0x3eb4fee5	0.3535072
17	0x3e93c4e1	0.28861144
18	0xbcf29378	-0.029611334
19	0xbe474c15	-0.19462617
20	0xbf169d14	-0.5883343
21	0xbdf89359	-0.12137479
22	0xbe7cfe34	-0.24706346
23	0xbe88a1ef	-0.26686046
24	0xbd880575	-0.06641666
25	0xbf1cf2c0	-0.6130791
26	0xbe249412	-0.1607211
27	0x3dfaedfe	0.12252425
28	0xbe188e5a	-0.14898053
29	0xbee78891	-0.4522138
30	0xbd58028b	-0.0527368
31	0xbe9698cb	-0.29413447
32	0xbe94c6a5	-0.29057804
33	0x3e3eaabb	0.18619816
34	0x3d0bf684	0.034170642
35	0xbc84a677	-0.016192658
36	0xbc3e2ecc	-0.011607837
37	0x3c8197c7	0.015819443
38	0xbdfef601	-0.12449265
39	0x3d83b954	0.06431833
40	0x3edd4345	0.43215385
41	0x3d81a60a	0.063304976
42	0xbe90123b	-0.2813891
43	0x3bb860d0	0.0056267753
44	0xbc7c03bc	-0.01538175
45	0x3bd431ba	0.0064756544
46	0x3e8e8e36	0.27842873
47	0x3eb9b5ed	0.3627161
48	0x3ebb6ff3	0.36608848
49	0x3e46c31b	0.19410364
50	0x3e814397	0.2524688
51	0xbe37552d	-0.17903586
52	0x3b152645	0.0022758406
53	0x3e50d165	0.20392378
54	0x3eb3d4c9	0.3512328
55	0xbe1b3cc4	-0.15159899
56	0x3eda3cf7	0.42624637
57	0x3d81f4aa	0.06345494
58	0x3cd4e788	0.025989309
59	0xbea70d1d	-0.32627192
60	0x3e81930f	0.2530751
61	0xbe71c304	-0.23609549
62	0x3a99c52e	0.0011731738
63	0xbe777462	-0.2416549
64	0x3e99047a	0.29886228
65	0x3e2b1ab9	0.16709413
66	0x3dc8a47a	0.097969964
67	0x3d96d8fd	0.07365606
68	0xbe6328d2	-0.2218354
69	0x3d95a5db	0.07307025
70	0x3e2e3b7d	0.1701488
71	0x3e2850ab	0.16437022
72	0xbe984c3d	-0.29745665
73	0x3e8b122d	0.27162305
74	0x3ddfe529	0.10932381
75	0xbe564e11	-0.20928217
76	0xbe74df81	-0.23913385
77	0x3f4b2955	0.7935994
78	0x3c6fd01d	0.01463702
79	0xbe8f6d41	-0.28013042
80	0xbeab9ecf	-0.335196
81	0xbe0776ea	-0.13228956
82	0x3cd0fa93	0.025510108
83	0xbd9647bc	-0.07337901
84	0xbd51e827	-0.05124679
85	0x3dc13a30	0.094349265
86	0x3ea3934b	0.31948313
87	0xbe003197	-0.12518917
88	0xbf1c40df	-0.61036485
89	0x3e46c4c1	0.19410993
90	0xbe319800	-0.1734314
91	0x3e5c3b30	0.21506953
92	0xbe40b2a2	-0.18818143
93	0x3e56947a	0.20955077
94	0x3e348307	0.17628108
95	0x3eab5a39	0.33467272
96	0xbd152b1c	-0.036418065
97	0x3ea0bc55	0.31393686
98	0xbe2f0701	-0.17092516
99	0xbef1a6ee	-0.4719767
100	0x3ec7f5df	0.39054772
101	0xbd2623d1	-0.0405615
102	0x3ed6fdcf	0.41990516
103	0xbd0f7cae	-0.035031013
104	0x3cc8ade3	0.024496978
105	0xbd8647bc	-0.06556651
106	0xbda1d1c7	-0.0790134
107	0x3ee15cc5	0.4401609
108	0xbe4bfd1d	-0.19920774
109	0xbdea17f2	-0.114303485
110	0x3e935016	0.28772038
111	0x3ebb557c	0.36588657
112	0x3dd19a88	0.102345526
113	0xbd80d3ba	-0.06290384
114	0x3e59a9bc	0.21256155
115	0x3ba19730	0.004931353
116	0x3c4a2861	0.012338729
117	0xbec7995f	-0.389842
118	0x3db83555	0.08994547
119	0xbecc9d67	-0.39963838
120	0xbe2bc3f9	-0.16773976
121	0xbe237a0e	-0.15964529
122	0xbed420c3	-0.41431245
123	0x3eac3f30	0.33641958
124	0xbc400c41	-0.011721672
125	0x3ef39066	0.47571105
126	0xbe0df44f	-0.13862728
127	0xbc617935	-0.013761808
128	0x3e2d18f3	0.16904049
129	0xbe825d8b	-0.25461993
130	0x3d65867a	0.05603645
131	0xbe7ba840	-0.24575901
132	0x3e81893f	0.25300023
133	0x3aef70f5	0.0018267917
134	0xbdc487ae	-0.09596191
135	0x3e0f8023	0.14013724
136	0xbd902171	-0.070376284
137	0x3f1587de	0.5841044
138	0x3c0145de	0.007890193
139	0x3e0ebc60	0.13939047
140	0xbebd0d74	-0.36924326
141	0xbec3dba0	-0.38253498
142	0xbeb3ffcc	-0.35156095
143	0xbdb6ac42	-0.08919574
144	0xbd9004b8	-0.0703215
145	0x3d7cac97	0.061688032
146	0xbe20ee35	-0.15715869
147	0x3dea21a6	0.11432199
148	0xbbb394bb	-0.0054803765
149	0xbd8be97f	-0.06831645
150	0xbd914917	-0.07094019
151	0xbcd41705	-0.025889883
152	0xbdfc8686	-0.12330346
153	0xbdac7284	-0.084202796
154	0xbe586b31	-0.2113464
155	0x3dcd61f5	0.100284494
156	0xbf98f2ea	-1.1949131
157	0x3f01436c	0.504935
158	0x3f0a086a	0.5391909
159	0xbbdfa3a7	-0.006824929
160	0x3e186314	0.14881545
161	0xbdb7511f	-0.089510195
162	0x3e9effcf	0.3105454
163	0xbcb5557a	-0.022135485
164	0x3e8b5f65	0.27221218
165	0x3e366f6e	0.17815945
166	0x3ddfcac1	0.10927344
167	0x3df0f05a	0.117645934
168	0x3f67b0c4	0.905041
169	0xbe97eb0d	-0.29671517
170	0xbcec0947	-0.028813018
171	0x3db13dd7	0.08654373
172	0x3e441564	0.19148785
173	0xbe7861f0	-0.2425611
174	0xbe45bc96	-0.19310221
175	0xbe4bdb60	-0.19907904
176	0xbe8e6d5a	-0.27817804
177	0xbe169e3d	-0.147088
178	0x3d22a238	0.039705485
179	0xbc8aea46	-0.016957413
180	0x3e2d66e6	0.16933784
181	0x3e673280	0.22577858
182	0x3dc4c41a	0.09607716
183	0x3dcfaa5a	0.10139914
184	0xbf25a91c	-0.64711165
185	0xbe5c29b6	-0.21500286
186	0xbd6a3930	-0.057183444
187	0xbdd1795c	-0.102282256
188	0xbdc1d81f	-0.0946505
189	0x3e1ea700	0.15493393
190	0xbf133fff	-0.57519525
191	0x3c24f3e7	0.0100679165
192	0xbea389eb	-0.3194116
193	0xbda0897d	-0.07838724
194	0xbd11aefe	-0.035567276
195	0xbdad36f3	-0.08457746
196	0x3ef264dc	0.47342575
197	0xbe20b8de	-0.15695521
198	0x3dde5966	0.10856895
199	0x3e9e00de	0.30860037
200	0x3eb0065c	0.34379852
201	0xbf089fc9	-0.5336881
202	0xbd562f65	-0.052291293
203	0x3e45c73b	0.19314282
204	0x3eb842e2	0.35988528
205	0x3e2549f1	0.16141488
206	0xbe1402d8	-0.1445421
207	0xbe48dc42	-0.19615272
208	0x3d2f7499	0.042835806
209	0xbe93e729	-0.288873
210	0x3e8b7737	0.2723939
211	0x3ec492c3	0.3839322
212	0xbe014126	-0.12622508
213	0x3e3315ea	0.17488828
214	0xbe851a0b	-0.25996432
215	0x3e43a6b6	0.19106564
216	0x3eea79e3	0.45796117
217	0x3e8a1206	0.26966876
218	0x3eac2f07	0.3362963
219	0xbd67556d	-0.056477953
220	0xbee02f4a	-0.4378608
221	0x3e0d1bbb	0.1378011
222	0x3e9da63d	0.30790892
223	0x3e05c294	0.13062507
224	0x3e18a098	0.14905012
225	0xbdd82431	-0.10553778
226	0x3ec123e8	0.37722707
227	0x3dccf465	0.10007552
228	0xbd9fd184	-0.07803634
229	0x3ebfe753	0.37481174
230	0xbe40b8a0	-0.18820429
231	0x3dcafcb8	0.099114835
232	0xbdbd3224	-0.09238079
233	0xbce9bd1d	-0.028532559
234	0x3e8861b3	0.2663704
235	0xbef2caf8	-0.47420478
236	0xbdcd2c0a	-0.100181654
237	0x3dc9084c	0.09816036
238	0xbe0c8357	-0.13721977
239	0xbe0a06ee	-0.13479206
240	0xbe47b4d2	-0.19502571
241	0xbe61e9dd	-0.22061868
242	0x3d5775ac	0.052602455
243	0xbe21af16	-0.15789446
244	0x3e6e4f06	0.23272333
245	0x3e796ae2	0.24357179
246	0xbe6cf6e0	-0.2314105
247	0x3cdee644	0.027209409
248	0x3e1e87fa	0.15481558
249	0xbdc5bdcf	-0.09655344
250	0x3e763013	0.24041776
251	0xbbc6493b	-0.00605121
252	0xbedf3d65	-0.43601528
253	0xbd2566b0	-0.040381134
254	0xbebccc23	-0.36874494
255	0x3e5c4080	0.2150898
