nnvision/data/model_weights/v1_data_driven/sota_cnn_ensemble_model_2.pth.tar (torch, 309331 bytes, 30 tensors)

core.features.layer0.conv.weight f4 [32, 1, 24, 24]
00000000: 97a6 2f3b 39a9 ddbc 8e74 1abd bb42 39bd
00000010: 170e 02bd f1ad cbbc 3328 78ba 2677 b53c
00000020: e71f 0c3d 009c 1d3d bde0 3c3d 0948 0a3d
00000030: 2ec4 7a3c 4604 4bbc 9d6a 09bd 0e1f 85bd
00000040: 1587 95bd 78a3 c4bd 3ccb edbd 6a40 20be
00000050: 21cf 49be 8304 73be c96b 81be 12e9 6ebe
00000060: 202f ae3c 0585 0abc 5363 1ebc 692a 50bc
00000070: be09 133c 7ddb ef3b 5804 bc3c ce87 563d
00000080: 1674 963d 2856 b83d 634c e13d 6e6f d63d
00000090: 21e6 bc3d e1ba 7d3d 6a6d 343d 9325 433c
000000a0: 481f d53b 1098 8bbc 4f12 21bd 6077 b1bd
000000b0: 23ab 06be 045f 32be 7806 46be bbac 3bbe
000000c0: 7fe2 0b3d 5629 403c ab3a 8b3c f548 b73c
000000d0: d008 4c3d 6719 3b3d 9814 4e3d 353a 953d
000000e0: 6cd6 c13d 977f ef3d 350a 123e d4e6 0a3e
000000f0: 8a05 023e 3ffc ce3d 409e c03d 5a38 963d
00000100: b8ec a13d e18d 713d e763 373d c7ab a2bb
00000110: 038f 1fbd 0e78 9ebd 94d9 a8bd 5666 a2bd
00000120: 3e2c 353d d276 e23c c3c2 ff3c 5e20 233d
00000130: 9f75 863d cc08 763d a685 7a3d debc a03d
00000140: f796 c63d daf2 043e 0884 223e 311b 1f3e
00000150: 77a9 193e 9c8c 013e 59cb ed3d 9213 c33d
00000160: dd78 cc3d 10ac a23d 6060 8c3d 077d e83c
00000170: ea09 713b 8212 bebc 2833 c4bc 9df0 6fbc
00000180: a872 483d 35e8 273d a554 273d 9ada 533d
00000190: adf3 943d adc4 873d 2246 843d 6fee a43d
000001a0: 97b0 cb3d 65f8 0c3e dd57 2c3e df5a 293e
000001b0: 38a6 2a3e 74d4 193e 09ab 113e c5e9 f43d
000001c0: 7861 ed3d e0cd bc3d cba0 aa3d faea 543d
000001d0: 9519 233d 5b6f 813c 72c7 a63c ce7c b83c
000001e0: eb71 193d be8a 073d 289a 093d 5943 1f3d
000001f0: 5946 6b3d 8416 3a3d 9a68 4d3d 2870 993d
00000200: 663a d23d 0096 153e 698b 273e 23f6 253e
00000210: 12e1 223e bff3 173e bf33 0e3e 8822 e73d
00000220: 8953 d63d 3b55 a63d b2bf 9d3d 76c8 663d
00000230: cfe0 3c3d a26a e53c 21bb e03c 84bd ca3c
00000240: 4d7a 113d 3478 e63c ec18 df3c 8661 e73c
00000250: cadf 2d3d 3ef2 043d fd49 4f3d b6f5 aa3d
00000260: a208 f23d 2feb 193e bd59 1d3e 23f9 113e
00000270: 7e55 083e e141 003e ba6f ec3d 3c86 c23d
00000280: 1096 b73d 5f35 9e3d c336 a93d b077 a03d
00000290: c057 9a3d 8226 8a3d 9590 983d 21ec 763d
000002a0: 266a 193d af1f a53c 6da4 853c 78ce 803c
000002b0: fa4c 083d d641 ae3c 3db4 2b3d 2767 913d
000002c0: 2c35 c53d b21f f53d 2654 e43d e9ff c83d
000002d0: 797a af3d eb51 a53d 7db9 903d ab70 5b3d
000002e0: 49f4 673d b3f0 643d 6ea9 973d 19cf a73d
000002f0: 0990 b03d d6bb b33d f54a d03d dcc7 a23d
00000300: 6faa 053d eda7 613c eee7 063c efca 6c3c
00000310: bd0b 063d b51e c83c a7ca 2e3d 0fa8 813d
00000320: 578b 953d 16a0 a23d 548d 7b3d f490 2f3d
00000330: 971b a43c 3cd3 3a3c cfde 453b 7b12 b5bb
00000340: b691 4f3c 9f67 fb3c e145 7f3d 4a54 ae3d
00000350: cc61 de3d add9 f93d 6196 163e 220a eb3d
00000360: 1aea 2d3c f682 0ebc 7778 5abc 0c5c 07bb
00000370: bc00 a43c 0f47 6b3c de71 023d 3841 523d
00000380: 1428 4a3d 472d 253d 609c 833c 6079 8c3a
00000390: 9af6 b4bc 80ba f6bc e9a4 2dbd acb2 56bd
000003a0: 67e2 04bd 0136 073b 6153 363d f403 ac3d
000003b0: eed6 f43d 6635 0c3e 0d7b 223e 98d1 f23d
000003c0: 21e4 2dbc a1a1 f1bc 6ecb 10bd 2708 91bc
000003d0: fe4a 413b f705 023a 83b2 5a3c f8cd 0c3d
000003e0: 469b f93c 8ddc 833c 369d 0fbc ce9e 79bc
000003f0: 18e5 eabc 8dc6 0dbd 89e9 61bd 89be 94bd
0.0026802176 -0.02705823 -0.03770881 -0.045229655 -0.03175172 -0.024863215 -0.00094664394 0.022151541
0.034210112 0.03847885 0.046112765 0.033760104 0.015305562 -0.012391156 -0.03354894 -0.06500064
-0.073011555 -0.09601492 -0.116110295 -0.15649572 -0.1970792 -0.2373219 -0.25277546 -0.23331097
0.021262705 -0.008454566 -0.009667235 -0.012705424 0.008974491 0.007319866 0.02295129 0.052375607
0.073463604 0.09000808 0.11000898 0.10470472 0.09223581 0.0619458 0.044049658 0.011910814
0.006503973 -0.017040282 -0.0393241 -0.08665347 -0.13151221 -0.17419058 -0.19338405 -0.1832761
0.03415155 0.011728605 0.016995749 0.022373656 0.04981309 0.045678522 0.05031261 0.07286493
0.09464726 0.11694258 0.14261706 0.13564616 0.12697425 0.10106706 0.09405184 0.07334967
0.07906479 0.058973197 0.04477301 -0.004964325 -0.038954746 -0.07737742 -0.08244625 -0.07929675
0.044231646 0.027644549 0.0312208 0.03982579 0.06565403 0.060066983 0.061162613 0.078485236
0.09696763 0.12983266 0.15870678 0.15537716 0.15006052 0.12651294 0.11611051 0.09525217
0.0998399 0.079429746 0.068543196 0.02837993 0.003677959 -0.023202185 -0.023950174 -0.014644769
0.04893747 0.040992934 0.040852208 0.051722147 0.0727304 0.0662931 0.06458689 0.0805329
0.09945791 0.1376663 0.16830392 0.16538571 0.1666497 0.1502245 0.14225401 0.119586505
0.11590856 0.09218955 0.0833145 0.051981904 0.03981932 0.015800169 0.020358775 0.022520449
0.037462156 0.0330913 0.03359428 0.038882587 0.057440136 0.04543163 0.050148584 0.07492095
0.10265045 0.14608002 0.16361775 0.16207175 0.1590617 0.14839076 0.13886927 0.11285883
0.10465152 0.08121725 0.077025786 0.05634352 0.04611283 0.028004948 0.02743298 0.024748571
0.035517026 0.02813349 0.027233563 0.028244745 0.04244975 0.032457583 0.05060767 0.08347647
0.11818053 0.15031122 0.15366264 0.14255194 0.13313863 0.12525131 0.11544748 0.094982594
0.08964169 0.077250235 0.08262398 0.078353286 0.07536268 0.06745626 0.07449452 0.060283784
0.037454747 0.02015671 0.016313756 0.015723452 0.033276536 0.021271627 0.041919935 0.07099753
0.09629282 0.11968936 0.111488625 0.09814436 0.08568282 0.08072265 0.07066629 0.053574245
0.056629453 0.05589361 0.07405363 0.081937976 0.086212225 0.08776061 0.10170547 0.079482764
0.03263324 0.013772947 0.008234007 0.01445268 0.03272604 0.024428705 0.042673733 0.06330883
0.073019676 0.0794069 0.061414078 0.042862847 0.020032687 0.011402901 0.0030192619 -0.0055258847
0.012669018 0.030689059 0.0623225 0.085121706 0.10858497 0.121997215 0.14705803 0.11476542
0.010614896 -0.008698216 -0.013334385 -0.002065423 0.020019881 0.014360203 0.031846873 0.05133173
0.049354628 0.040326383 0.016065776 0.0010717325 -0.022090245 -0.030118227 -0.0423936 -0.05241649
-0.032442477 0.0020631554 0.04451311 0.083991915 0.11955057 0.13692245 0.15867253 0.11856383
-0.010613472 -0.029496016 -0.035350256 -0.017704083 0.0029494162 0.0004959995 0.013348225 0.034376115
0.030469548 0.016096378 -0.008765509 -0.015235616 -0.028673694 -0.03461318 -0.055154357 -0.07262904

core.features.layer0.norm.weight f4 [32]
00000000: 21a8 e53e 9bc2 4c3f 399c 4c3f 376f 2f3f
00000010: 9a07 493f fa4f 493f ddfb 673f bc2b 533f
00000020: 2c98 633f c493 6f3f 95c6 ab3f 0931 c83f
00000030: 9fe5 a73f 56d2 a23f 82f2 243f 3304 563f
00000040: 9fff 4e3f 8fab 973f eec6 a63f b098 5e3f
00000050: 2c1e 9c3f b5cb 333f 0dcb 8f3f 0501 893f
00000060: 262c cc3f 5702 7f3f 8945 7d3f 9286 9a3f
00000070: be3b 1b3f fab4 8d3f a98b cb3f dd55 523f
0.44854835 0.79984444 0.79925877 0.68529075 0.78527224 0.7863766 0.9061869 0.8248861
0.8890407 0.9358485 1.3419977 1.5639964 1.311695 1.272044 0.6443254 0.8360016
0.80858797 1.184923 1.3029459 0.8695173 1.2196708 0.7023271 1.1233841 1.0703436
1.5950973 0.99612945 0.9893423 1.2072318 0.60638034 1.1070855 1.5901996 0.82162267

core.features.layer0.norm.bias f4 [32]
00000000: 748d d03e 334f ccbd 4fe7 21bf f147 22bd
00000010: 6b54 11be 1cd3 903e a6ae f43e 3d82 73bf
00000020: d18f c23e 47c9 b9bf 0f61 f43d 4b8b 3bbe
00000030: 5258 d8be 3b31 fb3d ea63 903e 045f 89be
00000040: c377 e23e a69e a6bf 058e 97be 484a abbf
00000050: dd66 113f 2022 8e3e 3e6a a53e 15be adbe
00000060: 32bb 9dbe c30e 9dbe 395a eb3e bd8a ff3e
00000070: cf82 fdbd 9558 363f 9332 5fbe c2b5 7c3e
0.4073292 -0.099760436 -0.63243574 -0.03961939 -0.14192359 0.28286064 0.47789496 -0.951206
0.38000348 -1.451455 0.11932575 -0.18314855 -0.42254883 0.12265249 0.28201228 -0.26830304
0.44231996 -1.3017166 -0.2960054 -1.3382044 0.5679758 0.2776041 0.3230762 -0.33934084
-0.3080688 -0.30675325 0.45967272 0.49910536 -0.123784654 0.71228915 -0.21796636 0.2467871

core.features.layer0.norm.running_mean f4 [32]
00000000: ad79 793d 271b de3d b88f 9cbe 52b3 7dbe
00000010: 1f27 193e 4128 953d ddc0 c7bc ea63 b73e
00000020: 4416 323d 2c13 743e f9d4 ebba 5bc8 71bd
00000030: 4e19 be3b 8c0f 7a3f a26c aabe b0a3 4e3e
00000040: 280a 853d cfeb c5bd 2129 19bf 404c 61bc
00000050: 4c7d 5e3d d28e 8bbe c5a6 8abe f54c 63be
00000060: 008f d53c ace4 62bf 0369 bd3e 03c4 a8bd
00000070: f8cb 26bd 92d5 b43b cf0a 463e fe8c e93e
0.060907055 0.10845023 -0.305784 -0.24775437 0.1495633 0.072830684 -0.024383957 0.35818416
0.043478265 0.23835438 -0.0017992548 -0.059028964 0.0058013564 0.9767997 -0.33286005 0.2017963
0.06496078 -0.096641175 -0.5982838 -0.01375109 0.05431871 -0.272574 -0.2708036 -0.22197326
0.026069164 -0.88630176 0.3699418 -0.08240511 -0.040721864 0.0055186236 0.1934006 0.4561538

core.features.layer0.norm.running_var f4 [32]
00000000: 229c 8942 2b3f b042 a210 0d43 4ba7 a442
00000010: a969 2943 616e d543 b7d9 5b43 0f7c 0843
00000020: d345 5b43 cbf8 8344 a166 7741 922b b141
00000030: 90d6 8943 7f91 a243 cc09 8743 ec94 1643
00000040: 1f48 ae42 30db 8c42 51f0 4743 d376 a243
00000050: 4ac4 2e43 8f3d 1343 cec3 8c42 9c40 c842
00000060: 85a4 6c41 206e 4743 a5c0 7743 d100 ac41
00000070: 9eaa 1443 a3cc a641 d963 8642 0bbd 8b43
68.80495 88.123375 141.06497 82.326744 169.41273 426.86234 219.85045 136.4846
219.27275 1055.7748 15.462556 22.146275 275.67627 325.1367 270.07654 150.58173
87.14086 70.4281 199.93874 324.9283 174.76675 147.24046 70.38243 100.12619
14.790166 199.43018 247.75252 21.500399 148.66647 20.84992 67.195015 279.4769

core.features.layer1.ds_conv.in_depth_conv.weight f4 [32, 32, 1, 1]
00000000: c9ed 96bc 6ca2 073e b24e e4bd 45bc 0d3d
00000010: 6799 3a3d 6641 373d 0add 85be b9b9 363c
00000020: a2a6 03bd 961d 83be 3b85 0a3e 7b0f 69bd
00000030: 54f3 5f3d d2a6 f03d bcaa 16be 03c1 523d
00000040: 918d 89bd e0cf a5bd 9797 0a3f de7e 56be
00000050: 124c 34bd 632a 1abe 16e6 413e b34d 5ebd
00000060: b518 cebe 9596 1e3d a578 ba3d cde0 4dbe
00000070: a59e 64be 9b2c e33d bb26 2cbe e64c 883a
00000080: d6a5 7abe a0a9 d03d e393 b1be 6823 d0be
00000090: b8be 7b3e 8706 86be 4dd4 05bf 78c5 e7be
000000a0: c0d2 aabe f7aa 303e 0253 6e3e 0d20 08bf
000000b0: 0b8f 66be 6324 78be 9a3c 403f 36e9 2c3e
000000c0: 8c91 00bf 71cf 4abf c9b1 99bd 3d9a 0d3f
000000d0: 2882 3e3f d420 6abe 4c77 e53e 07c3 afbd
000000e0: 4137 cf3e ab0b a33e f354 1fbe 33f6 a43e
000000f0: 92c2 a93e f85b 123f 564a a63e 9690 b03e
00000100: 220a 3a3c ce5f 2cbe 6bf7 6c3d 7220 4d3e
00000110: 9749 823e a09d 92bd 982c 29be 86d0 3c3e
00000120: ef74 6cbe e014 403d 7774 0a3f bdd9 fbbe
00000130: 088a e03d 5d59 06be 3ac4 48be 0211 52be
00000140: 6ca2 50bd 0c54 2cbe f828 2bbe 9120 4abd
00000150: 7f9c 7a3e 0d52 ca3c b4c9 173e 0fd0 ebbd
00000160: 8505 15be de08 e53d b730 713b eec4 aabd
00000170: a9c0 2e3e 5ebc 9dbe 535a 713e 87e2 5cbd
00000180: 98d0 f2bd e168 c7be 51c0 8a3d b285 973d
00000190: 74ad 4c3d ed04 443d 8b7a 253e 621d a53d
000001a0: a31b b23d fce9 8c3e 6fd5 98be 038b 2fbe
000001b0: d9c4 083e b3b9 25be ece9 febc 04de 2e3e
000001c0: 79e0 aabd e00f 4b3e 05ab 08be c8a3 1a3b
000001d0: 4e9c 05be 10f0 843e ffdf f9bd 09de 7e3d
000001e0: f9e1 19be b273 5ebe d34f 39be c02b 833d
000001f0: c3ce d23c 6313 9d3d 042e b4bd d840 363e
00000200: 84b1 4c3e 920d 2ebe 5a8e 7b3e 3363 b1bc
00000210: 1603 c5bd 968c 923e e20b b8bc c1ef 91bd
00000220: ae0b b9be a773 a13e c62c 2e3d d479 b1be
00000230: d83d ddbe 4b2e c0bd d20c 723d 855e a23e
00000240: b0d4 8cbe 4b06 333e 3ac6 5dbe e8c6 e7bd
00000250: dc64 943e 0ff3 213e 3c4e edbd 5876 733e
00000260: 5025 babd aee9 89bd 3084 8b3d 90bc 853e
00000270: 8c5b 943d 71d2 aa3e 25bc 843e 2e37 72be
00000280: 4f89 503e 5156 993d baf0 e0bd f461 93bd
00000290: ecbf 923d 81dd 38be 7a84 95bd b792 a1be
000002a0: 5047 2a3d c592 b2be b798 a13e d8d1 d13e
000002b0: 768d 263e fad3 2cbe cadd 633d 2107 11bd
000002c0: 8526 ccbd 736d a9bd f6f8 513d d697 85be
000002d0: e701 433e da4d ba3d 55aa 1e3e 1ef7 673e
000002e0: ea9b 053f 77a1 7a3d 2dca 90bd c8b7 973e
000002f0: 2392 203d c155 be3d dae4 d53e 57bf bebd
00000300: 5c73 8a3e e6fc 36be 47ac 0e3e 8d60 153d
00000310: 54a9 08be 49de f13d e8ac c9bd d01b 2ebe
00000320: de9c 53bd 9671 5cbe 59c0 8cbd 7057 96be
00000330: f54c 42bd 7a39 e53d 16f4 afbd ba4e 79be
00000340: 7bcb 2bbe 8754 2cbc f58c 5cbe dcb2 32be
00000350: f16e 58be b728 a03d afdc b63d bd0f 9cbe
00000360: 18f5 a1be 1ba2 213c ceb5 b9be 3f49 6cbe
00000370: 655c 163e b4e6 ccbd e698 3cbe aa63 cfbd
00000380: 7624 6d3e 4b51 7e39 d704 1ebe 4689 3a3e
00000390: c142 3a3d f921 24be 92f2 41bd f8b6 533e
000003a0: 5fe3 babc 1f87 f2bd 18a7 70bd d0ac 753d
000003b0: 3ea6 5d3d 58b4 763d 9994 5a3e a71d cf3e
000003c0: 4fff bd3d 9eea 983e 2b4a a03d 8c31 08be
000003d0: 7b49 e83d 6fd4 f4bd 1442 af3d fdb1 70be
000003e0: 6e51 433d 1f98 9bbe e69b 7e3d 6556 343d
000003f0: 8967 3cbe 4abd f7bc b7c3 2f3f 736a 65be
-0.018423932 0.13245553 -0.111478224 0.034603376 0.045556452 0.044740103 -0.26145202 0.011152678
-0.032141335 -0.2560851 0.13527386 -0.05689953 0.054675415 0.117505684 -0.14713567 0.0514536
-0.06716455 -0.0809629 0.5413756 -0.20946833 -0.04401786 -0.15055232 0.18935427 -0.05427332
-0.40253225 0.038717825 0.09105042 -0.20105286 -0.22326143 0.11092492 -0.1681165 0.0010398894
-0.24477324 0.101886034 -0.3468314 -0.40652013 0.24584472 -0.26176855 -0.5227707 -0.45267844
-0.33363914 0.17252718 0.23273852 -0.53173906 -0.22515504 -0.2423263 0.7509247 0.16885838
-0.50222087 -0.7922278 -0.07504613 0.55313474 0.7441735 -0.22864085 0.4481758 -0.085821204
0.40471843 0.3184484 -0.1555975 0.32219085 0.33156258 0.57171583 0.3247859 0.3448531
0.011354955 -0.16833422 0.057853144 0.20031908 0.2544677 -0.07158971 -0.16520917 0.1843892
-0.23091482 0.046894908 0.5408396 -0.4918956 0.10963827 -0.13120027 -0.19606104 -0.205143
-0.050936148 -0.16828936 -0.16714847 -0.049347464 0.24473761 0.024697328 0.14823037 -0.115142934
-0.14552887 0.11183332 0.0036802718 -0.083383426 0.17065682 -0.30807775 0.23569612 -0.05392697
-0.11856192 -0.38947204 0.06774963 0.07398547 0.049970105 0.04785626 0.16160028 0.08062245
0.086966775 0.27522266 -0.29850337 -0.17142873 0.13356341 -0.1618412 -0.031117402 0.1707688
-0.08343596 0.19830275 -0.13346489 0.0023596156 -0.13047907 0.25964403 -0.12200927 0.062223468
-0.15027608 -0.21723822 -0.18096857 0.06404829 0.025733357 0.07669713 -0.08797839 0.17798173
0.19989592 -0.16997364 0.24566022 -0.021653747 -0.09619729 0.28622884 -0.022466604 -0.071258076
-0.36141723 0.31533548 0.042523168 -0.3466326 -0.43211246 -0.0938383 0.059094258 0.31712738
-0.27506018 0.1748287 -0.21657649 -0.11317235 0.289832 0.15815376 -0.11587188 0.23775613
-0.09089148 -0.06734024 0.06812322 0.26120424 0.07244024 0.3336368 0.25924793 -0.23653862
0.20364879 0.07487167 -0.10983415 -0.071964175 0.071655124 -0.18053247 -0.073006585 -0.31557247
0.041571915 -0.348776 0.31561825 0.4098041 0.162649 -0.16877738 0.055631436 -0.03540719
-0.099682845 -0.08272829 0.05126282 -0.26092404 0.19043694 0.0909688 0.15494664 0.22652861
0.5219103 0.06118914 -0.07069812 0.296324 0.039201867 0.092937 0.41776162 -0.09313839
0.27041137 -0.1786991 0.13932906 0.03646903 -0.13345844 0.11809976 -0.098474324 -0.17002797
-0.051663272 -0.21527705 -0.06872625 -0.29363585 -0.047436673 0.111926034 -0.085914776 -0.24346438
-0.1677684 -0.0105182 -0.21538146 -0.17451042 -0.21136071 0.07820266 0.08928811 -0.30480757
-0.31632304 0.009865309 -0.36271518 -0.23074816 0.14683683 -0.10004941 -0.18417701 -0.10126431
0.2315844 0.00024253612 -0.15431534 0.18216428 0.045473818 -0.16028585 -0.047350474 0.20675266
-0.022813497 -0.118421786 -0.058753103 0.05997926 0.05411362 0.060230583 0.21345748 0.4045231
0.09277212 0.298665 0.078266464 -0.1330015 0.1134214 -0.11954581 0.08557525 -0.23505397
0.04768508 -0.30389497 0.062160395 0.044027705 -0.1839887 -0.030241627 0.6865801 -0.22403888

core.features.layer1.ds_conv.spatial_conv.weight f4 [32, 1, 9, 9]
00000000: 2d87 debd dee2 b0bd 7aa7 8cbc 2c04 e2bc
00000010: 3f80 45bb 728d 163c a71f 2fbc 12f8 0cbb
00000020: cd3a 46bd ad6c b9bd ec78 aabd 0724 85bd
00000030: c0f4 293c 0f54 d03b 818c 12bb 4b44 353d
00000040: 8b0c 8a3d 388b f03c f43a eb3b 5741 94bd
00000050: 1978 a6bd aaa8 47bd c875 aabd 38d7 babd
00000060: 53a6 27bd d1ea 523c 9dbd 853b 19ea ad3d
00000070: acc8 10bd 5b20 a8bd f066 c3bd 2f3a 87bd
00000080: 40c6 0bbb fd84 9e3c ab60 fabb 04ce aebd
00000090: 8aa1 f33d b6ad b73c 224f a0bd c580 e7bc
000000a0: 46ff 5b3d 9abb da3d 0199 063e 7c99 343c
000000b0: 4ae0 abbd b45e dc3d 3bed c53d ab6e cc3c
000000c0: 9fef c03d c4db 143e 4e2a 623e 8f97 443e
000000d0: 63bf d73d c287 a9bb 3523 f63d f748 8a3d
000000e0: 366a 3a3d 28e3 323d 3593 df3d af93 473e
000000f0: 5c41 193e 612b 153e 99d7 063e bfa8 f93d
00000100: 0449 9f3d 2b56 bb3c 2591 5d3c 9dcc 3c3b
00000110: 64dc 753d d2ec f73d d1d9 4a3e b8da 2b3e
00000120: ca99 993d 7461 ac3c 9b0c 34bd aacd 18be
00000130: b246 fbbd d278 f4bd 6431 7cbd c17c d03d
00000140: b5d5 f63d 7089 553e ce84 883d c709 54bc
00000150: 6bf8 9f3b a4b7 203e d261 903e 96ff c03c
00000160: 046d 19be bfb3 003d 317d 73bd d60c 00be
00000170: 60ac 573e 3a3e 113f d050 093f c3c7 373e
00000180: 4496 45be 8ca2 81be 9eda e6bd ae79 783c
00000190: 670e 813e db47 d53e 187e 0e3d 929f 32bf
000001a0: 5223 72bf 7a3d f9be b39e ac3c 7f0b 253e
000001b0: e666 2d3b 555c db3d bd8b 8ebe 6d34 6bbf
000001c0: aba8 90bf 7e03 27bf ec10 9bbd c486 2b3d
000001d0: c70f ae3d 72dd c9bd ae03 a2bd bd9c 61be
000001e0: 90cc ffbd c450 e43e b31c 803f d683 4e3f
000001f0: 41f4 823e 10b7 1a3e abd6 bdbd 0467 3ebe
00000200: 2489 1dbe bd02 9a3d 6428 353e 6513 193e
00000210: 0dd8 17be 4a81 86be 16c4 af3c e982 633e
00000220: 8380 00bd 4c1d 8d3d 4856 f83d 6270 a3bd
00000230: 9885 87be e289 33be a922 28bc 9e89 f43d
00000240: 969d ebbc 696f d5bd a4b7 b13d 533a 823e
00000250: c587 3f3d 70a5 65bd 4fd7 a63d 9caf a43d
00000260: eafd dc3c 2994 9ebd 8e51 b13d 5dff 983e
00000270: 8d2c 463e 3db8 a9bd d37a dabd c2f6 a9bc
00000280: cc57 5dbd 7221 cb3c 03ad 6abe 163b 83be
00000290: eb28 593d 9ece 823e d115 223e 68b2 76bd
000002a0: bdf5 9fbd 16d0 433d e478 753e 47ba 0cbe
000002b0: 1974 84be efca efbc 1f0a 713e d822 483e
000002c0: 1bf4 033d c50d adbd 12ec 23bc cdc5 333e
000002d0: 1242 0cbe 570b 7bbe 2f38 33be 228b 063e
000002e0: 2584 833d 30e9 31bd 8bb2 cebd dc3c 14bd
000002f0: 74e8 823d ce8f 43bd dcef 2cbe 30a7 0ebe
00000300: 16cd c2bc 3a5f e63c 1dc4 b23b d2dd 97bd
00000310: 64cd 24be c044 3f3d cbf3 27bd 2f27 39be
00000320: 2ece 3ebe a450 24bd ca32 0a3d 1106 ef3d
00000330: ef01 84bc 5588 40be 9550 1f3d 9860 1fbd
00000340: 02ab 3cbe 28b0 bbbe 8891 85be a86f 613d
00000350: eb21 a53e 9382 623e 16cb 5fbd ccab da3c
00000360: 667a 9a3c 3a35 1dbe 1e85 c1be 14f8 83be
00000370: 0e7a b83d 98b3 043f 749c a53e fdd8 aa3d
00000380: 89e4 d73d 1c0e 843d a44d 64bd e14a 6ebe
00000390: f764 35be 0d3f a43d 7b79 c83e 514f b23e
000003a0: 46d7 f13d 52be 313e 886f 643e d1ad 893d
000003b0: 1d09 aabc 596e 0b3e 4bef 233e 29a1 513e
000003c0: 7a08 c33d cef9 29bd f435 b53d e855 a93d
000003d0: 641c 6fbc af2c 9cbc b0f8 153d a39f da3d
000003e0: 4efc 143e 67ae ed3d afb4 3b3e 3362 563e
000003f0: 088e 813d 09b2 11bd f298 31bd 41d8 aabb
-0.108656265 -0.086370215 -0.017169703 -0.02758988 -0.0030136255 0.009188997 -0.010688699 -0.0021510166
-0.04839592 -0.090539314 -0.08323845 -0.06501012 0.010373294 0.006357677 -0.002236158 0.044254582
0.06740674 0.02936326 0.0071786586 -0.07239025 -0.081283756 -0.048744835 -0.08323246 -0.09123081
-0.040930104 0.012873367 0.0040814416 0.08491916 -0.035347626 -0.08209296 -0.09541118 -0.066028945
-0.0021327883 0.019350523 -0.0076409183 -0.08535388 0.118960455 0.022421699 -0.078275934 -0.028259644
0.053710245 0.106803134 0.13144304 0.011022922 -0.08392389 0.10760251 0.09664389 0.024955114
0.09420704 0.14536959 0.2208645 0.1919844 0.10534551 -0.0051736543 0.12018434 0.06752198
0.045511447 0.043673664 0.109167494 0.1948993 0.14966339 0.14567329 0.13168181 0.12190389
0.077775985 0.022868237 0.013523375 0.0028808482 0.060024634 0.12105717 0.19809653 0.16782653
0.07500036 0.021042563 -0.043957334 -0.14922205 -0.122693434 -0.11937107 -0.06157054 0.10180045
0.1205248 0.2085321 0.066659555 -0.012941784 0.0048819087 0.15695053 0.2819963 0.023559373
-0.14982992 0.03142142 -0.059445564 -0.12504897 0.2106185 0.56735575 0.53638935 0.17947297
-0.19295603 -0.25319326 -0.11272167 0.015165729 0.252063 0.41656384 0.03478822 -0.69774735
-0.94585145 -0.48679715 0.021071767 0.16117667 0.0026459037 0.1071097 -0.27840987 -0.9187687
-1.1301473 -0.65239704 -0.07571587 0.04187657 0.08499103 -0.098566905 -0.07910858 -0.22032447
-0.12490189 0.4459287 1.0008758 0.80669916 0.25576976 0.15108895 -0.0926946 -0.18593985
-0.15384346 0.075200535 0.17691189 0.14948805 -0.1482851 -0.26270515 0.021455806 0.22217907
-0.03137256 0.068903536 0.12125832 -0.0798042 -0.2646911 -0.17533067 -0.01026217 0.11940311
-0.028761666 -0.104216404 0.08677605 0.25435123 0.04676034 -0.056065977 0.081465356 0.08041307
0.026976544 -0.07743103 0.086581334 0.29882327 0.19352932 -0.08287094 -0.10667958 -0.020747546
-0.054038808 0.024796221 -0.22917561 -0.25631016 0.053017538 0.2554826 0.15828635 -0.060228735
-0.07810543 0.047805868 0.23971897 -0.13742934 -0.25869825 -0.029271571 0.23539017 0.19544542
0.03221522 -0.08449892 -0.010005014 0.17555924 -0.13697079 -0.24516045 -0.17501901 0.13139012
0.06421689 -0.043435276 -0.10092648 -0.036190853 0.06391993 -0.047744565 -0.16888374 -0.13930964
-0.023779433 0.02812158 0.0054555074 -0.07415356 -0.16093975 0.046696424 -0.041003983 -0.18081354
-0.18633339 -0.040115967 0.033739842 0.11671079 -0.016114203 -0.18802007 0.03889521 -0.03891048
-0.1842461 -0.36657834 -0.26087594 0.055038124 0.3225244 0.22120123 -0.054637037 0.026693247
0.018857192 -0.15352336 -0.37796873 -0.25775206 0.09007655 0.5183654 0.32345927 0.083421685
0.105416365 0.06448004 -0.055738106 -0.23270752 -0.17714296 0.080198385 0.39155182 0.3482614
0.11808638 0.17357758 0.22308171 0.06722606 -0.020756299 0.13616313 0.16009252 0.20471634
0.09523101 -0.041497998 0.08848181 0.082683384 -0.014594171 -0.019064276 0.03661412 0.106749795
0.14549372 0.1160553 0.18330644 0.20935898 0.063259184 -0.03557018 -0.04335875 -0.0052137678

core.features.layer1.ds_conv.out_depth_conv.weight f4 [32, 32, 1, 1]
00000000: c964 d23d 41ee 2bbe 0a17 4dbe 636f 92bd
00000010: a792 53bd 9c61 903d 11a2 54bd 0311 bfbd
00000020: dcb2 14be 0c38 983e c86d 5bbd 5916 533e
00000030: a9f1 42be d832 9a3d 821c 263e fdad e7be
00000040: 121e aa3d aab7 98bf a841 b8be 94bd a3bc
00000050: d5ee 5dbe 1736 e23c c0c7 a2bb 64f9 19bf
00000060: af4a 253e 0898 3dbc 9513 42bd 5e8a 603d
00000070: c90c 7a3e 9043 ea3d 4816 92be d2c4 3a3e
00000080: f5f1 8dbe a37c 3c3f 932d aa3d 674b 893e
00000090: 5ec9 b3bd 9ba1 eabd db5e 4b3c ce20 8ebd
000000a0: 43c4 acbe 0aa7 513d 2c04 253e 4535 1c3f
000000b0: f94c 813e 6b7a eb3d ac3e 3a3d 53f5 4dbc
000000c0: ff10 acbd b811 893d 0fd9 263e b656 613e
000000d0: da28 4e3e 0c51 913c 064a 46be 6852 cebd
000000e0: 4e31 efbe 0756 38bb d574 ad3d 70bb 02bf
000000f0: 1f41 8c3e 21d7 913e cf3f dfbd 99b5 c2bd
00000100: efd5 2ebd 7399 cebe d667 9f3e d4f9 afbd
00000110: fc11 83be dc55 56be a7f1 873e a9d1 babd
00000120: 4dd6 833e 6794 a63e e347 2abe 685d 5f3e
00000130: e676 b13e 2949 b63c f62c 223e f339 eebb
00000140: b455 3c3d 6a23 fcbd b160 2fbe dbe1 83bd
00000150: 7ae8 2bbf 3ff6 233e fe33 5a3d a6b5 9d3d
00000160: d69c ecbd 67c4 5c3a e567 90be 4d8b 47be
00000170: 4bef f13d 8bf4 20bd 9c3f d5be 7acf aabe
00000180: 6d35 46bc bc14 2a3d 2cfb d0bd 4f3e 8f3e
00000190: 7e27 453e 8f44 d0be ef86 01bd 0b20 e2be
000001a0: ee7b b7bd 64b6 a3bd aea0 983e 5ce8 073e
000001b0: 10fb 1f3e 112c 7b3e 6984 303e 3306 6e3e
000001c0: 660a 9d3e 7919 153e 8acd eb3c def4 7fbe
000001d0: 1533 ba3e 3ac7 14be 1eca cabd 61e0 f5bc
000001e0: f2e4 373c 0e67 75be bb3f f6bd 1c3e 733e
000001f0: d4a3 023e c155 923e 50c9 473e bf72 e13d
00000200: f859 90bd c0e2 823d 2043 3ebd b9f0 623e
00000210: 1200 003e c842 debe 5459 793d 8752 f03d
00000220: c998 f3bd a75d a03e f770 9e3d 69b4 ef3d
00000230: 2873 403e a6ee 093d 1c78 f9be 9399 ae3d
00000240: 096c d23e 66ff 173d 5d56 4fbf 025d 933e
00000250: 03db 24be d8d2 4a3d 4184 22bd 1f9d dcbe
00000260: a9b2 6d3d 3f25 023e 3e15 37bd bf74 dfbd
00000270: f732 b33e 50c7 26bd 18d6 383e 8974 2a3e
00000280: 266d 47be e786 73bd bceb 06be 1b54 203e
00000290: 2a6f c23d 998a 2cbf 8fbe b43e a5a0 143e
000002a0: fcc5 fc3c b2c0 fd3d e13c 9a3e fe37 3b3e
000002b0: 33fb aabe ebad ebbe 5375 b83d fa7a 603e
000002c0: bbe2 25be 3127 023d 30aa 69be f6b7 9fbd
000002d0: 4f44 c13d ce4a 93be d9d1 22bc 10dc d73d
000002e0: 0a03 f23c 53a7 88be 74cd 823d ba2a a5be
000002f0: 9784 18bc b675 cabc b2e1 b73e a91e 40be
00000300: 432d 1e3d 08a9 a93d 0173 12be dad8 3a3d
00000310: c20c 503e ec8b 9bbd 45d8 b0be c8c1 d63c
00000320: 5772 803e 0156 883c d134 eabc 10d3 2ebd
00000330: a3fb 5d3c b93d 723c a82e 89be 859b bc3e
00000340: 1309 21be aeaf 483d c1ae eb3d ba34 5bba
00000350: 7251 b93f 6337 613c 07a3 19be d456 063d
00000360: 097a 5b3c 4ed6 743d 18a7 123e d0b4 e5bd
00000370: fd73 2bbd 8e21 663e 7dcf 303b 9e5e 75be
00000380: 5875 5e3e db0e c0be 2dff ccbc 298c 64be
00000390: bcce c23c 8020 e2bd 2803 49be d1ba 9f3e
000003a0: 95e2 6cbe 1589 e73e db63 0fbf 17d1 1d3e
000003b0: d99b 583e 3b9d bd3d b09e 00be 39af 0cbc
000003c0: 400f af3d 99f3 a0bd da4e eb3e c8a0 4a3e
000003d0: 4ea3 03bf 1ca7 9e3e 58f8 9bbe 5342 a6bc
000003e0: b096 7bbe ca09 73be 7bf4 25be 6fb6 953d
000003f0: edea b7bd f72f 673e 618d 84bd 3094 be3e
0.102731295 -0.16790105 -0.2002832 -0.071501516 -0.05165353 0.070498675 -0.05191237 -0.093294166
-0.14521354 0.2973026 -0.053571492 0.20613994 -0.19037499 0.07529229 0.16221812 -0.4524993
0.08306517 -1.193105 -0.35987592 -0.019987859 -0.21673138 0.027613683 -0.0049676597 -0.60146165
0.16141771 -0.011571892 -0.047381956 0.054819457 0.2441894 0.11438668 -0.28532624 0.18239143
-0.2772366 0.7362768 0.08309474 0.2681534 -0.08778642 -0.11456605 0.012412752 -0.06939851
-0.33743486 0.05118469 0.16114873 0.6101878 0.25254038 0.11497959 0.045469925 -0.012570697
-0.08401679 0.06692833 0.16293739 0.22005734 0.20132771 0.017738841 -0.19364175 -0.100743115
-0.46717304 -0.0028127448 0.084695496 -0.51067257 0.27393433 0.28484443 -0.109008424 -0.09507293
-0.04268449 -0.40351447 0.31133908 -0.08592573 -0.25599658 -0.2093119 0.26551554 -0.09122021
0.25749436 0.32535097 -0.16628985 0.21812975 0.34661025 0.022251682 0.15837464 -0.0072700917
0.04598017 -0.12311442 -0.17126729 -0.06439563 -0.67151606 0.16011904 0.05327224 0.07700662
-0.115533516 0.00084216 -0.28204265 -0.19486733 0.1181322 -0.039295714 -0.41650093 -0.33361417
-0.012097699 0.04152368 -0.10204157 0.27977225 0.19253346 -0.40677306 -0.031622823 -0.44165072
-0.089591846 -0.079937726 0.2981009 0.13272232 0.15623116 0.24528529 0.1723801 0.23244552
0.30671996 0.14560498 0.028784532 -0.24995753 0.36367097 -0.14529124 -0.09901832 -0.030014219
0.011224018 -0.23965093 -0.12023874 0.23754162 0.12757808 0.2858105 0.19510388 0.11008214
-0.0704841 0.063909054 -0.046450734 0.22162141 0.12500027 -0.43410325 0.060876206 0.11734491
-0.11894376 0.3132145 0.0773639 0.117043324 0.18793929 0.03367486 -0.4872445 0.08525386
0.4109805 0.0371088 -0.80991155 0.28781897 -0.16099171 0.049517483 -0.03967691 -0.43088624
0.05803171 0.12709521 -0.044697993 -0.109109394 0.3499982 -0.040717423 0.1805042 0.16646017
-0.1947523 -0.059454825 -0.13175863 0.15657084 0.09493859 -0.67398983 0.35301635 0.14514406
0.030856125 0.12390269 0.30124572 0.18283078 -0.33394775 -0.46031126 0.09006753 0.21921912
-0.16199772 0.031775657 -0.22818828 -0.0779876 0.09436857 -0.2876801 -0.009937727 0.105400205
0.029542465 -0.26690158 0.06386843 -0.3225916 -0.009308956 -0.024714332 0.3591438 -0.18761696
0.038617384 0.08284193 -0.14301683 0.045616962 0.20317367 -0.07595047 -0.3454 0.026215449
0.25087234 0.016642572 -0.028589638 -0.042681754 0.013548764 0.014785224 -0.26793408 0.36837402
-0.15726118 0.048995666 0.11507941 -0.0008362044 1.447798 0.013746115 -0.15003596 0.03279765
0.013395795 0.05977469 0.14321554 -0.11216128 -0.041858662 0.22473738 0.0026979141 -0.23961875
0.2172445 -0.37511334 -0.025024021 -0.22319092 0.02378022 -0.11041355 -0.1963011 0.31197217
-0.23133309 0.45221773 -0.5601174 0.15411793 0.21153201 0.09258505 -0.12560534 -0.008586698
0.085478306 -0.078589626 0.45958596 0.19787896 -0.5142106 0.3098687 -0.3046291 -0.020295298
-0.24569201 -0.23734203 -0.16206543 0.07310187 -0.089803554 0.22576891 -0.064722784 0.37222433

core.features.layer1.norm.weight f4 [32]
00000000: b053 b13f 85a3 a93f ad0d 9e3e 2744 6b3f
00000010: e744 a33f 82bc 693f 1e98 0640 d6fd 663f
00000020: c3de 0640 13b0 c23f 76ec 893f c7a9 c33f
00000030: 7236 863f 25c0 0f40 24a9 7e3f 976c de3f
00000040: 7743 a03f ff9f 9e3f cf10 9c3f 89e1 8c3f
00000050: 3a63 773f 4dbf 0740 6331 2040 9dc3 eb3f
00000060: 5869 953f baf3 813f 27e8 b53f 9374 4a3f
00000070: 4cc0 523f 2789 713f 2264 f53f 513e 4c3f
1.3853664 1.3253027 0.3086981 0.9190087 1.2755402 0.91303265 2.1030345 0.9023107
2.1073463 1.5209984 1.0775287 1.5286187 1.0485365 2.2461026 0.9947684 1.7376889
1.2520589 1.2392577 1.219263 1.1006328 0.9663578 2.121051 2.5030143 1.8419071
1.1672773 1.0152504 1.4211472 0.7908413 0.8232467 0.943499 1.9171183 0.7978259

core.features.layer1.norm.bias f4 [32]
00000000: e3da 3cbe 5891 e5be 98be 873f 16e3 dcbe
00000010: d98e 5bbd 1416 fcbe 8ab3 15bf f2c1 01bd
00000020: b175 39bf 14a3 07bf 0b10 8abe e301 4fbf
00000030: 24d9 febe 6fc9 aebe ab3b a1bf e291 1fbf
00000040: cec9 36bf cd7f 1ebf 4e6b 00bf b8ca 6dbe
00000050: cd58 0ebf 67d8 45bf a555 73bf 7868 6dbe
00000060: a179 fdbe dfd9 debe 6ec1 c6be d43a 4dbf
00000070: a886 be3d 94f5 92be cdfb 0ebf 8cb9 7abe
-0.18442874 -0.4483745 1.060504 -0.43142003 -0.053603027 -0.49235594 -0.5847708 -0.0316791
-0.7244521 -0.5298321 -0.26965365 -0.80862254 -0.4977504 -0.34138057 -1.2596334 -0.62331975
-0.7140168 -0.6191376 -0.50163734 -0.23221862 -0.5560425 -0.7728333 -0.9505256 -0.23184383
-0.49506858 -0.43525597 -0.3881945 -0.8016789 0.093030274 -0.28702986 -0.5585297 -0.24484843

core.features.layer1.norm.running_mean f4 [32]
00000000: 4d66 433f 2b05 4cc0 b75d 82bf 74fa 0dc0
00000010: ae01 6fc0 57d1 6dc0 3900 9bbf c851 09c0
00000020: 9a9d febf bb6b 78c0 7881 16c0 87c0 ccbf
00000030: e95d 87c0 db8c 323d 765d 19c0 70ca 06c0
00000040: c6a9 9fbf 07bc c8bf 6b6d f73d 7de6 e33e
00000050: 7fdb cec0 aecd 1fc0 2295 58c0 5297 0f3f
00000060: 497c 5b3f c275 66c0 32de a4bf 8f24 abc0
00000070: 6e15 38bf dbd6 debf a3d7 dfbf 32a1 49c0
0.76327974 -3.1878154 -1.018485 -2.2184114 -3.7344775 -3.715902 -1.2109443 -2.1456165
-1.9891846 -3.8815753 -2.3516521 -1.5996255 -4.2302136 0.04359136 -2.3963294 -2.1061058
-1.2473686 -1.5682381 0.12081417 0.44511786 -6.464294 -2.4969287 -3.3841023 0.5609027
0.8573652 -3.6009374 -1.2880309 -5.3482127 -0.719077 -1.7409319 -1.7487682 -3.1504636

core.features.layer1.norm.running_var f4 [32]
00000000: af14 7142 fb9c c941 b933 0142 e9b5 8341
00000010: 9edf c541 cc73 3d41 05b4 a042 93e5 8041
00000020: 8497 a542 8722 3042 495d a041 db72 2542
00000030: dcea 7441 4697 b142 307e 9641 1a31 3142
00000040: 4cf4 f941 00eb a641 9844 e941 9bb7 2d41
00000050: 500e f241 7ea9 8942 d6e6 a342 17ec 8a42
00000060: e399 ec41 213b 9d41 c800 1042 4993 6141
00000070: 64cc 4641 2cb3 cd41 e75a 7a42 7b1c 8841
60.2702 25.20165 32.30051 16.463823 24.734188 11.840771 80.3516 16.112097
82.79593 44.03372 20.04555 41.362164 15.307339 88.795456 18.811615 44.29795
31.244286 20.864746 29.158493 10.857326 30.256989 68.83104 81.95085 69.46111
29.57514 19.653872 36.000763 14.098458 12.4249 25.712486 62.58877 17.013906

core.features.layer1.seg_ex_block.se.1.weight f4 [2, 32]
00000000: dfcb 0dbe 8ac5 b6bd b2b5 073e d1cb 833e
00000010: 5acd 3c3e 5448 66be 1fcb e7be 9112 a23e
00000020: de7d 0abf 9620 96bd 376e 6cbe bfd4 0a3e
00000030: 53af 8f3e 1dae 91bd e43c 57be f3b8 193e
00000040: 394c e0be 22ae 62be ad8c 04be afdb 23be
00000050: 7715 10be 1c26 39be 328f 1bbe 142b b8bb
00000060: d976 d5bd b5ee b73e 1ea5 2ebe 5f35 4e3e
00000070: 6f4c c63d c054 04be 87a4 0ebe 6147 39be
00000080: 9689 cd3e a582 9dbd 59f1 ef3d 5d58 12be
00000090: 95ff cfbc 461d 153e fcae b43c d0c6 b7bb
000000a0: eed1 dabd b4fe d1be 23b4 343b 85ef 203c
000000b0: a0e8 4fbd 683a f43e 98b5 ac3d d3a4 963d
000000c0: a597 aebe 4872 9b3d 688d 0bbe ec47 663d
000000d0: 79f4 41bd a85e c93e e6fe c33c edd5 1dbc
000000e0: 0867 383e 05a6 cbbd fc50 86bd 2a93 8bbd
000000f0: f684 93b9 2b61 f13d e683 b23e d139 a03e
-0.13847302 -0.08924396 0.13252905 0.25741437 0.1843771 -0.22488528 -0.45272157 0.3165479
-0.5409831 -0.07330434 -0.23088919 0.13557719 0.2806345 -0.071132876 -0.21019322 0.15011959
-0.43808153 -0.22136739 -0.12944289 -0.16001771 -0.14070688 -0.18080944 -0.15191343 -0.0056203697
-0.10423059 0.35924307 -0.17055175 0.20137547 0.09682547 -0.12922955 -0.1392995 -0.18093635
0.40144032 -0.07690934 0.11715955 -0.1429152 -0.025390426 0.14561948 0.022056095 -0.005608417
-0.10684572 -0.41014636 0.002757319 0.009822731 -0.050758958 0.4770081 0.08433074 0.073556565
-0.3410007 0.07590157 -0.13628161 0.056220934 -0.047352288 0.3933003 0.023925256 -0.009633523
0.18008053 -0.09943775 -0.06558415 -0.06815179 -0.00028137089 0.117861114 0.34866256 0.3129411

core.features.layer1.seg_ex_block.se.1.bias f4 [2]
00000000: 76f8 f43e fc5d 623e
0.4784581 0.22106165

core.features.layer1.seg_ex_block.se.3.weight f4 [32, 2]
00000000: 1962 a43e c4db debe 68c2 16be b0df dabe
00000010: e87c 97bf ca22 973f 32f0 943d bc18 063f
00000020: 59ee 93be 525a 06bf 75fb 9c3e 0cfa 95be
00000030: f9b2 653f 8c0d 99bd 79b3 0cbd 13ab 9a3d
00000040: dc3d 593f 38c4 c03d ff71 d83e 03a9 1a3e
00000050: a05e 373e 4f9f bcbe f7ba 073e 1f59 19bf
00000060: 0689 883e b161 3ebe 20c7 a53e 4bff 2cbf
00000070: 17f4 613e 0b3d a4bd bd55 ef3e 8216 06bf
00000080: d6b8 233f 71fa 0a3e abb6 2dbd 01d0 41be
00000090: c68b 8c3e 2987 533d 14d1 083f daeb afbc
000000a0: e4eb d13e e553 1dbe ebd1 be3e 26ea 1dbf
000000b0: 47ab 2c3f d023 ebbe 6ced fb3e 3eb1 08bf
000000c0: c391 a93d 2143 cfbd da3a ee3e 23fd 833e
000000d0: ed7f 2b3f a6b0 3a3e 7b2e 2ebe 7067 fabd
000000e0: 768b 7abe e55e 823e 1d5a c83c 36ea 063f
000000f0: 7647 9a3e af9a 29bf b6ea c03e 5acc c7bc
0.32106093 -0.43527043 -0.14722598 -0.42748785 -1.1834993 1.1807492 0.07272376 0.5238149
-0.28892782 -0.5248157 0.30660596 -0.29292333 0.89726216 -0.07473287 -0.034350846 0.07552161
0.84860015 0.09412426 0.42274472 0.15103535 0.1790719 -0.36840293 0.13254915 -0.59901613
0.2666704 -0.18591954 0.32378483 -0.67577046 0.22065769 -0.080194555 0.467451 -0.52378094
0.6395391 0.13572098 -0.042410534 -0.18927003 0.2745039 0.05164257 0.5344403 -0.021474767
0.41000283 -0.15364034 0.3726953 -0.6168541 0.6744885 -0.4592576 0.49204576 -0.5339545
0.08279755 -0.10120226 0.46529275 0.25779065 0.66992074 0.18231449 -0.17009918 -0.122267604
-0.24467263 0.25463024 0.024457032 0.5270113 0.30132645 -0.66251653 0.3767907 -0.024389435

core.features.layer1.seg_ex_block.se.3.bias f4 [32]
00000000: 4366 0abd 0c35 9e3e afe9 1a3f 4a49 a73e
00000010: dfeb 903e 22c7 613d bde9 21bf 4f90 7a3d
00000020: 51d6 8ebe bf6e d1be 720e 2d3e 5863 793e
00000030: 21af 05bf e2ae 21be dcb8 673e 4caf 7a3e
00000040: 0176 37bf 131d 1abf f6e3 22be 34a1 f8be
00000050: 1963 43be 3cef 213f 9365 743e 3f60 bc3c
00000060: ad41 933e 0582 fbbd 6be8 f1be 61f6 c23e
00000070: 52d9 9bbe 5b4f a73e 83bc 083f 6a1e 45be
-0.03378893 0.30899847 0.6051282 0.32673103 0.28304955 0.05512155 -0.6324728 0.06117278
-0.27897885 -0.40904805 0.16900042 0.24354303 -0.5222035 -0.15789369 0.22629112 0.24480933
-0.71664435 -0.60200614 -0.15907273 -0.48560488 -0.19080772 0.6325567 0.23866872 0.022995112
0.28761044 -0.12280659 -0.47247633 0.38078597 -0.3043924 0.3267773 0.53412646 -0.19249883

core.features.layer2.ds_conv.in_depth_conv.weight f4 [32, 32, 1, 1]
00000000: 637d 9d3d f57c 893e 3b77 823d e743 0e3e
00000010: 693d 783d 8f3a 453e f1b2 a1be 53bb 10be
00000020: bd3d ea3e 69bb 11be c6af b23e aa5b 3d3c
00000030: 0040 94be 8f95 cd3e 3768 2cbe 17e0 9b3e
00000040: 46bf 15be a5c8 f73d 3012 3b3e c528 82be
00000050: d9fa b8be 1833 643d bd10 003c e427 b33d
00000060: 7b98 9d3d 2148 5abe 8a88 263f 95a0 183d
00000070: d95a 093f 4989 e9bd 18e4 8fbe eb6c 6e3e
00000080: 946b 1ebe fa66 fb3e 84f0 b93d 3a60 9d3c
00000090: d1ea 943d 576f c33d 99e3 943d 276f b93e
000000a0: 2829 dd3d 2f6e 3f3f 5fcc 90bd 60c2 98bd
000000b0: d6a2 2ebf 7a55 74be 860b 813e 82dc f1be
000000c0: 1231 073f 2ec1 c93e 6548 2d3b 5fe8 d3bd
000000d0: 4cf1 99be c230 2dbe 5f74 6a3e ad03 f33d
000000e0: 8bb4 02bd 150b 58be 4361 e73d 7de8 db3d
000000f0: aa00 f93e f845 b63d 366f b2be a417 273d
00000100: f0f5 93bd e355 a1be 6ddc 10bb bf3a ca3d
00000110: be42 923e a068 d73c b557 6b3d 2c62 c7bd
00000120: ed53 8cbe 7602 51be 7cc4 1cbe 32be f63d
00000130: 862b 68bd 9232 b5be 3920 52be e391 8cbe
00000140: 9b44 b73e e034 1a3e 2ffd e7be 3d28 cbbe
00000150: 11da 1d3e 9856 ea3d 6b8f 93be 3fad ee3e
00000160: 8ce4 5e3d 3a33 e53e 66d9 ad3e 85c4 8d3d
00000170: 31bd bcbe 0bd0 4a3e cf6f 08be 8d94 24bd
00000180: cfdd 0abf 829c c13d 6973 fe3e 8f75 76be
00000190: f800 3bbe 61df 65be 23c6 cebd 7c05 98bd
000001a0: 0deb 4e3f b515 7bbe 051a 713e cdec 57be
000001b0: 512d 17be 19b0 9bbe e92c 02be b472 b43d
000001c0: 706e 8a3d 927b f2be d07c 2cbe 1a63 ed3d
000001d0: 671f 923e b741 76be d21a db3e 5a95 6dbd
000001e0: 8d8a 22be 02bb d8be 7796 f33e 6711 653c
000001f0: 12d3 8ebe 79da 0b3e cf76 7f3e 9f4c ad3d
00000200: 4f5e db3d ccc5 80be 58b7 20be bdd6 c7be
00000210: 6f3a b73e 6556 adbd d73c 86be fc3a 10bf
00000220: 1d4b 6a3e 7fc9 aebd b0dd ad3e 271a 873e
00000230: 661f b8be 7dc6 253e b927 a2bd 238b 1bbe
00000240: 5903 aa3e f05e 90be 3b18 25bc 11b1 52be
00000250: 5568 0d3e f44d 7b3d 4f5f 01bf 4de0 a2bd
00000260: b2f9 4a3e d1ad 04bd 5f55 b53c d8bf 143e
00000270: ab5e 46be f1ce 543e c969 333f 1134 a83d
00000280: 29ff 583e 3529 3ebe 9dde f33d da5a cf3e
00000290: da8e eebe c4d6 1ebc a293 cfbd ae26 94bd
000002a0: 6785 883e 90ee 2ebf d151 d8be 279c ca3d
000002b0: 8328 4e3f a1e5 71be 23df 6c3e 5f22 37be
000002c0: 0988 a33e c783 193d d146 603e 445c 39bf
000002d0: 75bb 653f 3d3d 813d c6b8 053d 2b6d 903e
000002e0: 2791 abbd c5be 27bf 93cb a3bd 0bd5 dcbc
000002f0: ff54 0dbe fb6d b93c ccf9 1a3e cfba adbe
00000300: 8994 88be b908 debe 5b2d b1be 771d 9b3e
00000310: 4dfc 873e a788 16be ddb2 83be 39d2 0b3e
00000320: 4eb3 f8bd 3fc7 2d3e f9a6 7e3e 8929 c73e
00000330: 72f7 c13d 0797 173e 0dbc ecbd ae12 4e3f
00000340: 211c 913e e46e cd3e a8e9 8ebd ec86 14be
00000350: 3fe4 89be c170 0cbf f051 163d 440b 09bf
00000360: 85d8 0a3d 8d7d afbe f896 d43e 2e43 a33b
00000370: 41fd b43c 020b 46bd e344 393e 966c b4be
00000380: 5b9c 553e c3d4 b03c cc9e 3bbe d991 83be
00000390: 67f9 afbe 088c e4bc 8f58 03be 86fd 02bf
000003a0: 7f09 a9be 3bf5 a8be c163 ffbe 09e3 f63e
000003b0: cb57 053f 244e 973d 20ec 30be 1a10 6d3d
000003c0: f859 19be 202e e13e 31d6 8bbe ac8e ae3e
000003d0: 7150 213d 976a 0dbe 0d56 253d 4cfa 11be
000003e0: a91a a6bd 5a1e 0fbe 0291 053d 65b7 a53e
000003f0: 8119 833e b1d5 173f 6907 d83e 547e 65be
0.07689931 0.26853147 0.06370398 0.1389309 0.06060544 0.1926062 -0.31581834 -0.14133959
0.45750228 -0.14231648 0.3489973 0.011557499 -0.28955078 0.40153167 -0.1683663 0.30444404
-0.14623746 0.12098817 0.18268657 -0.2542173 -0.36128882 0.05571279 0.007816491 0.08747843
0.07695099 -0.21316577 0.6505209 0.037262518 0.5365425 -0.11403138 -0.2810371 0.23283736
-0.15470725 0.49102002 0.09079078 0.019210923 0.0727135 0.09542721 0.07269973 0.36217615
0.107988656 0.747775 -0.07070231 -0.07458949 -0.6821722 -0.23860732 0.25204104 -0.47238547
0.5280925 0.39405197 0.0026440856 -0.10347056 -0.30066907 -0.16913131 0.22895955 0.118659355
-0.03191046 -0.21097977 0.11297848 0.10737703 0.4863332 0.08900064 -0.34850472 0.04079403
-0.07224643 -0.3151084 -0.002210404 0.09874486 0.28566545 0.026295006 0.05745669 -0.09735522
-0.2740778 -0.20411095 -0.15309328 0.120479956 -0.056682132 -0.35390145 -0.20520104 -0.27455053
0.3579453 0.15059233 -0.4531035 -0.39679137 0.15415217 0.11442298 -0.28820357 0.4661655
0.054417178 0.44765645 0.33954924 0.06922249 -0.36863092 0.19805925 -0.13323902 -0.04018073
-0.54244703 0.094536796 0.49697426 -0.24068283 -0.18262088 -0.22448494 -0.10096385 -0.07422921
0.8082741 -0.2452 0.23545082 -0.21086426 -0.1476338 -0.3040779 -0.12712444 0.088109404
0.067593455 -0.47359902 -0.16844487 0.11591168 0.28539583 -0.24048506 0.427939 -0.05800376
-0.15873165 -0.42330176 0.47575733 0.0139812 -0.2789541 0.1365756 0.24947666 0.0846188
0.10711347 -0.25150907 -0.1569494 -0.3903102 0.3578677 -0.08463744 -0.26218292 -0.56340003
0.22880216 -0.08534526 0.33958197 0.2638714 -0.35961455 0.16188999 -0.07917733 -0.15189795
0.3320568 -0.28197432 -0.010076578 -0.20575358 0.13809331 0.06135364 -0.50536054 -0.07952938
0.19821814 -0.032392327 0.022135435 0.14526308 -0.1937205 0.20782067 0.7008329 0.08213056
0.21191086 -0.18570407 0.119076945 0.40499002 -0.46593362 -0.009694759 -0.101355806 -0.0723394
0.26664278 -0.6833277 -0.4224992 0.09893065 0.80530566 -0.23622753 0.23131995 -0.17884205
0.31939724 0.03747919 0.21902014 -0.7240641 0.8973916 0.063105084 0.032646917 0.2820829
-0.08377295 -0.65525466 -0.07997813 -0.026957056 -0.13801955 0.02263545 0.15134352 -0.33931586
-0.26675823 -0.4336603 -0.34604916 0.30295917 0.26559678 -0.14700566 -0.257224 0.13654412
-0.12143575 0.16970538 0.24868383 0.38898876 0.094710246 0.14803706 -0.11559305 0.8049725
0.28341773 0.40123665 -0.0697816 -0.14504594 -0.2693195 -0.5485955 0.036699235 -0.53532815
0.033897895 -0.34275475 0.4152143 0.0049823737 0.022093417 -0.04835034 0.18092684 -0.35239094
0.20860426 0.021585828 -0.18322295 -0.2569721 -0.34369966 -0.027898803 -0.12826751 -0.51168096
-0.33015057 -0.32999596 -0.49880794 0.4822009 0.52087086 0.07387951 -0.17277575 0.057876684
-0.14975727 0.43980503 -0.27311853 0.34093225 0.039383356 -0.13810192 0.040365268 -0.14255637
-0.08110554 -0.13976422 0.032608993 0.3236648 0.25605395 0.5931044 0.42193154 -0.22411472

core.features.layer2.ds_conv.spatial_conv.weight f4 [32, 1, 9, 9]
00000000: fdcc 8c3e da27 3f3d 5037 ee3d b382 763e
00000010: c0af f43d 6160 173d 1d51 c6bc 4b45 65be
00000020: 7442 883e dae2 53bc 5abb 8ebd 0617 be3d
00000030: 6665 8b3e 5124 1e3d 4072 6fbd 7c5c 5a3d
00000040: 5286 bebd 1e8c 103e 2587 213d b32b efbd
00000050: c5f6 0b3d 72c4 e63d 480b ce3c da53 a3bd
00000060: b5db c73d 7d8a 5e3b 6f72 0b3e 15d4 443e
00000070: e526 3d3e dcd7 ee3d 23e7 b93c 7959 863d
00000080: 0540 833c aaf1 3d3d edf1 1a3d 8981 f53d
00000090: aa3e 043e 9eae 423e 1f94 703e 47eb 933d
000000a0: 712c 93bd b0e5 9dbc caec fa3c 12f1 533d
000000b0: 1b12 f13d 23f2 f63d 0a82 303e dfa8 3f3e
000000c0: c060 483c e490 26be 6216 7ebd 6c3e f93c
000000d0: 088d 1abc 8f81 b33d 2028 2b3e 8f2f 6c3d
000000e0: 7cee b23d 7493 e2bc d9ba 20be 4224 d2bd
000000f0: 647d 763d bb18 64bc af1b 703d 276d 813d
00000100: f6af b63b 9ca8 1fbb c168 34bd 7dee 3bbe
00000110: 4a99 50be 0502 43be 78f0 ebbd cfa7 8a3d
00000120: f29d be3e af24 343e f74f 8b3c 0f0b 003d
00000130: 388b 0d3a d4c7 2fbe 4995 1abe 5998 ffbc
00000140: 7ec2 4e3e 4f0e ba3e 9e71 473e 6a5b 5ebd
00000150: 296f 8fbe 19e9 b9bd 18b4 433d c71f d03d
00000160: bb43 e73c 465d 173e 9b51 d43e 8aa1 363d
00000170: 05e2 84bd cb6f 00be c9c8 4e3d e88b 753d
00000180: 7cc1 c93b ddd2 7abd 116a e23c 9d56 ca3e
00000190: b216 f93d d75c bbbd 7ac1 aebe 8525 83be
000001a0: b234 94bd 8917 563d 562d 9dbc 8248 213e
000001b0: 9f29 1d3e 2ca5 343d e0df 7abc e7a4 a0be
000001c0: bc99 e9be 95f9 a5be c53d 67be 38ef 19bb
000001d0: 1481 3f3e 845b 2b3e fe7a 093e 5528 513e
000001e0: 0392 d43d d9c9 74be 6dc8 8fbe b6c6 85be
000001f0: 92fa a4bd 148e 423e a471 e33e 742a 8f3e
00000200: 1817 943e 91af d73d 385b 08bd c37f 0bbe
00000210: a5d8 2abe a947 2a3d b9b4 943e 10af d73e
00000220: a8cd f4bc 8fb5 f33d 6d4a 6c3d a1f1 fa3d
00000230: 1e9f 0c3e 0ed7 abbd 11bd 37bd f25a 593d
00000240: b6f1 d53e d1a7 37be 47f2 d63c 21d9 053d
00000250: 0fff d63c dc17 d93d 78a7 0dbc 6e85 023d
00000260: b7c8 133d 865a 2b3f a2e6 01bc 848f c33d
00000270: 2378 db3d 754e c93d b5ca 713e 31ed 5d3e
00000280: bc3a f83d 43ab 9c3d 07cf 4dbe 5e13 133d
00000290: 5cf4 01bd 09e2 d3bc 2e17 f03c c52c 0abd
000002a0: db86 36bd 81e9 013e dfeb 8fbd e724 efbd
000002b0: 4f5a d2b9 bd7c 34be 98d3 19bd 62f8 983d
000002c0: 5184 033d 50cd 163e 48ab 203e a24c 38be
000002d0: 1adb a9bd d3fd 61be 3ff5 50be 6f94 0bbe
000002e0: be70 cbbd 4967 853c 88bc 133d ca64 da3d
000002f0: 5385 dc3c 2858 73bd b14f 6fbe 8884 e5bd
00000300: fd0f fbbc 5a63 50be 8572 aabd 928d 80bd
00000310: 1597 bc3d 3f78 973d 29c6 163c e3c6 afbd
00000320: 9153 eabd 7af6 1fbe 1ea6 6bbe 1a54 bdbd
00000330: fcb8 9bbb d3eb b03d 0f76 373d 888d 03be
00000340: d2e4 803d b393 d7bc 23b3 36be 7528 a7be
00000350: 7696 49be 7972 ddbc 2221 a4ba 5db7 eabd
00000360: b9f0 86be fe1e 16be 4816 69bd cebb 8fbe
00000370: 468b 82be b887 5dbe c6a4 56bd a963 ddbc
00000380: cf09 2cbe 66c0 7ebe dd40 6bbd 5644 02be
00000390: 5754 81be 427c 5abe 1a32 98be 2a1d 8ebe
000003a0: 39e4 58be da2c a1be 40e8 2bbe 80ae 4f3e
000003b0: 9b9a d83d c13b 54be 6bc4 c5bd 9383 3cbe
000003c0: c4a1 9dbd 95f8 e4bc 0e38 f3bc 3148 3ebe
000003d0: 1ee6 20be 6479 81be 4dc5 0abe b1d7 27be
000003e0: 6eb0 dbbe efca c6be 901a 66be 104d 8ebe
000003f0: edb7 3dbe 4eab 15be f782 3dbe 91af 35bd
0.27500144 0.046668865 0.11631644 0.24073295 0.11947584 0.03695715 -0.0242086 -0.22389714
0.266132 -0.012932504 -0.06969328 0.09281735 0.27225798 0.038608853 -0.058458567 0.053310856
-0.09302963 0.1411595 0.039435524 -0.11678257 0.034170885 0.11267938 0.025151864 -0.07974978
0.09758703 0.0033957057 0.13617872 0.19221528 0.18471868 0.11662266 0.022693222 0.06560034
0.016021738 0.046373047 0.037828375 0.119875975 0.1291453 0.19011924 0.23494004 0.0722261
-0.07186211 -0.019274563 0.030630488 0.051743574 0.117710315 0.12057903 0.17237106 0.18716763
0.012230098 -0.16266209 -0.062033065 0.030425273 -0.0094330385 0.08764946 0.16714525 0.057662543
0.087368935 -0.027658202 -0.15696277 -0.10260822 0.060178176 -0.013921912 0.05862015 0.06319647
0.0055751754 -0.0024361974 -0.044045214 -0.18352695 -0.20370975 -0.19043739 -0.11520475 0.06770288
0.37229878 0.17592119 0.017005904 0.031260546 0.00053994684 -0.17166072 -0.1509601 -0.031200575
0.2019138 0.36339042 0.19476935 -0.054286398 -0.28014496 -0.09077663 0.047779173 0.10162311
0.028230539 0.14781675 0.4146851 0.04458765 -0.06488422 -0.12542646 0.050484452 0.059947878
0.0061570983 -0.06123625 0.027638467 0.39519206 0.12162532 -0.09148567 -0.34131986 -0.25614563
-0.07236613 0.05226854 -0.019186657 0.15750316 0.15347908 0.044102833 -0.015312165 -0.3137581
-0.45625103 -0.32416978 -0.22582157 -0.0023488533 0.18701583 0.16734129 0.13425824 0.20425542
0.10379412 -0.23905124 -0.280826 -0.26128167 -0.08055605 0.18999511 0.44422638 0.27962077
0.2892387 0.105315335 -0.033290118 -0.13622956 -0.16684206 0.041572247 0.2904413 0.4212575
-0.02988322 0.11899864 0.057688165 0.12253118 0.13732573 -0.08390628 -0.044858042 0.053065248
0.41785973 -0.1793511 0.026238574 0.032677773 0.026244668 0.10600254 -0.008645885 0.03186553
0.03608009 0.66935 -0.007928522 0.09548858 0.10716274 0.098294176 0.23612483 0.21672513
0.12120578 0.07649853 -0.20098506 0.035907142 -0.03172718 -0.025864618 0.029307928 -0.0337341
-0.044562202 0.12686731 -0.07027411 -0.116769604 -0.00040121606 -0.17625709 -0.037555307 0.0746925
0.03210861 0.14726758 0.15690339 -0.17997983 -0.082937434 -0.22069483 -0.20406054 -0.13630842
-0.09933613 0.016284602 0.03606847 0.10663755 0.026919043 -0.059410244 -0.23370244 -0.11206919
-0.030647272 -0.203504 -0.08322624 -0.062770024 0.09208504 0.07395982 0.0092025185 -0.085828565
-0.1144172 -0.15621367 -0.23012587 -0.09244557 -0.0047522765 0.0863873 0.044790324 -0.12846959
0.06293644 -0.026315546 -0.17841773 -0.32648054 -0.19686303 -0.027032124 -0.0012522081 -0.11460755
-0.26355532 -0.1466026 -0.056906015 -0.2807297 -0.25496882 -0.21633804 -0.052403234 -0.02702506
-0.16800617 -0.24878082 -0.057434905 -0.1272138 -0.2525966 -0.21336463 -0.29725724 -0.27756625
-0.2118081 -0.31479532 -0.16787815 0.2028141 0.10576364 -0.2072592 -0.096566044 -0.18409567
-0.0769687 -0.027950564 -0.029689815 -0.18582226 -0.15712783 -0.25287926 -0.13551827 -0.16390873
-0.42908043 -0.388267 -0.2247107 -0.2779317 -0.18527193 -0.14616129 -0.1850699 -0.044356886
